outputs/train/2024-07-05_11-36-38/runs/FactoryTaskNutBoltPickGPT-2024-07-05_11-36-38/nn/FactoryTaskNutBoltPickGPT.pth (torch, 651626 bytes, 37 tensors)

value_mean_std.running_mean f8 [1]
00000000: 1ee9 e8a3 f531 ab40
3480.979766157586

value_mean_std.running_var f8 [1]
00000000: 7c05 fb3c 4f0d 9241
75715535.24513811

value_mean_std.count f8 []
00000000: 0000 0040 004e 5b41
7157761.0

running_mean_std.running_mean f8 [41]
00000000: fbda a906 5324 9c3f 2c8c d731 0bc5 d0bf
00000010: ec40 abe6 6f9e dd3f 89a9 2e41 868e 90bf
00000020: 53ed 89df 8f48 ef3f e9fe 12f0 0b91 92bf
00000030: bc30 052a 3c25 a43f c06e d286 2b02 acbf
00000040: 4379 32fa 3c18 b2bf 10f0 6826 589e b4bf
00000050: 6ac7 6421 8e98 9b3f 145b 28cc 8517 c2bf
00000060: af20 5ee8 cedc a03f 5780 d0e0 4560 363f
00000070: ea8d 0981 597d dabe 9e5c 6c70 a2a5 db3f
00000080: 0000 0000 0000 0000 0000 0000 0000 0000
00000090: 0000 0000 0000 0000 4353 9a68 b4ff ef3f
000000a0: 1ff3 9886 961d 61bf 3490 1737 6d22 d3bf
000000b0: 5759 f8d4 8541 d93f 8e25 f6aa e0e7 fd3e
000000c0: 4ef0 2652 889d 77bf f0ee d436 198f 783f
000000d0: e2ed 3cb2 2b72 ef3f 0000 0000 0000 0000
000000e0: 0000 0000 0000 0000 0000 0000 0000 0000
000000f0: 0000 0000 0000 0000 0000 0000 0000 0000
00000100: 0000 0000 0000 0000 0000 0000 0000 0000
00000110: 0000 0000 0000 0000 0000 0000 0000 0000
00000120: 0000 0000 0000 0000 0000 0000 0000 0000
00000130: 0000 0000 0000 0000 0000 0000 0000 0000
00000140: 0000 0000 0000 0000
0.0274823162858082 -0.2620265948045837 0.4627952339769894 -0.01616868756142645 0.9776076665870427 -0.01813143399044651 0.039346580628803335 -0.05470405598427197
-0.07068234546975298 -0.08054114282362002 0.02694913939303182 -0.1413428542006946 0.03293463312644584 0.00034143167505540833 -6.315623992312022e-06 0.4319845292934107
0.0 0.0 0.0 0.999963955213936 -0.0020893039661856873 -0.29897623424608644 0.39462419317114467 2.852036658177386e-05
-0.005765469077626829 0.005995844357410837 0.9826868516169578 0.0 0.0 0.0 0.0 0.0
0.0 0.0 0.0 0.0 0.0 0.0 0.0 0.0
0.0

running_mean_std.running_var f8 [41]
00000000: 7ab5 f1b2 ada2 733f b7d4 d6b0 907b 793f
00000010: 4399 73c6 78e0 773f 9e7e 893a d420 9d3f
00000020: 2784 7d23 fa51 453f e601 1df8 bd91 6a3f
00000030: 8527 32af 2c69 843f 9c9f c54c ad98 873f
00000040: 0f96 57fa c1cd 953f c359 86d8 ef42 a13f
00000050: 7466 3482 f4b0 b83f 54b4 0dbf f3b8 b63f
00000060: 334a 3f1b 61da c73f 0fce d075 c885 6b3f
00000070: 8bfc 9d06 8662 6b3f 0cf3 27f1 909a dd3e
00000080: f7d1 bfb9 58c0 923e f7d1 bfb9 58c0 923e
00000090: f7d1 bfb9 58c0 923e 3d41 07b0 a430 033f
000000a0: c7ad 4f24 3301 6e3f 4dc7 9805 61c6 6f3f
000000b0: 3716 5ec8 42f3 553f 2de1 d520 261b 733f
000000c0: 2ec6 e184 3b4e 703f 2a19 251c 1931 903f
000000d0: b0e7 adf3 4e61 843f f7d1 bfb9 58c0 923e
000000e0: f7d1 bfb9 58c0 923e f7d1 bfb9 58c0 923e
000000f0: f7d1 bfb9 58c0 923e f7d1 bfb9 58c0 923e
00000100: f7d1 bfb9 58c0 923e f7d1 bfb9 58c0 923e
00000110: f7d1 bfb9 58c0 923e f7d1 bfb9 58c0 923e
00000120: f7d1 bfb9 58c0 923e f7d1 bfb9 58c0 923e
00000130: f7d1 bfb9 58c0 923e f7d1 bfb9 58c0 923e
00000140: f7d1 bfb9 58c0 923e
0.004793814193459917 0.006221356581069751 0.005829307344561055 0.02844554526598008 0.0006506415729569157 0.0032433233581345864 0.0099662295308638 0.01152167692698907
0.021292715935393555 0.03371381300091827 0.09645012072396658 0.08875964559929744 0.18635190802031473 0.0033596911657924953 0.003342878121599895 7.058089766417941e-06
2.794169462466001e-07 2.794169462466001e-07 2.794169462466001e-07 3.660204493238998e-05 0.0036626814712598962 0.003878774162125709 0.0013397361921944192 0.004664563120393245
0.003980858322493881 0.015812294333295153 0.009951226054670886 2.794169462466001e-07 2.794169462466001e-07 2.794169462466001e-07 2.794169462466001e-07 2.794169462466001e-07
2.794169462466001e-07 2.794169462466001e-07 2.794169462466001e-07 2.794169462466001e-07 2.794169462466001e-07 2.794169462466001e-07 2.794169462466001e-07 2.794169462466001e-07
2.794169462466001e-07

running_mean_std.count f8 []
00000000: 0000 0080 004e 4b41
3578881.0

a2c_network.sigma0 f4 [12]
00000000: f95c 1bbf a095 cfbe ff71 25bf 96c4 00bf
00000010: c6a5 10be a1ac 6bbe 842a 04bf 2211 6bbe
00000020: e405 73be 822f 84be e637 1abe 1ac1 8ebe
-0.6068874 -0.40543842 -0.6462707 -0.50299966 -0.14125738 -0.23015071 -0.51627374 -0.22955754
-0.23732716 -0.25817496 -0.15060386 -0.278817

a2c_network.actor_mlp0.0.weight f4 [256, 41]
00000000: a87e 003d 8a3c 643e 7f2b bfbd aef9 9dbd
00000010: 63ae d73d d832 503e 4dea 5b3e 355a 973c
00000020: 8b45 0dbe 3063 743c fa14 fabd b786 4e3e
00000030: c72e 113d df62 9f3d 96c9 903c 3e36 b33d
00000040: fd4f fa3d e040 e3bd c61b 213c 99da 87bc
00000050: b5e0 44bd 2a1f 24be ab87 8d3d 7118 36be
00000060: 07b2 183e a4dd cbbd 8f8b 70be 09c4 bebd
00000070: 34d7 0f3e 392d 553d 8fe2 193e d3fa 03be
00000080: 6d9f 1ebe f83b fabd ce27 d7bd b38c 813d
00000090: 860e 653d 0fe2 043e ed2c a5bd 950a dabd
000000a0: c1b3 a93d 04d0 503c 6aae 413e 0d67 74be
000000b0: 6956 833d 91f4 aabd 492f a6bd 6f8e d33d
000000c0: 0d82 2d3d 089d 7bbd e6bd 263d cdc2 8b3d
000000d0: 1fe5 1fbe 11e9 3ebd 6cce f53d 9520 b9bc
000000e0: f2cd 44be 57bd 1abe 412a b7bd ddcb 1f3d
000000f0: fe2b 22be f788 06bd a43c 4dbd 06ab 90bd
00000100: b23b aabe a01d cbbe e61e 25be f906 74be
00000110: 01dc 1f3e 5aa4 f13c 4120 453d 1c28 15be
00000120: a910 d2bd 7dec 54bd b00e c83c feb7 0cbe
00000130: e6cf 89bd 007b bfbd 25e9 e239 a507 6ebd
00000140: 844f 31bc 57bc d8bd ccd4 00be 2ad5 99bd
00000150: 5672 17be 5140 e5bd 75a2 bb3d 0ae0 debc
00000160: e944 bd3d be77 5d3d 9c23 18be b0eb 013e
00000170: f403 89bc e4e8 8dbd cedc e4bd a853 0abe
00000180: 19c0 803c 3fd1 72bc 940b 793d f93d 03be
00000190: 1f76 ed3d 06a0 c1bd 982a 05bd ed0f 313d
000001a0: 495e 483e 09c5 533e c76c af3e 29ad ebbd
000001b0: 11d5 083e ba92 89bd 3b33 8cbc 6466 efbd
000001c0: 91aa 113e e4bf eabd e2f0 aa3d c5cf 603d
000001d0: cede 4f3d 21ec acbd 7d5c 113e 5792 0c3d
000001e0: 3594 a43c 96ee 0cbe 4b44 863d d53f c9bd
000001f0: 5d39 f0bd 63e5 873e 88e9 263d f299 9cbd
00000200: 977e 2bbd 8faa 87bc 696a 173e 3cc8 e5bc
00000210: b599 90bd 082c 10bd 63fa 6fbd c664 2c3d
00000220: 45bf e53d c558 bfbd d274 1e3e 8d3a a53d
00000230: 05fd e73c fece 63bd 2ca6 4c3e b9bf 0e3e
00000240: eacb de3d 5a57 09be 915e a8bc d319 483e
00000250: 235b 11bd df24 00be 4872 cc3d d56f 093e
00000260: 404f 7dbc 5d39 0fbd 265a 153b 4dc7 18bc
00000270: c4c9 193d 1343 333d 0c40 11be a511 6cbd
00000280: cbac 063e 8c31 793d 3988 febb f1d5 c0bd
00000290: 3241 30be e0d2 d6bd e4a9 833d 1f85 b63d
000002a0: 01cb 0a3e 7dbf 893d c53b 51be 319b cbbd
000002b0: 8a6e 60bd 121a 193e 3f6d df3c e16d df3c
000002c0: 5e04 843d 6e4b 05bd 8171 9fbd 4475 2d3e
000002d0: ff6e 91bd 733c 00bd 4d17 1fbe dffe 233e
000002e0: e72f 4d3e a867 2f3d 830e 9dbe f122 4cbe
000002f0: 0acc 20be 4d2f 2c3e a5fd 033e 3593 063e
00000300: 7b8e a73d 64e6 213d d374 c8ba 423e f3bd
00000310: 4404 09be 3095 15be 92ee 823d 7908 9dbd
00000320: 23bd 00bd 6312 b8bd e221 e9bc 061e e1bd
00000330: b2fd d0bd 44ad d33d bb46 b2bd c73c f53d
00000340: a2ae 01bd 3149 13be a1ee 9ebd 4c21 1ebe
00000350: ae87 e03b 90c7 b1bd db73 0c3e d2e7 c7bd
00000360: d374 6a3d 67cf 963c 53fc f33d 58ed ccbd
00000370: c481 993d eb34 97bd 505e 6d3d 5f2f 163e
00000380: ef56 72bd 4949 4bbd f040 31bd 1987 07bf
00000390: 43f6 453e 9c7f bebe 2b3c 0e3d 94d7 91bc
000003a0: 3c3d 173e a6e3 16bd 0866 03be 38d2 0f3d
000003b0: c4b0 b03d f52b 1fbe dc32 11bd 6fbb bfbd
000003c0: 45cc 5fbc 756e 9dbd e7bd 82bd 1613 4bbd
000003d0: 76f9 17be 9737 033e 5966 313e 3fce 03be
000003e0: eea5 03be 5135 45bc ae86 dfbd e196 d5bd
000003f0: 0bfc d33d a479 393c 75ce d2bd cf8d e53a
0.03137079 0.22288719 -0.09334468 -0.07713638 0.105313085 0.20331895 0.21476097 0.018475631
-0.1379606 0.014916226 -0.12211032 0.20168577 0.035445 0.0778253 0.017674249 0.0875058
0.12222288 -0.11096358 0.009833282 -0.016583728 -0.04806586 -0.16027513 0.06910642 -0.17782761
0.14911662 -0.09954384 -0.23490737 -0.093147345 0.14046937 0.05204508 0.15027831 -0.1288865
-0.15490504 -0.122184694 -0.10505639 0.06325664 0.055922054 0.1297686 -0.080652095 -0.106465496
0.082862385 0.012744907 0.1891419 -0.23867436 0.06412966 -0.083474286 -0.08114488 0.103299014
0.042360354 -0.061429054 0.040708445 0.06824265 -0.15614747 -0.04660899 0.120022625 -0.022598544
-0.19219187 -0.1511129 -0.08943606 0.03901278 -0.15837094 -0.032845464 -0.05010666 -0.0706387
-0.3324867 -0.3967104 -0.16125068 -0.23830785 0.15611269 0.029497314 0.048126463 -0.14566082
-0.10257084 -0.051983345 0.024421066 -0.13742062 -0.067291066 -0.09349632 0.00043279785 -0.05811276
-0.010822181 -0.10582798 -0.12581176 -0.07511361 -0.1478971 -0.11193908 0.091618456 -0.02720644
0.09241659 0.054069273 -0.14857334 0.12687564 -0.016725518 -0.06929186 -0.11174928 -0.13508475
0.0157166 -0.014820396 0.060802057 -0.1281661 0.115947954 -0.0945435 -0.032511324 0.04322808
0.19567217 0.20680632 0.34262678 -0.11507637 0.13362528 -0.06717439 -0.017114272 -0.11689451
0.14225222 -0.114623815 0.08346726 0.054885644 0.050749592 -0.084434755 0.14195438 0.034319248
0.020090202 -0.13762888 0.065559946 -0.09826628 -0.11729691 0.26542196 0.040750057 -0.0764655
-0.041868772 -0.01656082 0.14786686 -0.02804958 -0.07060567 -0.03519824 -0.058588397 0.042088293
0.112181224 -0.09343103 0.15474251 0.08067808 0.028318891 -0.055617325 0.19985265 0.13940324
0.10878737 -0.13412228 -0.020552905 0.19541101 -0.035487305 -0.12514065 0.09982735 0.13421567
-0.015460789 -0.034966815 0.0022789328 -0.009324861 0.037545934 0.04376514 -0.14184588 -0.057634015
0.13151853 0.060838267 -0.007767704 -0.09415806 -0.1721237 -0.1048944 0.064288884 0.089121096
0.13554002 0.067259766 -0.20432957 -0.0994171 -0.05479292 0.14951351 0.027273772 0.027274074
0.064461455 -0.03254264 -0.07785321 0.16939265 -0.07101249 -0.03130765 -0.15536232 0.16015194
0.20037805 0.042823464 -0.30675134 -0.19935204 -0.15702835 0.16814919 0.12889726 0.13142093
0.08181473 0.03952636 -0.0015293605 -0.11877109 -0.13380533 -0.14607692 0.0639316 -0.07667632
-0.031430375 -0.08987882 -0.02845854 -0.10992055 -0.102046385 0.10335782 -0.08704897 0.11974483
-0.031660683 -0.14383389 -0.077603586 -0.15442389 0.006852112 -0.08680642 0.1371607 -0.09761013
0.05724032 0.018409444 0.119133614 -0.10006207 0.07495454 -0.0738314 0.05795127 0.14666508
-0.059164938 -0.049630437 -0.04327482 -0.5294052 0.19332223 -0.37206733 0.03472535 -0.017802991
0.14769453 -0.036838196 -0.1283189 0.03511259 0.08627465 -0.15544112 -0.035448894 -0.09361922
-0.0136595415 -0.07687084 -0.06383877 -0.04957875 -0.14841256 0.12814175 0.17324199 -0.12871645
-0.12856266 -0.012036637 -0.1091436 -0.104291685 0.10350808 0.011320505 -0.10293285 0.0017513576

a2c_network.actor_mlp0.0.bias f4 [256]
00000000: 5ddf 943d d507 38be 7acd 0b3d fad0 ed3d
00000010: 3ea7 8b3d 3a6e 3fbd da75 7abd 49d4 00be
00000020: 44d9 4c3d 2304 b63d 4e48 b83d a8ff 983d
00000030: e34a 993c 99f3 0b3e 9c48 f03d 008c fe3d
00000040: db6a 40bd 043c 413e 4cd5 6e3d 2f64 0e3d
00000050: f096 fbbc 208f be3d 5668 363d ed2e b53d
00000060: c609 bbbc bfa2 063e d9a4 e03d 7a9e 25bd
00000070: fe0e 97bd ee24 1abc dd14 b93b f136 803e
00000080: ca02 ce3d 3c0e 703e f75f db3d ede9 d53d
00000090: 6650 333e b4da 733d c0e4 1cbe 1384 0e3e
000000a0: 9081 243e 0d99 b9bd c358 033e 0c10 263e
000000b0: 79dc 3a3d 2199 433d ce0f 733d 3ebc eabd
000000c0: 0776 033e f7d3 743c eac9 703d 8ce9 f5bc
000000d0: 58b0 853e f404 1f3d ed1f 153e be3c 8a3d
000000e0: f2c3 443e 0181 d23d 634b b3bb c03a 073e
000000f0: 35a5 8c3c 488c 183e 3442 edbd 31b3 f83d
00000100: c114 d03d 4aa9 4e3d 2287 253e 7ada 5dbe
00000110: f0d5 af3d 0ca9 9bbd 9e53 adbd 900d 1c3e
00000120: 0ee8 e03d 012d 3bbd f434 003e bb8a 8abc
00000130: 412f 14bd 59a4 c43c 851a 723d 5805 b93d
00000140: 14b5 853c 26b9 1e3e 2441 9a3e 103f 2e3e
00000150: cf72 413e 2912 c9bc 340f 793d 6585 c83d
00000160: bc91 013e f281 853e 9ed0 04be d874 84bd
00000170: c694 f73d 2434 273d 3097 9b3d feb8 b93d
00000180: 559f 403e b1bf 4b3e c3a5 e93c f618 913e
00000190: cedf 8a3d 1759 fd3d 2130 5e3c bdfc 223e
000001a0: 0de4 4f3e b235 06be f43f 1f3d 3fc3 103e
000001b0: dee3 f83b 76f7 903c 9e6e 0c3e c691 a2bd
000001c0: dedd a13d 4743 543e bce3 e93d b148 0c3d
000001d0: 26a3 9bbd 5fa3 97bd 150b f2bd 3765 ea3d
000001e0: 4f99 043e 414c e0bd f920 32be 30cd 01be
000001f0: ffa8 1bbd d537 fcbd 0845 0b3e 1368 663e
00000200: 39a2 253e 3422 5fbd a7c4 003e 0b61 cf3c
00000210: 8392 e4bd 1063 463e 9679 53bd 7505 3e3d
00000220: a752 1abe 9a42 05bd 83a4 453c c169 eabd
00000230: 541e ed3d 172f 283e bb8d f1bd 4e39 c63d
00000240: 8ea6 c93d c48e d8bb 1bff 8c3c 2497 e2bb
00000250: 1268 58bd 982a 62bc d265 98bc 53e4 003e
00000260: ba0c bd3d 42d8 503d 0c17 633d 8e50 09be
00000270: 7aeb 403e 97e3 f23d 7464 9bbd 6a8d 793d
00000280: f563 ecbd 3549 a63d 5e5a 4b3d f4f1 293c
00000290: e245 92bd c48c db3c c730 08be 4aaa a8bb
000002a0: f7e9 fdbd b5e9 eabc 4325 bfbc 4fbd 243e
000002b0: 4c91 bc3d d304 5d3d af48 4fbd e02a 023d
000002c0: 3469 2ebe 75b6 6abe 26e9 b9bd ae38 42bc
000002d0: 02c9 1a3e b649 5c3c 068e 10be 9229 0c3e
000002e0: da28 653d 2505 803d f3cf aa3d 40e6 81bd
000002f0: a439 843d 7d5e 08bc d579 883d 50e1 063c
00000300: ed18 753d 4041 eabc 3799 abbd 5120 f73d
00000310: ad9d 503d 0364 60bd 8a43 593d c00a 2a3d
00000320: 8872 88bd 3c9a db3c 9cd1 a3bc cf75 423e
00000330: 7a8c fa3d 91c8 543e 2cc1 0a3e c9e7 36bc
00000340: c332 7b3d 3ffb 99bd 6cf0 f23c d0c1 703e
00000350: 84b2 073e 4c84 4dbd e534 5d3d 5843 6bbd
00000360: abca 453d 9e1b 8e3d 0657 34bc e331 1e3e
00000370: 2c0f c5bd 1adf 143e 9ac7 d93d 719e 393e
00000380: d6e7 8a3d b3ec 27bd bdc0 873d 20d3 273e
00000390: 10e8 163d e71e a73d 9204 a53c 6441 d53d
000003a0: 7828 be3d 7a8b 22be e95d dcbc d807 623e
000003b0: 1631 243d 9f64 6a3d 1f2a 1c3d 9f7f a83d
000003c0: 44e0 243c 74af 333d ffba 92bd 35dc f43d
000003d0: 69fd 17be ac8d 723c 5d9a 15bc e644 333e
000003e0: 5e9a d4bd 5fc3 10bd da2a cbbd 3078 bc3d
000003f0: a204 0d3d ef4a 973d 55a8 84bc 3347 143e
0.07269166 -0.17971738 0.034131505 0.11612125 0.06819008 -0.04673598 -0.06114755 -0.1258098
0.05001189 0.08887508 0.08998166 0.074706376 0.018712467 0.13667144 0.11732599 0.12429047
-0.046976905 0.1887055 0.058308885 0.03476351 -0.030711621 0.09304643 0.044533096 0.08846841
-0.022831809 0.1314802 0.10968942 -0.04043434 -0.073759064 -0.009408219 0.005648239 0.25041917
0.10059126 0.2344293 0.10711663 0.104450084 0.17511138 0.059534743 -0.15321636 0.1391757
0.16065049 -0.09062395 0.12826829 0.16217059 0.045620415 0.047753457 0.059341244 -0.114616856
0.12837993 0.0149431145 0.05878631 -0.03001859 0.26111102 0.038823083 0.1456296 0.06749867
0.19215372 0.10278512 -0.0054716333 0.13206005 0.01716862 0.14897263 -0.11584893 0.12143553
0.101602085 0.050454415 0.1616483 -0.21665373 0.08585727 -0.076006025 -0.08463214 0.15239549
0.10981761 -0.045697216 0.125202 -0.016911855 -0.036177877 0.024004148 0.059107322 0.09034222
0.016321696 0.15500316 0.30127823 0.17016244 0.18891452 -0.024544792 0.060805514 0.09791068
0.1265325 0.26075703 -0.12970206 -0.06467599 0.12088923 0.04082121 0.07597196 0.090684876
0.1881078 0.19897343 0.028521424 0.28339356 0.067809686 0.12370508 0.0135612795 0.15916725
0.20301838 -0.1310642 0.03887935 0.1413698 0.0075955233 0.017696124 0.13714072 -0.0793796
0.07903646 0.2072879 0.1142039 0.03424901 -0.075994775 -0.074042074 -0.1181852 0.114450864
0.12949108 -0.10952044 -0.1739539 -0.12675929 -0.038002964 -0.123153366 0.13600552 0.22500639
0.16175164 -0.054475978 0.12575017 0.025314828 -0.111607574 0.19373727 -0.051629625 0.046391923
-0.15070592 -0.03253422 0.012063148 -0.11445952 0.1157805 0.16424213 -0.11794611 0.09678899
0.09846221 -0.006608816 0.017211488 -0.00691499 -0.052833624 -0.0138041 -0.01860324 0.12587099
0.09230943 0.05098749 0.0554419 -0.13409635 0.18839827 0.118598156 -0.07587519 0.06092588
-0.11542503 0.08119432 0.049646728 0.0103726275 -0.07142235 0.02680052 -0.13299857 -0.005147253
-0.12398141 -0.028675893 -0.023333197 0.1608784 0.09207401 0.05395968 -0.050606426 0.03177917
-0.1703232 -0.22921164 -0.09077673 -0.011854334 0.15115741 0.013445308 -0.14116678 0.13687733
0.055947162 0.06250981 0.083404444 -0.06342745 0.064563066 -0.008323309 0.066638626 0.00823243
0.059838224 -0.028595567 -0.08378833 0.12066711 0.05093162 -0.05478288 0.053042926 0.04151416
-0.0666247 0.026806943 -0.01999741 0.18990253 0.12233825 0.20779635 0.13550252 -0.01116366
0.061327707 -0.075186245 0.029655658 0.23511434 0.13251692 -0.050174996 0.054005522 -0.05743727
0.048288982 0.06938861 -0.011007076 0.15448718 -0.096220344 0.14538231 0.10633774 0.18126847
0.067825004 -0.04099722 0.06628559 0.16389132 0.036842406 0.08160191 0.02014378 0.10412863
0.092850626 -0.15873519 -0.026900249 0.22073305 0.040085874 0.057224866 0.038126107 0.08227467
0.010063235 0.043868497 -0.07164573 0.11956064 -0.14842762 0.014804285 -0.009131041 0.17506751
-0.10381006 -0.03534257 -0.09920283 0.092026114 0.034428246 0.07387339 -0.016193548 0.14480285

a2c_network.actor_mlp0.2.weight f4 [128, 256]
00000000: 5537 e9bd 622d 133d 0a0d 333d 2133 d0bd
00000010: 8dc5 d7b9 e434 973d 21be 9c3d 295b 613c
00000020: 92df c13d 4a33 10be c441 b9bd 48b9 1e3e
00000030: 07b5 eb3c ec77 8a3d 3744 7f3d 00ed 4cbe
00000040: 27bb e5bd 2d14 edbc c502 073d 17e3 703e
00000050: 9435 0c3e fb9c 4ebd 7d2b 77bd 17bd 6bbd
00000060: 7369 373d 6cfc 8bbc 2e4c 72bd 3591 d1bc
00000070: fae3 66be 3f88 2b3e fb77 b23c bc5c 47bd
00000080: e266 5abd 5e45 06be fde1 453d 8415 64bd
00000090: 2b98 9b3d 1ba3 a8bd 08da 873d ace5 b5bd
000000a0: c33c afbd f0a4 86be 297f 05be 0934 1e3d
000000b0: e0bf 1cbe f7ac 0fbd 2bca 693c 8834 4e3d
000000c0: 4b98 acbc 7c00 073c 9b9d babc 96f5 9f3d
000000d0: b81b e7bd 93ad a33d 7b8a 0e3d d332 3f3e
000000e0: 93a1 46be 0bfd 903c 4c92 0bbc 60a8 02be
000000f0: 1b2c 573d 0e28 98bc c2ea 25bd bc9b d73c
00000100: 1b15 1fbd 0124 4c3d 2246 9bbc ffd3 3f3d
00000110: e3cc 683e 997a af3d ba9d 033e 9c6f 673d
00000120: 105b b13d d799 86bd ac47 913d dab8 813e
00000130: 6b0d 743d 45ea acbd 0f43 11be 7420 64bd
00000140: 152e aebd 1836 42bd 7c3a cfbd 6b47 5b3d
00000150: eb24 c8bd e400 373e a3cc 503d 3c87 8a3c
00000160: 0182 903c 24aa 4abd bcdc e03d e526 1a3d
00000170: 2e39 4ebe 0488 cc3b 3817 0e3d ec80 8c3d
00000180: 41b3 39bc 52a1 ddbd 2bef c4bd cfe2 d8bd
00000190: 285c eb3d e2d9 2bbe b605 0fbe 203b be3b
000001a0: 5443 2fbe 1aab 453d 2aed 3cbd 3e23 0ebe
000001b0: 8336 b63d 087c 1fbe 54aa 41be 580d ad3d
000001c0: 6d32 30be d1b9 b23c 60f2 1cbe 6d15 383e
000001d0: 86cf 7b3d a8fe 89bd ff99 f33d e767 33be
000001e0: c2dc a3bb 2bef 84bc 46eb c03d 249e 04be
000001f0: 2eab a3bd 0fbd e8bd 2d0e 4bbd 4043 5cbd
00000200: 42e8 aabe c05f b53d ca2b fdbd 7f2f 793d
00000210: f2fb ba3d e158 93bd 4975 6cbe 35ba db3d
00000220: 9f44 643e 15f6 b63d ccfa 0cbe bc62 a93d
00000230: 9773 563d 9c5d 6abe 458d afbd be58 c1bd
00000240: cf66 abbd 2d39 283d b415 8cbd 57f2 cbbd
00000250: f593 2bbc dba6 d3bd 1863 883d 6c2e 793d
00000260: 5baa 17bc e349 ca3b 1e55 c83d 3745 2abe
00000270: 6191 e9bd 5c6c 1dbe d21d 42be edc6 ee3b
00000280: 7c04 103e 3921 e83c 9d5b 393d 2fdb 8c3d
00000290: ce45 573d 79e9 803d 00c1 e1bb 297f 9abc
000002a0: 4e0c debd a152 473d 3b60 1fbd 4434 2cbd
000002b0: 539c fdbd 4c67 bf3d aaa6 c53d c539 cc3d
000002c0: 750a 4e3e 7e0e 893d f199 003e 2d44 233e
000002d0: 69c3 06be 2c43 443d 43a7 86bc a3d9 adba
000002e0: 3734 51bd 8dfd a1bd 841c 85bd aa22 86bd
000002f0: b771 8e3d fb75 163e 1123 b8bd 0773 53bc
00000300: 2f0f bbbd 409a 95bd b001 803e 011d edbd
00000310: ab4e 303d 4caf 9c3c 55cb 11be ded5 f13c
00000320: 81d5 26bc 2e17 e9bc 3029 ad3d c183 68be
00000330: f87d 8e3b c66c 19bd 962e be3d 7aa2 3c3e
00000340: 751c d2bd 94f1 0cbd 7b63 bf3d 90c2 73be
00000350: d59e d5bb e112 9e3d 0b3f 893d ba9a d73d
00000360: 9821 07bd 0988 03bd 717e 11bd f059 83bc
00000370: 7f2a 473d ddc5 31bd 5230 b23c 2c46 25bc
00000380: a83e 01bd fe0d 483e 5988 07be 0648 4ebd
00000390: 8a7d 0dbc bdd2 0ebe eff7 d1bd d219 ddbd
000003a0: 8839 e3bd 5108 d6bd 4a66 03bd 3a67 91bd
000003b0: ebe1 63bc 239a 7c3d db60 30bd c24a cb3d
000003c0: e33e aabc 0d0b 523e d486 123d b5ce 31be
000003d0: 4865 a73d e32d 5b3d 7e08 aabc 8334 50bd
000003e0: 59ee b4bd 26d1 f03c 0ff7 8f3d 17c9 943c
000003f0: 901b 723d 87cd feba 4bc2 a13d 07aa 1ebd
-0.11387507 0.035931952 0.043713607 -0.10166002 -0.00041155182 0.07383135 0.07653452 0.013754644
0.09466471 -0.14082065 -0.09045747 0.15500367 0.028772844 0.067611545 0.062320914 -0.20012283
-0.11217337 -0.028940285 0.032961626 0.23524128 0.13692313 -0.050442677 -0.060344208 -0.057553377
0.0447783 -0.017088138 -0.05915468 -0.025581935 -0.22547904 0.16751193 0.021785727 -0.048672423
-0.053320773 -0.13112399 0.048311222 -0.05568458 0.07597383 -0.08234235 0.06633383 -0.08881697
-0.08556511 -0.26297712 -0.13036789 0.038623843 -0.1530757 -0.03507706 0.014269392 0.050343066
-0.021068713 0.008239862 -0.02278023 0.07810514 -0.11284584 0.07992091 0.034800034 0.18671732
-0.19397573 0.017698785 -0.008518767 -0.12759542 0.052532297 -0.018573787 -0.040507086 0.026319377
-0.038838487 0.049839024 -0.01895434 0.046833035 0.22734408 0.085683055 0.12853137 0.056502923
0.08659947 -0.06572311 0.070937485 0.25336343 0.05958311 -0.08443121 -0.14185737 -0.055695012
-0.08504883 -0.04741487 -0.10118577 0.053534906 -0.097726665 0.17871433 0.050976407 0.016910188
0.017640116 -0.049478665 0.10979602 0.03763475 -0.20139 0.0062418003 0.034690112 0.068605274
-0.011334241 -0.10821785 -0.0961593 -0.10590135 0.11492187 -0.16782334 -0.13967022 0.005805388
-0.17115527 0.04825888 -0.046124615 -0.13880631 0.08897116 -0.15574658 -0.18912631 0.08449811
-0.17206736 0.02181712 -0.15326834 0.17976923 0.061477207 -0.06738025 0.11894607 -0.17520104
-0.0050006816 -0.016227325 0.09419875 -0.12950951 -0.07991634 -0.11364185 -0.049574066 -0.053775072
-0.33380324 0.088561535 -0.12361868 0.06083631 0.09130086 -0.07194687 -0.23091616 0.107288755
0.22291802 0.08933655 -0.13767546 0.08270785 0.05235633 -0.22887272 -0.08571867 -0.09440754
-0.083692186 0.041070152 -0.06840077 -0.09958332 -0.010472287 -0.103345595 0.06659526 0.060835287
-0.0092569245 0.0061733588 0.0978186 -0.16627966 -0.11404682 -0.15373367 -0.18956688 0.0072868974
0.1406421 0.028336154 0.045253385 0.068777435 0.052556805 0.062945314 -0.0068894625 -0.018859463
-0.10842191 0.048662785 -0.038910132 -0.042042032 -0.12383332 0.09345874 0.09650929 0.09971956
0.20121177 0.06692217 0.12558724 0.15943976 -0.1316048 0.047915623 -0.016437178 -0.0013263713
-0.051075187 -0.07909689 -0.064995795 -0.065495804 0.06955283 0.14693443 -0.089910634 -0.012905843
-0.091337554 -0.073048115 0.25001287 -0.11577798 0.043043774 0.019126557 -0.14237721 0.029520925
-0.010182739 -0.028453436 0.084551215 -0.2270651 0.0043485127 -0.03745725 0.09286229 0.18421355
-0.10259334 -0.034410074 0.09345146 -0.23804688 -0.0065191784 0.077184446 0.067014776 0.105275586
-0.032991022 -0.032112155 -0.035520975 -0.016034096 0.04862451 -0.043401588 0.021751557 -0.010087531
-0.031553894 0.19536588 -0.13235606 -0.050361656 -0.008635888 -0.13947578 -0.10252368 -0.107959405
-0.110949576 -0.10450805 -0.032079972 -0.07099767 -0.0139088435 0.061670434 -0.04306112 0.09926368
-0.02078194 0.20512028 0.035773113 -0.17364009 0.08173615 0.053510558 -0.020756003 -0.05083133
-0.08834524 0.029396605 0.070295446 0.018162293 0.059108317 -0.0019439914 0.078983866 -0.03873637

a2c_network.actor_mlp0.2.bias f4 [128]
00000000: 3cff d7bd 12e2 39bd e915 22be 73b8 29be
00000010: 9443 1fbe 23ea 2b3d b0a4 e03d 0d63 05be
00000020: e87a d7bd 7742 a5bd 2bd1 f33d 9601 f73d
00000030: 97fa c9bd 653f d23c cf64 8cbd 5c6f b3bd
00000040: e05f 033d 6d53 50bd 70b1 c73d 3ea0 2bbd
00000050: 7ce7 2cbd 9acc 3b3d 569e eebd d9e9 fcbd
00000060: 9bba 24be 74f4 95bd ccae 0ebe c129 e1bd
00000070: 2c87 f9bb 65b3 0b3d feaf 36be 33ae b7bc
00000080: 6562 37be c995 7a3b b772 a8bd c579 94bd
00000090: f713 13be 2999 2fbd a9af 743d c5aa 713c
000000a0: c03c f33d 5f20 b93d 90e7 a5bd 5925 3d3e
000000b0: cb92 273c 329c 1f3e a43f 453e 2fc7 16be
000000c0: 09fb c63c 09a8 d7bd 1871 23bd 7c1b b3bd
000000d0: e47f 0dbd 3946 523d 9e08 683e 3a70 603c
000000e0: 95b1 80bc 3d43 793d b422 40bd ab56 073e
000000f0: 9825 353e 7f13 7cbc 1972 deba b2a1 a33d
00000100: 7253 d1bd 1f03 3cbe 3810 03be 9e19 af3d
00000110: b85b 02be 1de3 3fbd 3178 2bbe d5b6 023e
00000120: 5480 ab3d 9780 04be d083 723d 7bd3 003d
00000130: 3f97 aabd a346 dfbc 3f89 d43d cafb aabd
00000140: b49e d53c 849d c63d 3462 4bbe 0f38 36bd
00000150: 0f08 0f3d f8fe 26be cd28 ce3d 5464 b0bc
00000160: 28df 08bd 6671 773d bfd0 babd b191 0dbe
00000170: 9fbc 63bd ce24 99bd 8261 fdbd ce48 4a3d
00000180: 82c6 bfbd aaa4 27bd 785d d2bc faa8 bbbd
00000190: 2360 6b3d 03b0 bd3d d6b2 10be 5b25 49bc
000001a0: a798 a2bd 8448 013e e19e 0c3e d7b8 bebb
000001b0: 650b 9b3d 25a7 8ebd 0689 ad3c c51d 81bd
000001c0: 8846 f03d a2bd b5bd f827 6f3d 5dc4 0ebd
000001d0: 37fb b1bd c58b d1bd 201d 983d 4354 323d
000001e0: f7d5 39bd 70f3 ca3c 5ebe 5bbd b927 35be
000001f0: 5b5d 9f3d baf1 0cbd 804a f43c b252 bfbd
-0.10546729 -0.045381613 -0.1582867 -0.16574268 -0.15553123 0.041971337 0.10968912 -0.13026066
-0.105214894 -0.08069318 0.1190513 0.12060849 -0.09862249 0.025664994 -0.06855165 -0.087614745
0.032073855 -0.05086081 0.097506404 -0.041900866 -0.04221295 0.04584942 -0.11651294 -0.123492904
-0.1608681 -0.07322016 -0.13933867 -0.10994292 -0.0076149907 0.03410663 -0.17840573 -0.022421932
-0.17908628 0.0038236252 -0.08225005 -0.07249788 -0.14363085 -0.042870674 0.059737835 0.014750187
0.118768215 0.090393774 -0.08100808 0.18471278 0.010227869 0.15586928 0.19262558 -0.1472442
0.024289625 -0.10530097 -0.039902776 -0.087454766 -0.034545794 0.0513365 0.22659537 0.013698632
-0.015709678 0.06085514 -0.046908095 0.13216655 0.17690122 -0.015385508 -0.001697126 0.07989825
-0.10220994 -0.18360566 -0.12799156 0.08549808 -0.127303 -0.04684745 -0.16745068 0.12765057
0.08374086 -0.12939678 0.059207737 0.031451683 -0.08329629 -0.027255362 0.1037774 -0.08348806
0.026076652 0.096980125 -0.1986168 -0.044487055 0.034919795 -0.163082 0.10066376 -0.021532215
-0.033415943 0.06041088 -0.091218464 -0.13825108 -0.055599805 -0.07477723 -0.12372114 0.04938584
-0.09364034 -0.04092852 -0.025679335 -0.09163089 0.05746473 0.09262087 -0.1413072 -0.012276973
-0.079392724 0.12625319 0.13732482 -0.0058203745 0.07570533 -0.06965474 0.021183502 -0.06304506
0.11732203 -0.0887406 0.058387727 -0.034855235 -0.086904936 -0.10231737 0.0742743 0.04353739
-0.04537007 0.024774283 -0.053648345 -0.17690934 0.07781478 -0.034410216 0.02982068 -0.09341945

a2c_network.actor_mlp0.4.weight f4 [64, 128]
00000000: 7691 16bc 739e 0f3d 5a34 9a3c a2a6 d0bd
00000010: b294 583d 91da 543c 7717 e2bd 25bf 023d
00000020: 63cf 36bc ac3f c33d 7dcf 373c 03e6 e43c
00000030: 24b2 84bc 8163 65bd 8f20 013d a62f 32bd
00000040: dc58 5c3d a077 c43d 985c cebd fb8f cfbc
00000050: 7631 d9bb 6426 b03c e552 2f3c 1ba5 33bd
00000060: cfa7 103d 90d7 a1bd c838 1a3d d5c4 c1bd
00000070: 7e1c 883c 0af7 873d c4cb 1dbc b7c2 82bc
00000080: 4fc4 f0bd 71af 7a3c dc7f 11be d63a 3cbd
00000090: 79c5 a5bb 856b bfbd eb01 21be eef3 34bd
000000a0: 62a1 283d f54a e4bd c3f8 a7bd b8d5 0dbd
000000b0: 769c ae3c 4844 793c 5778 b5bc 6380 2fbc
000000c0: 5704 8c3d f4c3 6fbc 14dd bb3d 1ae0 6b3d
000000d0: 6aab 55bd 36fc 8ebc 71ab b93d 6d45 003e
000000e0: dab5 a7bd 972a d0bd 9c82 ae3d 1e27 2a3d
000000f0: 5d8b 9dbc 2791 d83c 3a71 6dbd 69f9 cdbd
00000100: 18dd b7bc 9214 983c 9f9f 893b b8e5 34bd
00000110: b63d 5dbd 057f 4d3c b600 d6bc 03ed b33c
00000120: 9ea2 92bd 82e2 093c 8482 6bbc 448b 01be
00000130: 4856 653d 567c abbd 9fa8 1bbc 4a7f 25bc
00000140: 72d9 a33d 37ea 0a3d 3ea0 c43c a9de 2b3d
00000150: ad34 46bd f22a a8bd 4f0d fa3d 9e2d 0f3e
00000160: 40e0 9ebd 0d6b 08bd 9e08 59bd f121 bc3d
00000170: 066a 1cbe 3d0e c4bc 706e 083e 1df0 26bd
00000180: 9eae e73b cba9 deba 0b88 09bd 5198 b6bd
00000190: be4c 8dbc bd90 883d 22da a13a 1988 e83d
000001a0: 079d 9f3c 9032 32bd 69b2 76bd 5670 8ebb
000001b0: 288a 1abe d87c 673c 6332 5ebd 6380 81bd
000001c0: de72 aebb de2a c5bd e51d a0bd 9738 c8bd
000001d0: 8dba 95bd 1ce4 b5bc 523c d0bd 9132 043d
000001e0: 83e2 48bd 7eaf 843d 1c5c 2d3d dbc7 d93a
000001f0: 7784 c3bd 5661 3d3c 6585 d83d 1f23 92bd
00000200: 4049 253e f54f 39bd 9889 df3c d11d 4c3d
00000210: e9fa 263e 8efb 02be 7fd0 81bc 82c5 b93d
00000220: 567b 7abd 099a 703d 449c 2c3e efe4 ee3c
00000230: b5af 14bd 45db d2bc 2eb7 35bd 3edd 36bd
00000240: 406c 6ebc 1af3 09bc 9f24 c6bd 1450 30bd
00000250: b0c2 92be a4c9 c6bd 315d 733d d717 963d
00000260: 4412 52be 96f8 f33c 56c4 083e 214c e93d
00000270: 4a9b bcbd a0b3 153e 9b9a 4bbd 3ae3 803d
00000280: fbc8 d13d 3318 29be 8ffe 06bd 5fa2 b9bc
00000290: ef89 41bc 1bfa a13d 1d13 803d 705f 39b9
000002a0: 4211 8c3d db36 313d ac30 233c d032 06be
000002b0: 2900 183d 23ed 3f3d 73c2 e4bd e733 9f3d
000002c0: d3dc 01be 6f63 193e 7f05 09bd fcab d83d
000002d0: 41b9 823d 3373 abbc a95d b5bb 0de7 00ba
000002e0: 1cff 4b3d b23a adbd 33d2 29bd 8465 38bd
000002f0: 06c8 193d 5661 0fbe 6ec2 a63d 872c ff3b
00000300: f45f af3b 5d58 1d3e 652a c53d f655 7fbd
00000310: 0e90 81bd 1c50 15bd 51cf 073d bea1 7fbc
00000320: e86d a3bd b12e 423d 01b1 06be 079d 863d
00000330: 081c a8bd 2b8f 8abc 4b57 fa3c ef53 773d
00000340: d079 eebd 90ea 95bd 768d 923d 7b31 dbbd
00000350: 7b6a 0e3c 2a30 3fbe b73a 98bd 2765 f0bd
00000360: d270 72bd 9e35 e63d b792 4abd 9efa a23d
00000370: 3a3b 183e 4cc6 e4bd 5c1c bf3d 0a5c 9cbd
00000380: 7e8b 023e 1974 0fbc 5f6b 0dbe e3fe 983d
00000390: c31f 9fbc 62fb 42bd 793b 4a3d a491 9abd
000003a0: b3e5 683d d058 d5bd 9ec1 debc 9ce2 d5bd
000003b0: 5e7a 00bd 6775 003e 6a99 f83c b9eb e93d
000003c0: 204c 60bd 3300 673d 2aaa 2fbd 5bcd 00be
000003d0: e40a 83bd 60f1 52bd b638 6abb f8e6 6cbd
000003e0: 61a6 4a3d 815f a7bd 0fcc e1bd e26b a33d
000003f0: a0e2 22bc 2ebd 593e 4932 3ebd 2c26 713d
-0.009189954 0.03506322 0.018823791 -0.10188033 0.052876182 0.012991563 -0.11039632 0.03192057
-0.011157843 0.09533629 0.011218903 0.02794171 -0.016198225 -0.056003097 0.03152519 -0.043502472
0.05379568 0.09593129 -0.100762546 -0.02533721 -0.0066282107 0.021502681 0.010700916 -0.04385863
0.035316285 -0.079024434 0.037651807 -0.09461371 0.016615149 0.06638916 -0.009631101 -0.015961988
-0.11756193 0.015300618 -0.1420893 -0.045954548 -0.005058941 -0.093466796 -0.15723388 -0.044177942
0.04116953 -0.111471094 -0.082017444 -0.034627646 0.02131484 0.015214033 -0.02215211 -0.010711762
0.06836765 -0.014634121 0.09173027 0.057586767 -0.052165426 -0.017454248 0.09065903 0.12526484
-0.08188982 -0.10164373 0.085210055 0.04154121 -0.019231493 0.026436402 -0.05796931 -0.10057337
-0.022444293 0.018564496 0.0041999365 -0.04416439 -0.05401393 0.012542491 -0.026123386 0.021963602
-0.07159923 0.00841582 -0.014374379 -0.12650782 0.055990487 -0.083733246 -0.009500652 -0.010101149
0.08000459 0.03391477 0.02400219 0.041960392 -0.04839008 -0.08211316 0.1220957 0.13982245
-0.07757616 -0.033305217 -0.052986734 0.09186161 -0.1527482 -0.02393257 0.13323379 -0.040756334
0.0070703765 -0.0016987858 -0.033577006 -0.08915771 -0.017248508 0.06668232 0.0012348334 0.113540836
0.019484056 -0.04350525 -0.06022874 -0.0043468876 -0.15091765 0.014128886 -0.05424727 -0.06323316
-0.005323752 -0.09627317 -0.07818202 -0.09776419 -0.07310972 -0.022203498 -0.10167755 0.032274786
-0.049044143 0.06478785 0.04232417 0.0016615348 -0.0954675 0.011558851 0.10572318 -0.07135605
0.16141224 -0.04524227 0.02728729 0.049833123 0.16306652 -0.12791273 -0.015846489 0.09070875
-0.06115278 0.05874065 0.16856486 0.029161898 -0.03630038 -0.025739321 -0.044364147 -0.044644587
-0.014552176 -0.008419776 -0.09674954 -0.04304512 -0.2866416 -0.09706429 0.059415046 0.07328766
-0.2051478 0.029781621 0.13356146 0.113914736 -0.092093065 0.14619303 -0.04970799 0.0629334
0.10243412 -0.16513138 -0.03295761 -0.022660432 -0.011812671 0.07909032 0.062536456 -0.00017678528
0.06839229 0.043265205 0.009960335 -0.13105321 0.037109528 0.04685701 -0.11169901 0.077735715
-0.12681894 0.14979337 -0.033452507 0.105796784 0.06382991 -0.020928955 -0.005534847 -0.0004917242
0.049803838 -0.08458461 -0.041460227 -0.045018688 0.037544273 -0.14001974 0.08142553 0.0077872905
0.0053520147 0.15365739 0.09627227 -0.062337838 -0.063263044 -0.03645335 0.033156697 -0.015602527
-0.07979947 0.04740781 -0.13153459 0.06572919 -0.082084715 -0.016913971 0.030559203 0.06038278
-0.11644328 -0.0732013 0.07155888 -0.10702797 0.008692379 -0.18670717 -0.07433074 -0.11738043
-0.059189625 0.112406954 -0.049456324 0.07957958 0.14866343 -0.111706346 0.09331581 -0.076347426
0.12748525 -0.008755707 -0.1381049 0.07470491 -0.019424325 -0.04760302 0.049373124 -0.0754731
0.056859683 -0.1041733 -0.027191933 -0.10443613 -0.0313667 0.12544785 0.030346591 0.11421914
-0.0547601 0.056396674 -0.04288689 -0.12578337 -0.063985616 -0.051499724 -0.0035739369 -0.057837456
0.049475078 -0.08172513 -0.11025249 0.079795614 -0.009941727 0.21263573 -0.046434674 0.058874294

a2c_network.actor_mlp0.4.bias f4 [64]
00000000: a4ab 8cbb 3b52 2bbe f9f7 63bd 1046 fabc
00000010: 4bf5 8cbd b82f a13d 901d 3cbb b328 ffbd
00000020: de18 953d 58fd efbd 5fc5 01be b592 b03c
00000030: 0865 983d a80d 38bc e9c7 cb3c cf3c 26be
00000040: 8d9b e8bb 58b2 e1bd 8f0c bfbd 3bff 12be
00000050: 472f ee3d f8c4 193d c064 c33c d87a 40bc
00000060: 98b7 2cbe 5655 d4bd 205a 763c f752 993d
00000070: 0b27 993d 383d 1cbe 700a 11be daf7 c6bd
00000080: 18b0 09be 5e8f e0bd 84ca b8bc 8f44 d33c
00000090: 5aa7 d13d ff7f d7bc aea1 dabd e7a1 19be
000000a0: a736 6a3d 1eec cbbd b40a 06be d341 c0bd
000000b0: 07a6 1e3d d2d9 a73d 3433 473d 168d d0bc
000000c0: 1446 f13d b1d9 943d fdf9 fbbd 3ffd a1bc
000000d0: 7bc8 0bbd 648c e5bd 542f 6cbd 1de5 15bc
000000e0: 7e0b 29be 9589 c53d 8ac3 e93d fa79 d73d
000000f0: 64db c2bd 4d7a 783d 6303 d7bd 2f44 a7bd
-0.004292922 -0.16730587 -0.055656407 -0.030550987 -0.068827234 0.0787043 -0.0028704144 -0.12458935
0.07280134 -0.11718243 -0.12672947 0.02155433 0.07441145 -0.011233725 0.024875598 -0.16234134
-0.007098621 -0.110203445 -0.09328567 -0.14355175 0.11630111 0.03754136 0.023851752 -0.011748038
-0.1686691 -0.10367839 0.015036136 0.074865274 0.0747815 -0.15257728 -0.14164138 -0.09715243
-0.1344608 -0.10964845 -0.022557504 0.025789527 0.10236998 -0.02630615 -0.10675369 -0.15003167
0.057181027 -0.09957145 -0.1309002 -0.09387555 0.038732555 0.08195843 0.048632815 -0.0254579
0.117809445 0.07268084 -0.12303541 -0.019774077 -0.03412674 -0.11208418 -0.057662323 -0.009148863
-0.1650829 0.09645382 0.11414249 0.10521312 -0.09514502 0.06066351 -0.10498693 -0.08167302

a2c_network.value0.weight f4 [1, 64]
00000000: 959c 3fbd 9e39 94bd 2dbd 873d 22f4 64bd
00000010: f7bd 4ebd f533 ae3e 54de e9bc d820 51bd
00000020: 1150 433d d441 34be 7a97 6dbe 286a 253c
00000030: 9236 093e 24e9 33bc 005e a73c fcd2 08be
00000040: 73b1 793e fdfe 8dbe 624c 02be 0cc3 57be
00000050: d9d3 553e 0923 413d c103 0f3e 9d20 c6ba
00000060: 3955 ccbd 7450 51be f965 993e 4525 9d3d
00000070: 2f78 413d 4e31 f2bd 70a3 fcbd f813 14bd
00000080: 38aa 6dbe 1c65 d0bd d266 963e e170 193e
00000090: 136f 7c3e b874 00bd 468f c2bd 44f9 42be
000000a0: 1469 543e df45 5ebe 4e16 25be de57 e0bd
000000b0: 70fa c03d 288f 4b3e 7b60 7c3d aa0b 643d
000000c0: 827d a63d 541f 243e 3386 10be b816 c1bc
000000d0: dec6 843e e0fa 66be b8ba 01bd fb69 0fbc
000000e0: 79a8 75be bd49 233e ae43 2c3e d115 cb3d
000000f0: b1f4 29be 00a9 a63e b3cf 29be f968 52be
-0.046780188 -0.07237552 0.06627879 -0.055896886 -0.050474133 0.34024015 -0.028548397 -0.051056713
0.04768378 -0.17603236 -0.23202315 0.01009611 0.13399723 -0.010980878 0.020430565 -0.13361734
0.24384098 -0.27733603 -0.1272445 -0.21070498 0.20881595 0.047152553 0.13966276 -0.0015115921
-0.099771924 -0.20440847 0.2996061 0.07673124 0.047233757 -0.118258104 -0.12335861 -0.036151856
-0.23209465 -0.10175535 0.2937532 0.14984466 0.24651746 -0.03136131 -0.094999835 -0.190404
0.20743209 -0.21706341 -0.1612179 -0.10954259 0.09422767 0.19878829 0.06161545 0.055675186
0.081294075 0.16027576 -0.14113693 -0.023570403 0.25932974 -0.22556639 -0.03167221 -0.008753295
-0.23990048 0.15946098 0.16822693 0.099162705 -0.16597249 0.32550812 -0.16583137 -0.20547856

a2c_network.mu0.weight f4 [12, 64]
00000000: f35b 8d3c e7b4 823d 71dd 07bd 0787 17bd
00000010: 4cec 663d 4e66 81bd bace 833d 912a 83bd
00000020: 784e d13d 896c 1a3d 624d de3d e714 3fbd
00000030: 5d5a 3b3d 060d 03bd 50fa 04bd 8341 ce3d
00000040: 5bbf 093e 0dba 3e3d 08f6 e4bd 0d38 423d
00000050: 2452 51bd 7fb5 06bd 262b e6bd 2af8 a4bd
00000060: c764 80bd 69c2 89bd 59c8 8bbd 8600 4c3c
00000070: 5bfe 0c3c 3222 7b3d 9da1 d53d a3b8 943c
00000080: 5b26 82bc e2f9 813d c0b7 9f3c 296c d8bd
00000090: 48ab 7ebd bd2f ebbd 48ce 913b 2145 923d
000000a0: 373f b63b 8077 983c 7bd6 753d 2b99 8fbd
000000b0: 2a54 af3d e678 5fbd 21a2 ad3d 6dfe f2bd
000000c0: 07cf 29bd 9329 6f3d 6be6 313d b0c3 5cbd
000000d0: 0e61 9ebb a8d1 c33d ac76 a33d 5ed4 2cbe
000000e0: cea0 933d 89bd 083d abfa d6bd dc12 d23c
000000f0: 2e42 a93c 995d 1a3d 74a0 ddbd d313 0cbd
00000100: a331 c9bd bf37 d3bb 317d 803d 36df 143d
00000110: a1c3 9a3d 8eb2 b8bc e88e 19bd 52ca 7c3c
00000120: b14d 543d 95fc 1e3d b49d 7ebd c9c6 283d
00000130: 27e7 a6bd 4267 d13d 9a8b df3c 1a94 e43d
00000140: f812 6b3d 2553 c83c a102 313e 6387 fe3c
00000150: 1f5a 643d c30d 953c 09b6 e2bc 497c adbc
00000160: 6a06 58b9 c708 dabd 88d2 afbd da98 14bd
00000170: 45fc 8fbd b44b 473d af3e 0ebd 9627 983d
00000180: 757b e33c 4125 293d 99c2 a23d 0ed7 9bbd
00000190: 3476 f4bb 0c19 21be c039 933b 3bbf b7bd
000001a0: 6af6 6d3c 5fd9 933d 8898 7ebb a2db 463d
000001b0: 5e7d 01bd 053e e53d 8cdc 19be 1b56 cdbd
000001c0: e657 43bd 21f2 babd aa23 283d 4f42 a3bd
000001d0: c2cf 5ebc cfd1 733d 90e1 003e 1cc3 37bd
000001e0: 71a8 05be e33a 673d 52a3 4ebd 346d d6bd
000001f0: df6b 7b3d 9e7c c13d 1015 8dbd fe7c 8dbd
00000200: 3adc 513d c6ac a53d ea21 2e3e 4759 b9bd
00000210: ebfa 80bd 69f8 083d 167b dd3b e09d 4a3c
00000220: 47fd 1cbe dd5e 22bd 15db 19bd f584 96bd
00000230: 583a 4e3c a133 bdbd f58d 0c3d 1302 ac3d
00000240: 7e39 323d 1021 c43d 1870 c1bd c029 bebd
00000250: 9954 16bc d807 513d 4ee5 983c 2905 7abd
00000260: cd21 1c3d 025f 9dbd 7416 683d 718a 04bc
00000270: e2aa 66bc 1297 da3d 7915 0b3d 2374 8c3c
00000280: 286c 55bc 3a02 203e 4574 be3d 29ac 96bd
00000290: 038f 273d bc7d c5bc 4812 3d3d 361d 873d
000002a0: 8b8f 4f3c 17c6 a3bc 8f6e d7bd b1e1 bb3d
000002b0: 97f0 783d a921 153c 616b 4bbd d678 8f3d
000002c0: 6fca 95bd aa11 e3bc 0011 993c 567b 65bc
000002d0: 03ab b73d bf98 943c b9b6 83bd d93a 5ebc
000002e0: 96b7 a43d d7b7 93bd bc2b 55bd be7f 123d
000002f0: dc80 583d 63bb a73b 8c4a 1e3d 51fc 193d
00000300: 7f74 a73c 753f 453d 7a02 df3c d595 abba
00000310: 71f1 3d3c 13ae 27bd 6c7a bdbb 1794 b2bd
00000320: d9f8 833d 09d3 b1bd 54cd 2f3d 82f5 8c3d
00000330: 687f 443d 4261 be3d 9b9b a83d 31a0 95bd
00000340: d068 d2bd 1bfb 703c 0981 e73d d39a 08bd
00000350: 477b 9b3d 6d22 083d 0287 493b a75f 333d
00000360: bf17 793d 4ad5 aebd 4da3 5c3c 6701 3abd
00000370: 8d3c ccbd 3756 253e 34ab 133d 88d3 533d
00000380: 1a0c 4dbd f05b cebd 8de1 273d cec3 50bd
00000390: dc99 a9bd cbcf 993d d694 2d3d 4328 863d
000003a0: b393 8d3d 8be7 d13c 962a 863d a25e 6a3c
000003b0: 35b2 7a3b 02ed 09bd bdb0 823d cbf1 563d
000003c0: e374 c6bd 4a6a 61bd 362e 37bd b7fd c8bb
000003d0: d2b1 2abd 10ed 413d 28f6 bdbd 2d1c 47bc
000003e0: ff28 a1bd 159b a43d c597 11bd 47ad bdbd
000003f0: 016e 11bd 1d0a 753d c271 bbbc f86f b43d
0.017255759 0.06382161 -0.033170167 -0.036994006 0.056377694 -0.06318341 0.06435914 -0.06404603
0.10220045 0.037701163 0.10854603 -0.046650793 0.045740474 -0.031994842 -0.03246528 0.10071089
0.13451903 0.04656415 -0.11179739 0.047416735 -0.051103726 -0.032887932 -0.11238699 -0.08055146
-0.06269222 -0.06726534 -0.06825323 0.012451297 0.008605565 0.061311908 0.10431216 0.018154448
-0.01588743 0.063464895 0.019496799 -0.10567505 -0.062175065 -0.11483715 0.0044496395 0.071420915
0.005561735 0.01861167 0.060018998 -0.07011636 0.08560975 -0.054558657 0.08478189 -0.11864934
-0.041457202 0.058389258 0.043432634 -0.05389756 -0.004833347 0.09561473 0.07981619 -0.16877887
0.072084054 0.03338388 -0.1049703 0.025643758 0.02066144 0.037686918 -0.1082162 -0.034198593
-0.098239206 -0.0064458544 0.06273878 0.036345683 0.075568445 -0.022546079 -0.0374898 0.015429096
0.051831905 0.0388151 -0.062162116 0.0412052 -0.081495576 0.10224773 0.027288247 0.11161061
0.057391137 0.024453709 0.17286159 0.031070417 0.05575001 0.018195039 -0.027674692 -0.021177428
-0.00020601755 -0.106462054 -0.085850775 -0.036278583 -0.070305385 0.04865618 -0.03472775 0.074294254
0.02776883 0.041295294 0.07947273 -0.07609378 -0.00746038 -0.15732211 0.0044929683 -0.08972021
0.014524082 0.072191946 -0.003884824 0.048549302 -0.0316137 0.1119347 -0.15025538 -0.10026189
-0.04769125 -0.09128214 0.041049637 -0.07971632 -0.013599338 0.05952626 0.12586045 -0.044863805
-0.13052537 0.056452643 -0.050448723 -0.104700476 0.06138217 0.09447597 -0.06888783 -0.06908606
0.051235415 0.080895945 0.17005125 -0.090502314 -0.06297859 0.033440027 0.0067590578 0.012366742
-0.15330993 -0.03964125 -0.03756245 -0.07349578 0.012587152 -0.09238363 0.03431507 0.08398833
0.04351186 0.09576619 -0.09445208 -0.09285307 -0.009175443 0.05103287 0.018664028 -0.061040077
0.038118172 -0.07684137 0.056662038 -0.008089648 -0.014078828 0.106733456 0.033956025 0.017145222
-0.013026275 0.1562585 0.092995204 -0.07357056 0.04090787 -0.024107806 0.046160012 0.065973684
0.012668501 -0.019991918 -0.10519134 0.091739066 0.06077632 0.0091022635 -0.04966295 0.070054695
-0.07314002 -0.027718384 0.018684864 -0.014006456 0.08968165 0.018139241 -0.06431336 -0.013563835
0.08042829 -0.07212799 -0.05204366 0.035766356 0.052857265 0.005118774 0.038645312 0.037594143
0.020441292 0.04815622 0.02722286 -0.0013090918 0.011593209 -0.040937494 -0.005782416 -0.08719652
0.06443948 -0.0868283 0.042920426 0.068827644 0.047973067 0.09295894 0.082328044 -0.07305945
-0.10273898 0.014708306 0.113039084 -0.033350777 0.07591873 0.033235956 0.0030750637 0.043792393
0.06081366 -0.085367754 0.013466668 -0.045411494 -0.09972487 0.1614617 0.036051944 0.051715404
-0.05006037 -0.100761294 0.040986586 -0.050967984 -0.082812995 0.075103365 0.04237827 0.06550648
0.06912937 0.025623104 0.065510914 0.014304789 0.0038253192 -0.033673294 0.063813664 0.052476685
-0.09690263 -0.055033006 -0.044721805 -0.006133761 -0.04167349 0.04734522 -0.09275466 -0.012152714
-0.078691475 0.08037392 -0.03554513 -0.09261566 -0.0355053 0.059824098 -0.022881392 0.08810419

a2c_network.mu0.bias f4 [12]
00000000: 9bb7 83bb ec89 49bd 2e7b 60bd 3569 bbbc
00000010: 0d2b 0cbd 1979 623d 4d2a 49bc 7987 91bc
00000020: 4d36 853c 7c1c 793d 9c74 c7bb 5ee3 96bb
-0.00401969 -0.0492038 -0.054804973 -0.022877315 -0.034220744 0.05529127 -0.012278152 -0.017764794
0.016261244 0.06081818 -0.006086899 -0.004604741

a2c_network.adapt_weight0.weight f4 [1, 12]
00000000: 2648 87be 7e82 323e 37a5 b2bc b346 a6bd
00000010: 9311 fc3d 878a fabd a98c 69bb 2238 8e3e
00000020: f5be fc3d 9279 75be 98d4 7f3c 8bc0 fabc
-0.26422232 0.17432591 -0.021807296 -0.081189536 0.123080395 -0.12233453 -0.0035636819 0.277772
0.1234111 -0.23972157 0.015614651 -0.03060939

exp_avg f4 [12]
00000000: 1b3c bdbc 94f7 deba 7547 853b 2a60 c9bc
00000010: af27 443d 55ae f3bc f494 89bc f9d1 543c
00000020: cedf 3d3c c27b f13c d6ef 1cbc d818 fc3b
-0.02309995 -0.001701104 0.004067356 -0.024581987 0.047889408 -0.029746214 -0.01679466 0.0129895145
0.011589004 0.029477958 -0.009578666 0.0076933913

exp_avg_sq f4 [12]
00000000: 8cad 433c 3332 383c 6060 143c 6ed1 563c
00000010: 6cd6 313c 2acf 383c 4b56 373c 4427 5f3c
00000020: 8bc9 523c c638 603c b776 5f3c 5ef2 483c
0.011943232 0.011242437 0.009056181 0.013111455 0.010854345 0.0112798605 0.011190007 0.0136202015
0.012865434 0.013685411 0.013639144 0.012264816

exp_avg f4 [256, 41]
00000000: 5e6f eeba c601 843b 19f2 a23b bf03 09bb
00000010: bc40 0cbb aa54 c6bb 2faf 31bb db84 283b
00000020: b47a 873a 98e6 933a 6af2 1a3b 2a46 863b
00000030: 3ea8 76bb 5cdf 343c a11a 75bb bf0a 04b8
00000040: 0000 0000 0000 0000 0000 0000 3062 3ab8
00000050: b09f a2bb af7e 623a a01b 4e3b 0f6a 85b9
00000060: 4596 acb9 c5be a6ba c454 bcba 0000 0000
00000070: 0000 0000 0000 0000 0000 0000 0000 0000
00000080: 0000 0000 0000 0000 0000 0000 0000 0000
00000090: 0000 0000 0000 0000 0000 0000 0000 0000
000000a0: 0000 0000 e634 223b 1dd6 b5ba f7e9 5abb
000000b0: 7c79 193c df65 823a 7237 9439 0e8b 2abc
000000c0: af58 47bc c1ef 26bc 6bf5 63bc e71f a23a
000000d0: 9fd3 06bb 0e9d 533b c31c f4bb d7ac 91ba
000000e0: 895e 4035 0000 0000 0000 0000 0000 0000
000000f0: b657 8635 4069 baba a476 6fbb 41a4 5bbc
00000100: a53c 123b 72d7 a73a 4fe2 c0bb d933 53ba
00000110: 0000 0000 0000 0000 0000 0000 0000 0000
00000120: 0000 0000 0000 0000 0000 0000 0000 0000
00000130: 0000 0000 0000 0000 0000 0000 0000 0000
00000140: 0000 0000 0000 0000 4bf7 60ba 6ebc 673c
00000150: 8fe0 363c 46fc 47bb 8b19 dbbb c3af 4ebc
00000160: f4a2 0b3b f80a 25bb 4b53 8536 2436 d0bb
00000170: 66f6 d139 b733 bd3c 87b4 22bc 3ce9 d03c
00000180: 7614 a7bb 9e72 b5b8 0000 0000 0000 0000
00000190: 0000 0000 9d00 00b9 a11f 20bc 6a48 b13b
000001a0: 9857 a739 9d1d 7c3a b726 afba 47a1 29bc
000001b0: 8317 1abb 0000 0000 0000 0000 0000 0000
000001c0: 0000 0000 0000 0000 0000 0000 0000 0000
000001d0: 0000 0000 0000 0000 0000 0000 0000 0000
000001e0: 0000 0000 0000 0000 0000 0000 7780 413b
000001f0: d9e5 72bc 665c 3ebc 9787 26bb 3102 963b
00000200: a076 4f3c 7e4b 9d3c ff18 963c b121 503c
00000210: 9d85 cb3c 36da c03b a0cc f2bc fa4d 103c
00000220: 5eb3 e9bc 77a8 813c 49f2 b238 0000 0000
00000230: 0000 0000 0000 0000 8683 fc38 1750 ab3c
00000240: d7bc 9eba d382 503c 9062 8a3a 05cd 3cbb
00000250: fe3c 023d cde0 293b 0000 0000 0000 0000
00000260: 0000 0000 0000 0000 0000 0000 0000 0000
00000270: 0000 0000 0000 0000 0000 0000 0000 0000
00000280: 0000 0000 0000 0000 0000 0000 0000 0000
00000290: 6992 3f3a b2fb 60bc e532 4bbc 9e4d fb3b
000002a0: c600 de3b c357 853c 0bfa 1a38 e1c1 493a
000002b0: a8b2 cb39 dbe9 bb3b ad5e a7b9 ae69 bcbc
000002c0: c6c3 493c c577 f4bc 0bd6 eb3b d6f0 be38
000002d0: 0000 0000 0000 0000 0000 0000 92c0 0639
000002e0: acfa 283c d850 adbb 2108 58bb ac5c f03a
000002f0: 3cae 29ba a3c3 813c 930a 0a3b 0000 0000
00000300: 0000 0000 0000 0000 0000 0000 0000 0000
00000310: 0000 0000 0000 0000 0000 0000 0000 0000
00000320: 0000 0000 0000 0000 0000 0000 0000 0000
00000330: 0000 0000 272c dfba d0eb b7bc a754 9cbc
00000340: e1a9 5f3c 5e2d 353c 34d5 aa3c 1f5e f4bb
00000350: a9be b7bb 97f1 17bc 7053 0737 6d3c 31bb
00000360: 9e4a 05bd 5dda 8a3c 168c 19bd 3944 1d3a
00000370: 1a20 0a39 0000 0000 0000 0000 0000 0000
00000380: 8cf6 4239 9c9f fc3b 571d 56bc 3415 2abc
00000390: 23a5 fa3a 2ff4 163a 3a98 7b3c 75dd 1d3b
000003a0: 0000 0000 0000 0000 0000 0000 0000 0000
000003b0: 0000 0000 0000 0000 0000 0000 0000 0000
000003c0: 0000 0000 0000 0000 0000 0000 0000 0000
000003d0: 0000 0000 0000 0000 c796 0e3b da8b 923c
000003e0: 2ec0 933c 5d85 0fbc e374 f8bb ea52 9fbc
000003f0: 4b31 afbb b782 b7bb a8d9 e9bb 35ca 8abc
-0.0018191149 0.0040285317 0.004972708 -0.0020906774 -0.002140089 -0.006052573 -0.0027112474 0.0025713954
0.0010336251 0.0011283932 0.0023643025 0.0040977197 -0.0037636901 0.011039581 -0.0037399905 -3.148126e-05
0.0 0.0 0.0 -4.44373e-05 -0.004962884 0.0008640093 0.0031449571 -0.00025446757
-0.00032918356 -0.0012721649 -0.0014368524 0.0 0.0 0.0 0.0 0.0
0.0 0.0 0.0 0.0 0.0 0.0 0.0 0.0
0.0 0.0024750768 -0.0013873015 -0.0033403614 0.009367343 0.0009948573 0.0002827007 -0.01040913
-0.01216714 -0.010188998 -0.013913493 0.0012369127 -0.0020572913 0.0032289657 -0.0074497177 -0.0011114132
7.166314e-07 0.0 0.0 0.0 1.0009305e-06 -0.0014222041 -0.0036539221 -0.01340586
0.002231398 0.0012805297 -0.005886353 -0.0008056737 0.0 0.0 0.0 0.0
0.0 0.0 0.0 0.0 0.0 0.0 0.0 0.0
0.0 0.0 -0.00085817714 0.014144046 0.011161937 -0.0030515357 -0.0066863946 -0.012615147
0.0021306844 -0.002518354 3.9734055e-06 -0.0063541103 0.00040047168 0.023095949 -0.009930736 0.02550184
-0.0050988747 -8.652102e-05 0.0 0.0 0.0 -0.0001220726 -0.009773166 0.0054102438
0.00031917985 0.000961745 -0.0013362978 -0.010353393 -0.002351255 0.0 0.0 0.0
0.0 0.0 0.0 0.0 0.0 0.0 0.0 0.0
0.0 0.0 0.0 0.0029526034 -0.014825308 -0.011618709 -0.0025410408 0.004577898
0.01266256 0.019201037 0.018322466 0.012703345 0.024843985 0.005885388 -0.029638588 0.008807654
-0.028527912 0.0158274 8.5328305e-05 0.0 0.0 0.0 0.000120407945 0.020912213
-0.0012110722 0.012726503 0.0010557938 -0.0028808725 0.031796448 0.0025921345 0.0 0.0
0.0 0.0 0.0 0.0 0.0 0.0 0.0 0.0
0.0 0.0 0.0 0.0 0.00073078886 -0.013731884 -0.012402271 0.007669165
0.0067749945 0.0162772 3.6949332e-05 0.0007696432 0.00038852287 0.005734665 -0.0003192326 -0.02299961
0.012314742 -0.029842267 0.007197147 9.104765e-05 0.0 0.0 0.0 0.00012850974
0.010313671 -0.0052891783 -0.003296383 0.0018338165 -0.00064728013 0.015840357 0.0021063432 0.0
0.0 0.0 0.0 0.0 0.0 0.0 0.0 0.0
0.0 0.0 0.0 0.0 0.0 -0.0017026708 -0.022451311 -0.019083334
0.013651342 0.01105818 0.020853616 -0.007457509 -0.0056074453 -0.009273908 8.066054e-06 -0.0027044073
-0.032541864 0.016949827 -0.037487112 0.00059992407 0.00013172664 0.0 0.0 0.0
0.00018593128 0.0077094566 -0.013068519 -0.010381032 0.0019122701 0.0005758432 0.015356118 0.0024088298
0.0 0.0 0.0 0.0 0.0 0.0 0.0 0.0
0.0 0.0 0.0 0.0 0.0 0.0 0.002175735 0.017888952
0.018035974 -0.008759824 -0.0075822934 -0.019448716 -0.0053464524 -0.005600299 -0.0071365424 -0.016942123
