outputs/train/2024-07-05_15-03-25/runs/FactoryTaskNutBoltPickPlaceGPT-2024-07-05_15-03-26/nn/FactoryTaskNutBoltPickPlaceGPT.pth (torch, 651906 bytes, 37 tensors)

value_mean_std.running_mean f8 [1]
00000000: e5a2 a353 eace 3e40
30.808263041925688

value_mean_std.running_var f8 [1]
00000000: afd5 eb21 80da 8040
539.3125646996103

value_mean_std.count f8 []
00000000: 0000 0010 8030 7341
20121601.0

running_mean_std.running_mean f8 [41]
00000000: 31df 6fe9 0d8b 913f f1c1 cc66 7905 c6bf
00000010: a65c 87b6 2bb0 dc3f b4e9 c836 c65f a43f
00000020: 1bc1 1ea3 4277 ef3f 4873 a581 01f6 8cbf
00000030: 6511 ce82 d0f5 a03f 877f e2b4 3dba a1bf
00000040: dd18 ff24 3340 863f 892f 23e6 95b6 acbf
00000050: 80a8 5c95 5240 813f 37cc 1cef 161f a6bf
00000060: 3dbc ef32 1df0 9ebf 2d3d 4c4d a484 02bf
00000070: fab4 58dd 8970 293f d29f 6c84 cca5 db3f
00000080: 0000 0000 0000 0000 0000 0000 0000 0000
00000090: 0000 0000 0000 0000 e524 381c e5ff ef3f
000000a0: e8fb acfb fcee 54bf 2402 6361 97a8 c8bf
000000b0: 0f0f f7a0 005d d93f ee79 9c41 5c82 4e3f
000000c0: 22e4 a036 ef5c 6f3f d0b0 77a3 5726 903f
000000d0: 4159 b419 248f ee3f 0000 0000 0000 0000
000000e0: 0000 0000 0000 0000 0000 0000 0000 0000
000000f0: 0000 0000 0000 0000 0000 0000 0000 0000
00000100: 0000 0000 0000 0000 0000 0000 0000 0000
00000110: 0000 0000 0000 0000 0000 0000 0000 0000
00000120: 0000 0000 0000 0000 0000 0000 0000 0000
00000130: 0000 0000 0000 0000 0000 0000 0000 0000
00000140: 0000 0000 0000 0000
0.0171320127228391 -0.17204206008456382 0.4482526094920537 0.0397931997180935 0.9833081422748678 -0.014141093987456124 0.03312541577091358 -0.034624031382235514
0.010864638868849525 -0.056080517142247883 0.008423466857113704 -0.04320594471791888 -0.030212837442317165 -3.532053384535726e-05 0.0001940887729445019 0.43199456150113946
0.0 0.0 0.0 0.9999871779592949 -0.0012776823557059062 -0.1926449990769622 0.3963014194416567 0.000931067511576176
0.003828494275719866 0.015771264412180852 0.9549732687035332 0.0 0.0 0.0 0.0 0.0
0.0 0.0 0.0 0.0 0.0 0.0 0.0 0.0
0.0

running_mean_std.running_var f8 [41]
00000000: 9a9e d252 d4c2 723f e566 6709 b458 923f
00000010: 4e6b 494c f118 703f d486 1e23 574c 973f
00000020: c979 975c 4e7f 473f ee0f e564 0fdc 623f
00000030: b254 c28d 299a 723f 5061 f5fd a538 893f
00000040: 7e80 0075 b281 a43f e56e 9453 72d2 953f
00000050: 869c f1f9 c9b5 b23f c8f8 3846 c7e2 a63f
00000060: ff5d 2806 fa5d be3f 8d7b 427f 9f5a 6b3f
00000070: 9f41 fe37 4758 6b3f 907e 5ae9 ee0f c53e
00000080: c95f 3f05 6bae 7a3e c95f 3f05 6bae 7a3e
00000090: c95f 3f05 6bae 7a3e d767 38e3 6a4e eb3e
000000a0: 84f4 29c3 0ff5 6c3f 52a0 b1e7 7acc 943f
000000b0: 9348 5694 0d7b 433f 026d 8f25 4845 823f
000000c0: 5758 55d2 4a90 803f e4c3 dd7b a12e a63f
000000d0: 0261 d60b 6f6c 9c3f c95f 3f05 6bae 7a3e
000000e0: c95f 3f05 6bae 7a3e c95f 3f05 6bae 7a3e
000000f0: c95f 3f05 6bae 7a3e c95f 3f05 6bae 7a3e
00000100: c95f 3f05 6bae 7a3e c95f 3f05 6bae 7a3e
00000110: c95f 3f05 6bae 7a3e c95f 3f05 6bae 7a3e
00000120: c95f 3f05 6bae 7a3e c95f 3f05 6bae 7a3e
00000130: c95f 3f05 6bae 7a3e c95f 3f05 6bae 7a3e
00000140: c95f 3f05 6bae 7a3e
0.00458033503415547 0.017916501115769718 0.003930037088674633 0.02275215293742046 0.0007170803666516841 0.0023021984735880274 0.004541551894495276 0.012315079510401589
0.04005201032873716 0.021310602523143003 0.07308637954848693 0.044698932001197955 0.11862146997770394 0.0033391108682531757 0.0033379927626315388 2.5108145774303643e-06
9.939566442075505e-08 9.939566442075505e-08 9.939566442075505e-08 1.3020667302621816e-05 0.0035348232134411756 0.020311279670210354 0.0005945030504099939 0.008921207090614395
0.00808771566759618 0.04332451474227364 0.027757392022608414 9.939566442075505e-08 9.939566442075505e-08 9.939566442075505e-08 9.939566442075505e-08 9.939566442075505e-08
9.939566442075505e-08 9.939566442075505e-08 9.939566442075505e-08 9.939566442075505e-08 9.939566442075505e-08 9.939566442075505e-08 9.939566442075505e-08 9.939566442075505e-08
9.939566442075505e-08

running_mean_std.count f8 []
00000000: 0000 0020 8030 6341
10060801.0

a2c_network.sigma0 f4 [12]
00000000: e40f 60bf 2b68 4bbf 66f3 b7bf ff3f 38be
00000010: 01f8 bebe 66d9 5abe 307f 07be 259b c7bd
00000020: 8776 83be 8340 20be d14c 8d3d 1e82 dcbd
-0.8752425 -0.7945582 -1.4371154 -0.17993163 -0.37298587 -0.21371993 -0.13232112 -0.09746388
-0.25676367 -0.1564961 0.06899417 -0.107670054

a2c_network.actor_mlp0.0.weight f4 [256, 41]
00000000: d081 723d 24aa 823e 02bd 4a3e f69f 813c
00000010: 685d 3d3e e2aa 84bd e4c7 2d3e 1d4f 93bd
00000020: 7850 25be 4228 a5bd 1e01 e1bd ac8e e03d
00000030: 0b6b 863d 39d4 583d 09ea df3c 722f 033e
00000040: fd4f fa3d e040 e3bd c61b 213c 97d7 c43c
00000050: 5bb8 883c 7103 33be 064a 95bc 311b 353d
00000060: 5eee a13d 4b61 9bbd 0e1a 20be 09c4 bebd
00000070: 34d7 0f3e 392d 553d 8fe2 193e d3fa 03be
00000080: 6d9f 1ebe f83b fabd ce27 d7bd b38c 813d
00000090: 860e 653d 0fe2 043e ed2c a5bd 950a dabd
000000a0: c1b3 a93d fa85 b63b 93c8 913e e967 0bbe
000000b0: a969 093d af71 0abe 84ae 273d 08f5 f53d
000000c0: 3fcd fcbc e987 613c 9215 2e3c ec48 e43d
000000d0: 0392 e8bd 7f42 e0bd c034 ee3d 7c73 d5bd
000000e0: a8a0 63be 57bd 1abe 412a b7bd ddcb 1f3d
000000f0: 6602 41be 8a82 b2ba 8313 19bd 9f5c b4bd
00000100: fc11 60be d2f9 1bbe ded8 43be 6537 0bbe
00000110: 01dc 1f3e 5aa4 f13c 4120 453d 1c28 15be
00000120: a910 d2bd 7dec 54bd b00e c83c feb7 0cbe
00000130: e6cf 89bd 007b bfbd 25e9 e239 a507 6ebd
00000140: 844f 31bc 57bc d8bd af05 c4bd 63c7 58be
00000150: 1a09 e1bd dba4 22be 904c 683d 044e afbd
00000160: d8e2 b53d 92d8 ec3d 7d7e 37be e254 683d
00000170: 7dcd ecbd 0969 9d3b 491a 26be 815e 3cbd
00000180: 9196 233d cc02 b1bd 940b 793d f93d 03be
00000190: 1f76 ed3d ee8c 2abe 8201 1c3d c423 723d
000001a0: d908 003e 5f32 cc3d 985d 203e 7797 3cbe
000001b0: 6fad 6e3e ba92 89bd 3b33 8cbc 6466 efbd
000001c0: 91aa 113e e4bf eabd e2f0 aa3d c5cf 603d
000001d0: cede 4f3d 21ec acbd 7d5c 113e 5792 0c3d
000001e0: 3594 a43c 96ee 0cbe 4b44 863d 1e55 7bbd
000001f0: ad93 0dbe 1baa d43e 5f37 a0bd 5ac1 d43c
00000200: d3e1 0abe 05af ae3c 84dd c5bb b632 70bd
00000210: 2f5d 55be 70a7 a8bd 27cb 1abe 7895 1c3e
00000220: afbf 923d 714d 98bd b351 7d3d 8d3a a53d
00000230: 05fd e73c fece 63bd 33c9 da3d 7d9b 083e
00000240: b74f 493e f5a9 fdbc 8e10 dfbd ca2e 813d
00000250: bcb3 1abc 7dfc 893d 4872 cc3d d56f 093e
00000260: 404f 7dbc 5d39 0fbd 265a 153b 4dc7 18bc
00000270: c4c9 193d 1343 333d 0c40 11be a511 6cbd
00000280: cbac 063e 8c31 793d 3988 febb f1d5 c0bd
00000290: 1157 28be 7b26 7abe 4946 353d 1d90 043e
000002a0: 1d8e f83d a2c9 cd3d 66fb e5bd 4c7a 2fbe
000002b0: 4e74 eabd ca91 843e 70b2 953c 83b4 e4bc
000002c0: 4884 a13d 32be 61bc 9304 0bbe 953e a43c
000002d0: ff6e 91bd 733c 00bd 4d17 1fbe c6d6 303c
000002e0: 57fa 773e 48d3 0f3e 7d65 a2be 674a 75be
000002f0: 2221 d7bd 16c3 fb3d 7187 673e 3593 063e
00000300: 7b8e a73d 64e6 213d d374 c8ba 423e f3bd
00000310: 4404 09be 3095 15be 92ee 823d 7908 9dbd
00000320: 23bd 00bd 6312 b8bd e221 e9bc 061e e1bd
00000330: b2fd d0bd 8e07 c83d 9815 afbd 9d29 4f3e
00000340: da4d 70bd fe47 d1bd 4d54 92bd a6a8 febb
00000350: b6eb 813d 13b3 54be 68eb 233e c87e 81bd
00000360: 56de bd3c 9412 883d cea9 8d3c 302c 1dbe
00000370: 41ba 513e eb34 97bd 505e 6d3d 5f2f 163e
00000380: 1d36 903d a9db 41be 7e13 293d 4266 b8be
00000390: 72f6 bf3e 6386 8cbe 274c c23d 6df5 81bd
000003a0: 3c3d 173e a6e3 16bd 0866 03be 38d2 0f3d
000003b0: c4b0 b03d f52b 1fbe dc32 11bd 6fbb bfbd
000003c0: 45cc 5fbc 756e 9dbd e7bd 82bd 1613 4bbd
000003d0: 76f9 17be 9737 033e 7d60 6b3e 1eb4 47be
000003e0: 67ea 90be 37f2 21bd 2464 a0bd 8ccb b4bd
000003f0: 3aec 0f3d d3dc 3ebd 5e1f 2cbd 26ef e33d
0.05920583 0.25520432 0.19798663 0.015823346 0.18492663 -0.06477906 0.16970783 -0.07192824
-0.16143978 -0.08064319 -0.10986541 0.109647125 0.065633856 0.052936766 0.027333276 0.12811068
0.12222288 -0.11096358 0.009833282 0.024028582 0.01668947 -0.17481782 -0.018223774 0.044215385
0.07906793 -0.075869165 -0.15634939 -0.093147345 0.14046937 0.05204508 0.15027831 -0.1288865
-0.15490504 -0.122184694 -0.10505639 0.06325664 0.055922054 0.1297686 -0.080652095 -0.106465496
0.082862385 0.0055701705 0.28473338 -0.13613857 0.03354803 -0.1351993 0.040937915 0.120096266
-0.030859588 0.013765314 0.01062526 0.11146721 -0.113559745 -0.10950183 0.11631155 -0.104224175
-0.22229254 -0.1511129 -0.08943606 0.03901278 -0.18848571 -0.0013619226 -0.037372123 -0.088067286
-0.2188186 -0.15232018 -0.19125697 -0.1359535 0.15611269 0.029497314 0.048126463 -0.14566082
-0.10257084 -0.051983345 0.024421066 -0.13742062 -0.067291066 -0.09349632 0.00043279785 -0.05811276
-0.010822181 -0.10582798 -0.095713966 -0.2116981 -0.10988064 -0.158832 0.05671364 -0.08559802
0.08881158 0.11564745 -0.17919345 0.056721576 -0.11562631 0.004803781 -0.16220964 -0.045988563
0.039938513 -0.086431116 0.060802057 -0.1281661 0.115947954 -0.16655323 0.038087375 0.05911614
0.12503375 0.09970545 0.15660703 -0.18417154 0.23308347 -0.06717439 -0.017114272 -0.11689451
0.14225222 -0.114623815 0.08346726 0.054885644 0.050749592 -0.084434755 0.14195438 0.034319248
0.020090202 -0.13762888 0.065559946 -0.06136047 -0.13825865 0.4153603 -0.07823061 0.025971103
-0.13562708 0.02132369 -0.0060383696 -0.05864211 -0.20836328 -0.08235061 -0.15116559 0.15291393
0.07165467 -0.07436646 0.061845493 0.08067808 0.028318891 -0.055617325 0.10682907 0.13340564
0.19659315 -0.03096483 -0.108918294 0.063077524 -0.009442266 0.067376114 0.09982735 0.13421567
-0.015460789 -0.034966815 0.0022789328 -0.009324861 0.037545934 0.04376514 -0.14184588 -0.057634015
0.13151853 0.060838267 -0.007767704 -0.09415806 -0.16439463 -0.24428742 0.044256482 0.129456
0.12136481 0.10048224 -0.11229591 -0.17136496 -0.114479646 0.25892478 0.018273562 -0.027918106
0.07886559 -0.013778256 -0.13575964 0.020049373 -0.07101249 -0.03130765 -0.15536232 0.0107933935
0.24216591 0.14045441 -0.31718054 -0.23954163 -0.105043665 0.12293069 0.2261026 0.13142093
0.08181473 0.03952636 -0.0015293605 -0.11877109 -0.13380533 -0.14607692 0.0639316 -0.07667632
-0.031430375 -0.08987882 -0.02845854 -0.10992055 -0.102046385 0.09767066 -0.085490406 0.20230718
-0.058667995 -0.102188095 -0.07144985 -0.0077715693 0.063437864 -0.20771436 0.16007769 -0.0632301
0.023177307 0.066441685 0.017292883 -0.15348887 0.20481206 -0.0738314 0.05795127 0.14666508
0.07041571 -0.1893145 0.041278355 -0.36015517 0.3749271 -0.2744628 0.09487181 -0.063456394
0.14769453 -0.036838196 -0.1283189 0.03511259 0.08627465 -0.15544112 -0.035448894 -0.09361922
-0.0136595415 -0.07687084 -0.06383877 -0.04957875 -0.14841256 0.12814175 0.22986026 -0.19502303
-0.28303835 -0.039537635 -0.078316 -0.08827886 0.035137393 -0.046597313 -0.0420221 0.11129598

a2c_network.actor_mlp0.0.bias f4 [256]
00000000: ee74 f13d 4d7f 4fbe c036 2fbd ac08 b93c
00000010: aeb8 b4bd 9ac1 b53d b3ef 9bbd c506 a3be
00000020: 31d3 383d d33a 953d 5209 f13d 089f dc3d
00000030: 2fb5 57bd 8f42 833e 8e6b f3bd e8f6 9d3d
00000040: d4e1 143e 7fbd 853e 8ee1 0c3e 9b5b 733b
00000050: 4eee a6bd 933d 04be e727 dabd bc5b 1bbd
00000060: 216f 693d 568b 6e3c 6392 2cbb bf0a 573e
00000070: eb9c 89bb b51d c83d cd5c 603c 6e71 c43d
00000080: e473 683e 8436 fa3d 3c83 833b 6643 4d3c
00000090: c4de 7d3e 344c 34be b37a fbbd c8e2 2b3d
000000a0: 648b 79bd a068 c9bd 5672 13bc 8130 603e
000000b0: 32dd 293d 9a93 913d 2550 02bd 752b 273e
000000c0: b1e1 6a3e 9ae1 29be cafe 2d3c ba3a cabc
000000d0: abe9 8f3e 2731 5d3d 1c8a 3d3e 4258 75bd
000000e0: 11cc 843e 3d6c 62bd 6eac c0bc 72ca 9cbd
000000f0: 1223 6abd eade 763e 03cd cbbc 9028 503d
00000100: 46a9 973e 0b95 0dbe c385 613e ade8 98be
00000110: 7129 d53c 42e6 b53d b0df 79bd 83ae 653e
00000120: 74a7 23bd e41b 00be 2fe2 203e 3baa c3bd
00000130: 59e0 66bb 8eb2 8bbd 047a 823d cb0c 613e
00000140: a092 0e3c 0938 4b3e d676 e13d 13d4 643e
00000150: 26f9 74bd 557b 7bbd b5b1 64be ea46 d63d
00000160: 6357 ec3d 747d 863d 8338 72be fb7a 98bd
00000170: 39f7 1d3c 60a5 a93d 9995 9d3d 7079 503e
00000180: 7098 973e db75 823e 35fd 7f3e af02 f73e
00000190: 64ef ca3d 56d6 d13d 76af 873d 7157 c93e
000001a0: a355 aa3e f96e 5c3c 5110 40bd 5957 143e
000001b0: 7bb7 efbc c1e6 363e 0548 633e 6704 2fbd
000001c0: 0b8d 893e 4e57 503e 7d14 f43d 0245 443d
000001d0: 2b94 933a 51f3 e9bd bc75 adbd 4b3c 183e
000001e0: 2869 be3d e378 b7be 4bb5 52be c4fb d03d
000001f0: d902 e9bc 6e21 a4bc 06ac 543d 588f 663e
00000200: cbac 0a3e b322 cebd 6e79 323e c59c ca3c
00000210: 7d5f 08be cbb5 3e3e 5581 f03d 222d 573c
00000220: 4418 88be 51e3 1dbe b53a 2e3a e78f dabd
00000230: d709 2dbc c466 683e 15e4 43bd 780a c13d
00000240: a237 0f3e e20c 7d3c 1652 843c 21c2 ee3d
00000250: 8ff8 14bc 7975 bebd e0c1 72be 0d9a 7e3e
00000260: 3bb5 8f3e 33fb 8cbd 0c57 803d 76e6 c8bd
00000270: 0993 833e dca3 443e b0ae c63d 8034 bf3b
00000280: dfd5 4cbe 47c9 0c3c 527d 1c3e 6cfa 1dbd
00000290: 514c db3d 280b b03d e820 88bd 2171 473e
000002a0: e4d8 75be 24c5 03be 89df 3dbe 002c cebc
000002b0: fabc 623e 2f28 d3bc 0f75 4fbc de4d 83bd
000002c0: 3fb6 7dbe 6951 1ebe 6b4b a0bd 5494 7e3d
000002d0: 9544 063e 65eb ab3d 6c3f c23c 6747 113d
000002e0: 5c8f ba3d 94ea 823c 89a1 67be 52e0 87be
000002f0: f6aa 963d c858 113d 2d97 d13d b456 a1ba
00000300: 18f1 133d 1b22 a33a f8bd e5bd 9bd6 143d
00000310: 3936 febc 46aa f13d 455d 47bc e14e 783e
00000320: fefc bf3d 846c ba3c 94bc 52be 7584 973e
00000330: 8732 7839 3e83 423d d191 c73d 4715 e5bd
00000340: 0285 063d 865b 42bc 590b c13c e48b 433e
00000350: d620 373d 076d 03be e8e0 76bb 209c 8bbd
00000360: 318c f6bd 5c18 0f3e e181 73bd 26cb 0a3e
00000370: 4de3 5dbd 22e4 883d 346a 06bd a579 a43e
00000380: 6ff1 9bbd 4e47 04be 5cde 473d b559 4f3e
00000390: 926e f6bb c11f c0bd f8f3 bbbc 66d6 203d
000003a0: 3c50 733e c9db 0cbe c568 903b bc13 003e
000003b0: 6f2c 29bd a1f0 73bb a2ba 6a3e bb9c 523e
000003c0: 40fa 22be 614c c53d 1701 11be d77e ae3e
000003d0: 7994 36bd 6c2b 033e cdbf de3d e704 663e
000003e0: 1779 1f3e 50ad d4bd c2fe 78bd 278e 083e
000003f0: e816 cebc 7678 f83d b6e8 57be d75d 333d
0.11789881 -0.20263405 -0.042776823 0.022587143 -0.08824287 0.08874817 -0.076140784 -0.31841102
0.045123283 0.072866105 0.11769356 0.1077252 -0.052663025 0.25636718 -0.11885749 0.07713109
0.14539272 0.26121137 0.13757917 0.0037133459 -0.08150922 -0.12914114 -0.10652142 -0.03792928
0.056990746 0.014559587 -0.002633237 0.21000193 -0.0041996143 0.09771291 0.013694 0.095919475
0.22700459 0.12217429 0.004013447 0.012528276 0.2479201 -0.17607194 -0.122792624 0.041964322
-0.06092395 -0.09834409 -0.008999428 0.21893503 0.041470714 0.07108231 -0.031814713 0.16325171
0.22937657 -0.16589966 0.0106198285 -0.024686206 0.28107962 0.054001953 0.18509716 -0.059898622
0.2593694 -0.055279005 -0.02351972 -0.07655801 -0.057162352 0.24108472 -0.02487803 0.050819933
0.29621333 -0.13826387 0.22023682 -0.29865018 0.026020737 0.08881809 -0.06100434 0.22429852
-0.039954618 -0.1251064 0.15711282 -0.09553953 -0.0035228936 -0.06821166 0.06370929 0.21977536
0.00870195 0.19845594 0.11008994 0.22346525 -0.05980792 -0.061396915 -0.22333415 0.104627445
0.11540105 0.06566897 -0.2365437 -0.07445332 0.009641462 0.08283496 0.07694549 0.20358825
0.29608488 0.25480542 0.24998935 0.48244235 0.099089414 0.102459595 0.066252634 0.39324525
0.3326846 0.013454192 -0.04689056 0.14486445 -0.029262295 0.17861463 0.22195442 -0.042728808
0.2686542 0.20345804 0.1191797 0.047917373 0.0011259367 -0.11423362 -0.08469722 0.1486675
0.09297401 -0.35834417 -0.2057697 0.102042705 -0.02844374 -0.020035472 0.051921867 0.22515619
0.13542478 -0.10065212 0.17429134 0.024732957 -0.13317676 0.18624036 0.11743418 0.013133319
-0.26581013 -0.15418746 0.0006646321 -0.106719784 -0.010561428 0.22695452 -0.047824938 0.09425825
0.13986066 0.015444966 0.016152423 0.11658121 -0.009092464 -0.0929975 -0.2370677 0.24863453
0.28067955 -0.0688385 0.06266603 -0.09809582 0.25698116 0.19203132 0.09701288 0.005835116
-0.2000346 0.00859291 0.15282181 -0.0385689 0.107079156 0.08595878 -0.06646901 0.19476749
-0.24008518 -0.12868172 -0.18542303 -0.025167465 0.22142401 -0.025775997 -0.012662186 -0.06411336
-0.24776553 -0.15460743 -0.07826885 0.062153175 0.131121 0.08394507 0.023711883 0.035468485
0.09109375 0.015980996 -0.22620215 -0.2653833 0.07356827 0.03548506 0.102339126 -0.0012309165
0.036118597 0.0012446077 -0.11217874 0.036337476 -0.031031715 0.11800055 -0.012168233 0.2424884
0.09374426 0.022756822 -0.2057975 0.29593244 0.00023669946 0.047488444 0.09744609 -0.11185699
0.03284169 -0.011862641 0.023564981 0.19096333 0.04470905 -0.1283456 -0.0037670676 -0.06816888
-0.12038458 0.13974136 -0.059450034 0.13554057 -0.05417185 0.06684138 -0.032816127 0.32124057
-0.07614409 -0.12917826 0.048796043 0.20249064 -0.007520505 -0.093810566 -0.022943482 0.039266966
0.23761076 -0.13755716 0.0044070208 0.12507528 -0.04130214 -0.0037222283 0.22922757 0.205676
-0.15915775 0.09633709 -0.14160572 0.34081146 -0.04457519 0.12809533 0.10876427 0.22462808
0.15573536 -0.10384619 -0.06078983 0.13335477 -0.025157407 0.12132351 -0.21084866 0.043790665

a2c_network.actor_mlp0.2.weight f4 [128, 256]
00000000: f446 f1bd ba15 12be 61db 3a3e 219c 8ebd
00000010: 581f b5bd 17a5 03bd 17a5 d13d ceea b03d
00000020: e2b9 253d 4855 2fbe 535e 9fbd 4001 903d
00000030: 1c99 22bc a50a 5f3c 5bd0 32be bddc 5d3d
00000040: 237e a8bd 44ff 493d b9e0 a73d 5680 4d3d
00000050: 63c9 bc3d 9d6b 53bd 9f9e 2b3d 89e4 fabd
00000060: 4ecd ba39 510a 133d 4cfb c6bc 7074 10bd
00000070: aa6b cfbd 6f1c ddbd 1cb3 ecbc 7b36 443e
00000080: d422 913d 61ea 493d 4df1 033d 04e9 b2bc
00000090: 5422 c9bc 0c92 8ebd 2096 a53d 13d3 3cbe
000000a0: 7282 353e 2eac 07be d376 943d 17a7 15bc
000000b0: 0933 a03d 1180 5bbe 4f64 8a3d 1588 ce3c
000000c0: 7c22 893c 47d4 09bd d9ce 4e3c e0ba b1bd
000000d0: 8165 bcbd d600 dabd 2207 55bc b898 2dbe
000000e0: de54 b1bc c9ee 65bd 93ab 9bbd 5e86 a9bd
000000f0: d493 b23c f571 393e 04f6 f2bd 2e51 9e3d
00000100: 2235 03be 857e c4bb 1bf6 60be 7175 c2bd
00000110: 319f a5bd 8ebc 8a3e 7f13 0dbd 5a98 c23d
00000120: 005b 883c 2a63 99bc 43d9 46be 61b2 a43d
00000130: dfdf f6bd bb95 833d d996 0dbe 52a7 1cbe
00000140: b7af 3a3b e695 153e 5905 2d3e 2ddf 1e3d
00000150: 2b56 fb3c f742 cd3d 59ea f73d b53e ffbd
00000160: 4172 b93d a080 293c 2fcd d1bd 54ac c9bc
00000170: 4b49 2abe 381a cb3d 9d30 9ebd 2344 bfbd
00000180: 07dd 323d f5b7 2fbd abde 8b3d f7a0 ca3d
00000190: dcfd d43d 1c5e debd 23c6 b93d 70e8 9a3d
000001a0: 4488 61bb e449 1a3e 78a4 95bd 4140 cdbd
000001b0: f6b2 35be 2fe6 063c d32c 33bd 94cd f3bc
000001c0: 1e8e 13be 16bd e73a bd6e 8cbd e367 433e
000001d0: 414b 10be 68d6 1abe eaee db3d 465d 703c
000001e0: 48bd 05be 2525 05be 250d 773d cfe4 2dbe
000001f0: b663 0fbd 9a96 a0bd 2d0a 70bb f5a6 9b3d
00000200: 9096 523c 7d0f 053b 7c96 c73d 8704 e8bc
00000210: bc91 00bd 4618 6cbd 3a87 78bd f058 edbd
00000220: 7b7b 49bd a4c8 f2bc bc26 5abd 86bd 05bd
00000230: 7f16 c9bc 3f0a 67bd 65cd 73bd 2dd4 73be
00000240: 3b9f 4dbe b6f0 513d 5fea 9c3d 1bdf a3bd
00000250: 313a f93d 256f 2a3d c7de b7bc c147 7dbd
00000260: 21b8 103b ad4e 9abd d153 17be 1057 ecbd
00000270: fdd4 9a3d 63c0 343e efad c7bc 0e35 b5bd
00000280: 15fb 4cbc 8294 0f3d cfa2 103e 3eb1 0cbd
00000290: 59c8 c6bb 91ca d73c 442d 03be 10b4 f23c
000002a0: 9a38 f2bc fdcc 08be 0203 97bd 4ccc cdbc
000002b0: 046d 05be 88ff 29bb ea55 0abe 1014 f8bd
000002c0: bbfc 613d 79e2 9abc aa8b f23d 6490 b3bd
000002d0: b02c e93c a36d 93bd 451f 38be 658b 4abe
000002e0: 4a83 cbbd bf98 a8bd 79b0 28bc 676d 22bd
000002f0: 563a 13bd ca0e 193d fc53 3cbd 7b21 0d3d
00000300: 9a0b ba3d 859a 363e 701b d8bd 8e7e 2b3d
00000310: f9b0 c43d 54e4 403e 03e2 b23c 26b2 85bd
00000320: 95d9 933d b9cb 723c 5507 363d f5a6 b6bd
00000330: 5f33 963d d15e 143d 2065 1c3b 540c 943d
00000340: ece3 75bd 4f62 213b 073f d4bc 53c2 833d
00000350: d9ab 98bd 78d9 8d3e fcb8 f43c 1fa1 aa3d
00000360: 1811 363d 87f3 0e3e 5223 1ebe 13cc 89bd
00000370: 8984 843d 7d87 eebd db0f abbe a2e2 d8bd
00000380: 356b e23c 6f65 8d3d ae08 5dbe e78b 08be
00000390: 74da e13c 1ba1 cdbc 01b2 07be a3d0 20bd
000003a0: 049b 653c 63c9 fb3c baac 373d 4b30 2abe
000003b0: 2bf3 4fbc aa44 d7bd 363f 8bbd 8cd8 11bd
000003c0: 4137 16be 9a75 803d eeaf 12be dee7 db3d
000003d0: fcbf 82bd 33f2 be3d f98b a43c 5d65 d43b
000003e0: 0c37 d63d a7bc 383d 86a9 21bd 9fbe c33d
000003f0: 3b8d 27be 9d34 21bd 57b7 34bd dc77 5d3d
-0.11781111 -0.142661 0.18247749 -0.06963373 -0.08843869 -0.032139864 0.102365665 0.086385354
0.040460475 -0.17122376 -0.07781663 0.070314884 -0.009924199 0.013613378 -0.17462294 0.05416559
-0.08227184 0.049315706 0.08197159 0.05017122 0.09218099 -0.0516163 0.04189932 -0.12250621
0.00035629648 0.03589851 -0.02428975 -0.035267293 -0.10127957 -0.10796439 -0.028894 0.19161408
0.07086721 0.049295787 0.032212544 -0.021839626 -0.024552502 -0.0696145 0.08085275 -0.18439893
0.17725542 -0.13249275 0.072492264 -0.009134076 0.07822234 -0.21435572 0.067574136 0.025211373
0.016740076 -0.03364971 0.0126225585 -0.08678222 -0.09199048 -0.10644691 -0.013002189 -0.16952789
-0.021646913 -0.056135926 -0.076010846 -0.08277582 0.021799006 0.18109877 -0.1186333 0.077303275
-0.12813237 -0.0059965276 -0.21968882 -0.094950564 -0.08087004 0.2709698 -0.03444242 0.09501715
0.016644955 -0.018724043 -0.19418816 0.080418356 -0.12054419 0.06425043 -0.13827075 -0.15298203
0.0028486082 0.14607963 0.16896571 0.038787056 0.030680737 0.10022538 0.12105245 -0.12463132
0.09054995 0.010345608 -0.10244214 -0.024618305 -0.16629522 0.0991711 -0.07724116 -0.09339168
0.04366782 -0.042900044 0.0682958 0.09893983 0.10399982 -0.10857794 0.09070995 0.07563865
-0.0034413496 0.1506725 -0.073067605 -0.10022021 -0.1774405 0.008233591 -0.04374392 -0.029761113
-0.14409682 0.0017680253 -0.06857059 0.19082598 -0.14091207 -0.15120852 0.107389286 0.014670676
-0.13060486 -0.13002451 0.06031527 -0.16981815 -0.0350072 -0.07841225 -0.003662716 0.07600204
0.01285328 0.0020303421 0.097454995 -0.028322471 -0.031388983 -0.057640336 -0.060675837 -0.11589229
-0.049190026 -0.029636689 -0.053259596 -0.032651447 -0.02454686 -0.056406256 -0.05952205 -0.23811407
-0.20080273 0.05125495 0.0766189 -0.08001538 0.12169302 0.041609902 -0.022445096 -0.061836008
0.0022082406 -0.075345375 -0.14778067 -0.11540043 0.075601555 0.17651515 -0.02437493 -0.0884801
-0.0125110345 0.035053737 0.14124607 -0.03434872 -0.006066364 0.026341708 -0.12810236 0.029626876
-0.029568005 -0.13359447 -0.073736206 -0.02512183 -0.13029867 -0.0025939662 -0.13509336 -0.121132016
0.055172663 -0.018906819 0.11843045 -0.08767775 0.028463691 -0.07198646 -0.17980678 -0.19779737
-0.09937151 -0.08232259 -0.010295981 -0.039655115 -0.035944305 0.03736762 -0.04597853 0.034455758
0.09084244 0.17832382 -0.10552108 0.04186874 0.09604067 0.188371 0.021836286 -0.0652812
0.07219235 0.014819079 0.044440586 -0.08918563 0.07334017 0.036223236 0.0023863986 0.07228914
-0.060031816 0.0024625247 -0.02590896 0.06433549 -0.07454652 0.27704978 0.029873364 0.08331513
0.044449896 0.13960086 -0.15443161 -0.06728377 0.064705916 -0.11646936 -0.33410534 -0.10590102
0.02763901 0.069041125 -0.21585342 -0.13334619 0.027569987 -0.025101235 -0.13251497 -0.03926147
0.014014009 0.030735677 0.04484246 -0.16619985 -0.012692253 -0.105111435 -0.06799166 -0.035606906
-0.14669515 0.06272431 -0.14324924 0.107375845 -0.06384274 0.093235396 0.020086275 0.00648181
0.10459718 0.045101788 -0.03946831 0.095578425 -0.16362469 -0.039356817 -0.04412016 0.054069385

a2c_network.actor_mlp0.2.bias f4 [128]
00000000: 7313 30bd 1d0b 6a3e 8813 5bbe 1882 8fbe
00000010: 3068 78be c9b4 793c 276b 59bd b05a d6bd
00000020: c925 b53c 4335 1abe d31b 10be cc4b 073e
00000030: 6737 8dbd d43a 9bbd 0205 3bbc 92fc 8fbd
00000040: bbf9 713d ae13 0ebd ff7d e4b9 b3e5 053c
00000050: 80a9 453e a71d f0bd 2882 b13d 14ca 93bc
00000060: 1f5d 25be d1c2 22bd ad8d 2dbe 99a6 3dbe
00000070: 031d e43d e302 38be 9e01 593d fd21 04be
00000080: 62cf 44be 9fa9 183e 2eb7 7ebd 9e66 b13e
00000090: 8f16 47be 2a0c 58be aecf 193e 8f30 2a3d
000000a0: 037a 673e e7f5 5b3d fb3d 46bd 5069 d73d
000000b0: adcb 63bb 0017 b1bc e07f 213d 2011 aabd
000000c0: 7e44 c2bd 0a53 b2bd 19a9 ddbd 02ec 1ebe
000000d0: aba5 25be 80c1 febc a142 a63d 5202 333d
000000e0: 1fb0 fabd 68df 923c ce6b a8bc 475a 77bd
000000f0: d211 76bd 9ea8 25be 2a74 4ebe 7d39 b1bd
00000100: b3dd f9bd 833c 8abe aaf8 4dbe 2cf0 babd
00000110: 27d2 1cbe 1d83 98bb 1bbe aabe 26ae 183a
00000120: ea3b cfbd 69b7 ebbd 4f7a 123b 375a 03be
00000130: 4728 5dbe 2573 073e 90c3 cebd 2f44 81bb
00000140: ad35 6abd 0584 443e d747 27be f2e7 1a3e
00000150: 77f9 d4bd ace3 f9bd 5c6e 83bd 8576 50bd
00000160: a952 00bd d19f c0bd 0b0d 02be a9d6 b7bd
00000170: 69da 48be 6806 17be 2a30 09be 5d96 e43c
00000180: ff0e 39bd 6c37 72bc 8cc3 14be 1991 08be
00000190: e9cf 19be 3e74 02bc 3a7e 1ebe 50c8 28bd
000001a0: 69d1 a1bd c099 753e d716 b4bc e449 28bc
000001b0: 1eb5 e93d 269d 8cbe 4a2c cebd c643 7f3d
000001c0: d125 7bbd 6778 17be 93c4 023d f895 48bd
000001d0: ced2 09be ccc7 3cbe 8811 8cbd 0b51 0a3e
000001e0: b2fc a9bd 348a d2bb 6330 adbd 7d4d 8abe
000001f0: 8943 b9bd 2ba6 28be 988e adbd 0afd 343c
-0.0429873 0.22855802 -0.2139417 -0.2802894 -0.24258494 0.015240856 -0.053080704 -0.10466516
0.022112744 -0.1505938 -0.14073114 0.13212508 -0.06895333 -0.0757958 -0.011414768 -0.07030596
0.059076052 -0.034686737 -0.00043581423 0.00817244 0.1930294 -0.11724406 0.086674035 -0.018040694
-0.16148804 -0.039736573 -0.16948576 -0.18520583 0.11138346 -0.17969851 0.052980058 -0.1290359
-0.19219735 0.14908455 -0.062186413 0.34648603 -0.19442199 -0.2109839 0.1502063 0.041550215
0.22605138 0.053701308 -0.048398953 0.10518134 -0.0034758851 -0.021617413 0.03942859 -0.083040476
-0.0948572 -0.08707245 -0.108232684 -0.15519717 -0.16176479 -0.031098127 0.08118177 0.043703385
-0.12240624 0.017928794 -0.020559218 -0.06038883 -0.06007559 -0.16177604 -0.201615 -0.08653543
-0.12200489 -0.26999292 -0.20114389 -0.091278404 -0.15314542 -0.004654302 -0.33348164 0.000582429
-0.101188496 -0.11509592 0.0022350734 -0.12827383 -0.21597396 0.13227518 -0.10095894 -0.0039448957
-0.057180095 0.19190986 -0.16335998 0.15127543 -0.10399144 -0.12201628 -0.06417534 -0.05089428
-0.03132883 -0.094054826 -0.12700288 -0.0897649 -0.19614567 -0.14748538 -0.1339728 0.02790373
-0.045180317 -0.014783721 -0.1452772 -0.133366 -0.15020718 -0.007962285 -0.15477839 -0.041206658
-0.0790127 0.23984432 -0.021983547 -0.010271523 0.114114985 -0.27463645 -0.10067041 0.062320493
-0.06131536 -0.14792024 0.03192575 -0.048971146 -0.13459322 -0.18435591 -0.06839281 0.13507478
-0.08300151 -0.0064251665 -0.08456495 -0.27012244 -0.090460844 -0.16469638 -0.08474463 0.011046657

a2c_network.actor_mlp0.4.weight f4 [64, 128]
00000000: 3e50 623d 54b9 603c 535e ad3d 619d 4bbe
00000010: 230c 243e 86bd f0bd 1176 38be 375f 38be
00000020: 4633 7cbd d8fa 8b3d 6f08 373d ac2c d93d
00000030: b192 5dbd 5dc4 b3bd 9104 92bd f9d5 02be
00000040: df94 053e b614 233e 5ac3 3bbd aed8 7f3d
00000050: ce70 d1bd 3771 efbd 8402 7abd 10e0 07bd
00000060: d044 c13d 2b63 d7bd 6876 1d3e 3448 d9bd
00000070: f9a2 64be 5850 423d 48c2 97bd f2b3 93bc
00000080: 84be aebd 149c 7cbc 0c34 04bd d5d0 b5bc
00000090: 9150 09be 534f eebd ce8c 7ebe 0780 8fbd
000000a0: a9e0 eebc c6bb 8d3d 107d 28be 24a3 38be
000000b0: b477 713d 90da 47bd 151b 273d 5b16 3bbd
000000c0: 84ac 20bd 3f7f c13c 55fc 8e3d 008c ed3d
000000d0: 4d07 f33d 7782 a5be 2fa4 8b3d 2084 01be
000000e0: f9aa d6bd e651 98be 9b0f 91bd 6480 283d
000000f0: c217 94bd c026 30bd 36dd 60bd 9e1e 1abd
00000100: 2fa9 a6bd 45ca e1bd a13a 8f3d 4dba 08bd
00000110: 54ab c5bd 071a a13d 2aba 4d3e 4e63 d63c
00000120: 00b2 69bd 3341 8fbd 50da b4bd 7c54 e33c
00000130: 601e 44bc 1e88 83be 6742 53bb e19e 853d
00000140: f42c d13d afee 363d 5ea4 03be 9526 b23c
00000150: 41b9 9fbd 9152 2b3d 117d 9d3d 8c73 f4ba
00000160: c3be cebd 5294 60bc bfff 633d 466f aebc
00000170: 9608 05be aa21 cdbd 7590 373e 127e 1cbe
00000180: f206 83bc 6d9f 483d 2792 d4bc 7a56 933d
00000190: ca43 5fbe 6798 1c3d baac 8b3c 3b71 2ebc
000001a0: e0b4 253d 0a48 a5bd 4f47 21be 6cdc 2cbd
000001b0: b53c 08be e2e1 4bbc d9a6 713c e7c5 7f3d
000001c0: 2236 4bbe a91c bfbd 9b2a 21bd 6174 8a3b
000001d0: f665 4fbd 3d45 cb3d 4995 003d e43f af3b
000001e0: dc5f 73be 9d51 9e3d d4c3 25bd de3d fd3d
000001f0: fe05 23be 9d56 dd3d 5e4f 21be e5e9 8d3b
00000200: 15c5 083d a936 febd c000 2f3d dcfc 4a3d
00000210: a347 3b3d bc35 a1bb b6e9 093e 8279 3fbd
00000220: be32 e6bd 5055 1e3e a40a 3f3e 5ef0 fd3d
00000230: b5dd 023e 5796 223c 7cf4 5bbd 4eab 2cbd
00000240: a323 bfbc b6a1 813d f132 83bd 5610 573d
00000250: 6132 f5bc b4fa 2abe f34e ac3c 5ea5 ab3d
00000260: 8b9c 553b 8f63 40bd e922 833d 2e5e c23a
00000270: 575d 3e3d 3111 fa3d d6ea ffba a22a c43d
00000280: 44a4 043e 756b c8bd bcf2 80bd 7bae 03be
00000290: c72c 11be a91a 363e 8459 333e 7c48 653c
000002a0: e1ee 383e 4eef 793d a1cb 033d ec23 2d3d
000002b0: 7e3b d0bd 11d1 153d 3add db3c c553 123e
000002c0: 35f9 833d 7ac7 b53d a5e2 a2bc 7ce3 9a3d
000002d0: 1429 b6bc 4ccc 6f3d 65ad 993a 480d 5c3d
000002e0: 7152 e33d 4a2e d33c 1b70 afbd 5075 473d
000002f0: 78f2 b93d e2c8 2cbe c3f9 743d aabd 82bd
00000300: 0168 74be 9419 9e3d b652 0c3e ab2f 24bd
00000310: 5c1a 0d3e 4ffe 8bbc fc30 8f3d 3b05 bf3d
00000320: 015c e4bd bf78 d13d 8cc9 983d ef58 8d3c
00000330: 240d 0abc b3dd d7bd edea d1bc 99c3 0cbd
00000340: 2124 27bd 4d93 2bbd 2ba9 003d 87fa 633d
00000350: 2c97 02be b033 6bbd abcd 0dbe 0a30 24bd
00000360: d1b9 22bc f2d0 193d 7ab6 77bc 4082 91bd
00000370: 27dc a03d c15c 813c 57c7 1d3e c546 53bd
00000380: befe c139 bfdb 923d 4d48 08be 18b2 74bd
00000390: 3ff1 83bd 5073 01be 1c46 09bd 86fa 033e
000003a0: 3310 f73d 9847 dfbc 3e6e 43be 7b2b 14be
000003b0: 84c7 abbb 41bf 45bd 12fa 47bd 7336 b23d
000003c0: 1504 d3bd 2bba 2f3e 969e 17be 12db cdbc
000003d0: 3e82 9bbc 89a4 bebd cec8 2c3c 9769 82bc
000003e0: 36ec 083e f482 06ba 1b2a 2f3d b77e 79ba
000003f0: 8c17 1d3e c912 3d3e 94e2 553a 3e91 1a3e
0.055252306 0.013716061 0.084652565 -0.19884254 0.16020255 -0.11754899 -0.18013789 -0.18005072
-0.061572336 0.06834954 0.044685777 0.106042236 -0.054094974 -0.08777688 -0.07129777 -0.12776937
0.13045071 0.1592587 -0.0458406 0.0624625 -0.10226594 -0.11691516 -0.061037555 -0.033172667
0.09436953 -0.10516962 0.153772 -0.10609475 -0.22327794 0.047439903 -0.07410103 -0.01803014
-0.08532432 -0.015418071 -0.0322762 -0.022194305 -0.1340964 -0.11636224 -0.248584 -0.07006841
-0.02915986 0.069205806 -0.16453958 -0.18030983 0.05895205 -0.04879242 0.04079731 -0.045675617
-0.039227024 0.023620246 0.06981722 0.115989685 0.11866627 -0.323261 0.06818425 -0.12648058
-0.10481829 -0.29749984 -0.07083055 0.041138068 -0.07231094 -0.043005705 -0.054898463 -0.037626855
-0.08137738 -0.11024908 0.069936045 -0.033380795 -0.09651819 0.078662924 0.20090547 0.026170399
-0.05705452 -0.06994858 -0.08830702 0.027750246 -0.011970133 -0.25689787 -0.0032235624 0.06524444
0.10213652 0.04466122 -0.1285567 0.021746913 -0.07799006 0.04182679 0.0768987 -0.0018650158
-0.10094979 -0.013707237 0.05566382 -0.021293294 -0.12991557 -0.100161865 0.179262 -0.15282467
-0.015994523 0.048980165 -0.025948597 0.071942285 -0.21803203 0.03823128 0.017050136 -0.010647113
0.0404557 -0.08070381 -0.15749858 -0.0422024 -0.13304408 -0.012443991 0.014749252 0.062444594
-0.19844869 -0.09331638 -0.039347272 0.004225299 -0.050634347 0.099253155 0.03139237 0.0053481925
-0.23767036 0.0773041 -0.04046996 0.12365316 -0.15920255 0.10807536 -0.15752932 0.004330861
0.033391077 -0.12412769 0.042725325 0.04955755 0.045722615 -0.0049197357 0.1346806 -0.04674674
-0.11240147 0.15462232 0.18656403 0.12399362 0.12779887 0.009923539 -0.053699955 -0.042155556
-0.023332423 0.06329672 -0.06406201 0.052505814 -0.02993125 -0.16697198 0.02103374 0.08381151
0.0032594528 -0.046969946 0.06403143 0.0014829093 0.046475735 0.1221031 -0.0019524943 0.09578444
0.12953287 -0.09786121 -0.06296298 -0.12859528 -0.14177237 0.17783608 0.17514616 0.013994332
0.18059875 0.061019234 0.032176618 0.042270586 -0.10167597 0.036576334 0.026838887 0.14289768
0.06444017 0.08875938 -0.019883463 0.075629205 -0.022236384 0.058544442 0.0011724649 0.053723603
0.11099709 0.025778908 -0.08566304 0.048695862 0.0907945 -0.16873506 0.059808504 -0.06383832
-0.238678 0.077197224 0.13703427 -0.040084522 0.13779587 -0.017089037 0.06991765 0.093271695
-0.11150361 0.102281086 0.07460317 0.01725432 -0.0084259845 -0.10540333 -0.025624717 -0.034366224
-0.04080594 -0.041888524 0.03141133 0.055658843 -0.1275298 -0.05742234 -0.13847987 -0.040084876
-0.009931997 0.03755278 -0.015119189 -0.07104921 0.07854491 0.015791299 0.15408073 -0.051581163
0.00037001626 0.071708195 -0.1330883 -0.059740156 -0.064424984 -0.12641644 -0.033514127 0.12888536
0.12063637 -0.027255818 -0.19085023 -0.14469711 -0.00524229 -0.048278097 -0.04882247 0.087017916
-0.10303513 0.17160861 -0.1480659 -0.025128875 -0.018983003 -0.09308726 0.010545922 -0.01591949
0.13371357 -0.0005131208 0.042764764 -0.0009517478 0.15341014 0.18464197 0.0008159068 0.15094468

a2c_network.actor_mlp0.4.bias f4 [64]
00000000: 362c cbbc 9dd1 28be 0311 0fbe 9709 9ebd
00000010: c175 5fbd 0527 cb3c 3e46 4fbd 3767 3bbe
00000020: dc1d 3a3d 732a f4bd ab28 20be fbb5 cbba
00000030: fb16 f1bc 2a5c 713c 08a1 34bd 1d9e dcbd
00000040: cf17 56bc dab2 57be 9083 09be 8672 49be
00000050: 73ce b83d 3806 c3bc 1ba7 79bb 1594 96bc
00000060: 6c3c 01be 8a35 17be 1dc7 2bbc 1e61 54bd
00000070: 68a7 f23c e776 8bbe 103e f5bd 725d 12be
00000080: 0040 07be 28b6 1ebe 1a34 59bd bcfc 023d
00000090: 4a0d 093d b1aa 45bd aafe 0ebe f286 3abe
000000a0: 45af 383d b775 48be 0b69 06be 8424 41be
000000b0: 1d9c fdbc 7618 37bd 8657 a73d 60df efbd
000000c0: be39 843d 1cce 87bd c7c7 0abe 1505 93bd
000000d0: 3647 19bc e98e 85bd 2f45 983c 284b 62bd
000000e0: f826 3fbe f281 2a3d b1a6 cbbb 0cbb 92bd
000000f0: 6dd2 32be 3870 2fbb e6f0 55be 8cec f7bd
-0.024801355 -0.16486211 -0.13971333 -0.07716673 -0.05455566 0.02479888 -0.050604098 -0.18301092
0.045438632 -0.11922159 -0.15640514 -0.0015541905 -0.029429903 0.014731446 -0.044098884 -0.10772345
-0.0130672 -0.2106432 -0.13429093 -0.19672593 0.09023752 -0.023806676 -0.0038093987 -0.018381158
-0.12620705 -0.14766517 -0.010484484 -0.05185043 0.029620841 -0.27239153 -0.11974728 -0.14293459
-0.13208008 -0.15499175 -0.053028204 0.031979308 0.03345994 -0.048258487 -0.13964334 -0.1821554
0.045089025 -0.19576155 -0.13126008 -0.18861586 -0.03095823 -0.044701062 0.08170991 -0.11712527
0.06456326 -0.06631109 -0.13552772 -0.07178704 -0.009355357 -0.065213986 0.018587677 -0.055247456
-0.18667209 0.04162783 -0.0062149395 -0.071645826 -0.17463084 -0.0026769768 -0.20892677 -0.121056646

a2c_network.value0.weight f4 [1, 64]
00000000: e10b 89bc 3bb8 8fbd 2184 86bc e338 bf3c
00000010: b831 38bd 964d 523d 5015 bdbc a45e 16bc
00000020: 3904 6c3d 014b e0bd 9805 50bd 6356 7e3c
00000030: 7f57 b63d a3af 32bd 2ef7 353c 76c6 27bd
00000040: 7856 6d3d 8450 29be 096c bfbd 0fed 2bbe
00000050: 7ca5 8b3c bdf3 293d 8103 d43c 5eee 183d
00000060: 04e2 69bd b9ee c2bc d5c3 113d fa65 f43d
00000070: 4145 4d3d d94f 6dbd 17ef dbbd 2387 023c
00000080: c610 9bbc 1b44 abb9 a1de 643e 10e1 0b3e
00000090: a31e b03e e7b3 84bc 2c36 3ebc 535a c3bd
000000a0: e68b de3d c3ac 65be f8e2 18be 8815 7bbc
000000b0: de67 893d a423 383e 0def ed3c bf45 64bb
000000c0: d492 d13d 2b97 543d fa38 9fbc f01f 63bc
000000d0: 9c75 e03c 14f9 1abe 0b9b 20bd e2f2 95bd
000000e0: 090e 84bc df4d 9d3d 71d4 e03d 65c0 e83d
000000f0: 1a5a 91bc 2872 1a3e 6761 7ebd 2bdf 233c
-0.016729297 -0.07017561 -0.016420426 0.023342555 -0.04496929 0.051343523 -0.023081452 -0.0091778375
0.057621215 -0.10951806 -0.050786585 0.015523526 0.08903407 -0.04362453 0.0111062955 -0.04096075
0.05794379 -0.1653462 -0.09346778 -0.1678965 0.017046683 0.041492213 0.025880577 0.0373367
-0.05710031 -0.023795472 0.03558715 0.11933513 0.050114874 -0.057937477 -0.10738962 0.007966789
-0.018928897 -0.00032666404 0.22350551 0.13660073 0.34398374 -0.016199065 -0.011609595 -0.09538712
0.10866527 -0.22429185 -0.14930332 -0.015324958 0.06709264 0.17982346 0.029044652 -0.003483161
0.10233083 0.051901978 -0.019436348 -0.013862595 0.02739983 -0.15134078 -0.03921036 -0.07321717
-0.016119974 0.07680868 0.1097802 0.11364821 -0.01774316 0.1508261 -0.06210461 0.010001938

a2c_network.mu0.weight f4 [12, 64]
00000000: 308e 0b3e e9c6 d53d f1ab 8f3c 41f0 89bc
00000010: 1353 a4bc 510f 82bd e6af dd3d 19fb 0dbe
00000020: 7f67 c33d 804b 37bd 44bd 433e b4b0 bebb
00000030: 105f 853c ebe8 23bd 9d88 17bc b213 ae3d
00000040: e73b 863d d361 933c 702c 0cbd 497a cd3d
00000050: 64f9 45bc 31bd 86bd 4f04 813d 499b 88bc
00000060: 923b efbd a839 49bc aa47 cabc ba6b 11bd
00000070: 1f90 8f3b f0ca 5e3d 0a2a 1a3d 9860 9abd
00000080: 36a8 f9bc 2fd5 843d 84f7 8f3c 26df 28bc
00000090: b3ad 90bd e9b6 27bd 46c7 a83d b8ca 31bd
000000a0: 60c4 9c3c 509e 303c c748 113e 8b08 55be
000000b0: 96dc 843d 599e 24bd a080 b33d d10c 52bd
000000c0: fc1c e5bc a34e 843d 16b3 78bc d20f 68bd
000000d0: 64e1 693d db8e 743d 325d 163c 7f05 2bbe
000000e0: f066 003d 10b3 8c3c 2ee4 b5bd d85d 0d3d
000000f0: 2491 6a3b fa81 d63d 1dda d8bd 4dc6 4b3d
00000100: f0e3 1cbd ed66 303d fb07 8e3d 658b a93d
00000110: ef99 553d 9a6a e83c efb3 c9bc 0576 203b
00000120: ecba a63d fe1d fdbc e390 99bd 4411 c4bb
00000130: 6e78 43bd cc76 0f3e 2b3a 16bd c89e ea3d
00000140: a77d f23d 688f 1dbe f808 013e f93c c7bd
00000150: b928 2b3d 0edf 05bd 0d0b 363d 71d1 a53d
00000160: 2a36 313c 55a8 2abe 6a5e 44bd 48aa a83b
00000170: 8a87 4bbc 0733 8a3d 8a04 7d3c 59b7 4fba
00000180: 0e8e 793e 9b9c 513b a9bc bc3d c772 63bd
00000190: 632c 46bc 2f5b 48be 5e92 0e3c c07e 6fbd
000001a0: 9900 9f3d 37b1 edbc eb4a b9bc cdc4 ba3b
000001b0: 76d8 8d3d 38eb 0a3e 3cbb e13c 31ce fcbd
000001c0: ce53 cc3b cd07 56be a0cc 91bc e90f 0bbe
000001d0: 89bd b53c 831b ea3c 873a ed3d 8804 99bd
000001e0: 84e8 bbbc 5db9 8a3b 3558 603d eb28 01be
000001f0: 916d 5a3d 11ec de3d c1dd 81be a4f0 abbd
00000200: dbda 903c 5e2c e83d 7f31 a53d 6ba0 c0bc
00000210: 4bba 99bc 7880 663c d4bd e33c 03c4 31bd
00000220: 4c43 bcbd 8e1f b4bb d1b6 46bd 1b4e 47bc
00000230: 3ce8 3b3d be3a 58bc 8cd6 51bc 4294 523d
00000240: b05c 7e3d 6117 123e 66b5 88bd 1253 2d3d
00000250: 8a3a c1bc 370e a03d 2d9a c73d d23e f73a
00000260: 6dc0 603d 3532 353a 5e3e 173d 3d6b d9bb
00000270: f63e 5fbc efca af3d 0924 39bb 2d1f 29bd
00000280: fc57 c43b d279 0c3e c3df 803d 28cf 75bd
00000290: 9974 febc 5e2f 31bd e92a ba3d ade4 abbc
000002a0: 3a40 273b 2565 acbd 63dd 0bbd e0ee 523d
000002b0: 90a0 bd3b 3e4d 2e3d 6641 b1b8 8382 133d
000002c0: b913 8bbc 0cbc 433a a2d5 2ebc 2f7a d0bd
000002d0: bd55 4d3c 5057 393c 941b 52bd 4bfd 883c
000002e0: 6585 ae3d 956c 52bc f372 60bd a41d 943d
000002f0: 9387 cf3d 369d e7bc 07bf 80bd 2713 453d
00000300: dd88 183e f6e8 5b3d 478d 033e 6daa e83c
00000310: 98ab 393d 6e71 cbbd 4134 003c e794 14be
00000320: 0d9d d53b ba10 09bd 689b ff3d 87e3 f33d
00000330: 27fa 0a3e a581 003e 223a 103e c871 44bc
00000340: ddf9 9abd 6905 773d dab1 af3d c3bc cebd
00000350: fff0 633e f931 1bbd a41b f93c a525 07bd
00000360: 9c7a 0d3e 3b27 1cbe 442d 033e 2b96 953d
00000370: 78d7 c5bd 58df e23d fcb3 c73c 9e8b e73d
00000380: d81a 27bc 837c adbd 9aec 2f3d 1374 8dbb
00000390: 5cf5 c8bd 60db 133e 5147 ca3d 333a bc3d
000003a0: 4dc8 873d 6de8 5b3d 06f5 a53d eb9d 9e3d
000003b0: 1915 2abd 6746 bdbc 624d 343d 1aec 3b3d
000003c0: 68a4 9abd a72b 413d 405d 98bd 21d9 51bd
000003d0: 5c3c acbd d7a8 af3c d13c 14be eae0 3a3c
000003e0: e428 d6bd dd67 c63d 4611 cabd 7ba9 23be
000003f0: 18db adbd 91d6 213d 4480 0cbd 19ef 503d
0.13628459 0.1043833 0.017538043 -0.016838195 -0.020059144 -0.063505776 0.108245656 -0.13865317
0.09541225 -0.044749737 0.19115168 -0.0058194045 0.01628068 -0.04001705 -0.00924888 0.0849985
0.06554394 0.017990982 -0.034222066 0.1003309 -0.012083385 -0.06579054 0.0629965 -0.016675608
-0.11681284 -0.012281813 -0.024692375 -0.035503127 0.0043811942 0.054392755 0.037637748 -0.07537955
-0.030475717 0.06485974 0.01757408 -0.010307109 -0.070643805 -0.04094592 0.082411334 -0.04340622
0.019136608 0.010779932 0.14187919 -0.2080404 0.06487386 -0.040190075 0.08764768 -0.051281754
-0.027967922 0.06460311 -0.015179416 -0.056655712 0.057099715 0.05970655 0.009177493 -0.16701315
0.03134817 0.017175227 -0.088814124 0.034513324 0.0035792077 0.1047401 -0.10588477 0.04974966
-0.038303316 0.043066908 0.06935116 0.082785405 0.052148756 0.028371144 -0.024621932 0.0024484408
0.08141121 -0.03089809 -0.07498338 -0.0059835035 -0.047722273 0.14010161 -0.036676567 0.11456066
0.118403725 -0.15386736 0.12601078 -0.097284265 0.041786883 -0.032683425 0.044444133 0.080965884
0.010816136 -0.16665776 -0.047941603 0.005147252 -0.012422452 0.06748014 0.015442977 -0.0007923744
0.24370596 0.0031984213 0.092156716 -0.055529382 -0.012095544 -0.19566034 0.008701889 -0.058470488
0.07763786 -0.029015167 -0.022618731 0.00569973 0.06926052 0.13566291 0.0275551 -0.123440154
0.0062355762 -0.20901413 -0.017797768 -0.13580288 0.022185104 0.028577572 0.11583429 -0.074715674
-0.02293802 0.004233523 0.05477162 -0.12613265 0.053327147 0.1088487 -0.25364497 -0.08395508
0.017682483 0.11336587 0.08066081 -0.023513993 -0.01876559 0.014068715 0.027800478 -0.043399822
-0.09192523 -0.0054969257 -0.04851419 -0.012164618 0.045875773 -0.013197599 -0.0128075 0.05141092
0.062100112 0.14266731 -0.06675224 0.04231555 -0.023587484 0.07815211 0.097462036 0.0018863326
0.05487101 0.00069120835 0.036924712 -0.0066350983 -0.013625851 0.085836284 -0.0028250238 -0.041289497
0.005991934 0.13718346 0.06292679 -0.060012013 -0.031061457 -0.043258063 0.09090216 -0.020983065
0.002552046 -0.08417729 -0.034146678 0.05149734 0.005786963 0.042554133 -8.452199e-05 0.036013138
-0.016977178 0.0007466681 -0.010671051 -0.10179555 0.012532649 0.011312321 -0.05129583 0.016722342
0.08521537 -0.012843271 -0.054797124 0.07232216 0.101332806 -0.028273206 -0.062864356 0.04811397
0.14895959 0.053688966 0.12846862 0.028401578 0.04532966 -0.09933744 0.007824958 -0.14509927
0.006518966 -0.033463217 0.12480813 0.11908632 0.13571988 0.12549455 0.14084676 -0.011990018
-0.07567189 0.060307894 0.08578844 -0.10094597 0.22259901 -0.037889455 0.030408688 -0.032994885
0.13816303 -0.1524934 0.12810236 0.07304033 -0.09660238 0.11077756 0.024377815 0.11305927
-0.010199271 -0.08471014 0.04295025 -0.0043168156 -0.098124236 0.14439154 0.09876884 0.09190788
0.06630001 0.053688455 0.08103375 0.07744964 -0.041524027 -0.02310486 0.04401911 0.04587946
-0.07550889 0.04716077 -0.07439661 -0.05123246 -0.0840995 0.021442814 -0.14476325 0.011406163
-0.10457018 0.09687779 -0.09866576 -0.1598262 -0.084890544 0.039511267 -0.03430201 0.05100927

a2c_network.mu0.bias f4 [12]
00000000: 68e3 023d 22db c73b 9590 96bd e1e0 8dbb
00000010: eb6b e3bc d699 5dbd 732b afbc c020 66bd
00000020: b6b3 963c 0459 0b3c 9a5b 00bd 34e2 34bc
0.031955153 0.0060991207 -0.073517956 -0.004329786 -0.02776142 -0.054101788 -0.021383023 -0.056183577
0.01839624 0.00850511 -0.031337358 -0.011040259

a2c_network.adapt_weight0.weight f4 [1, 12]
00000000: 2648 87be 7e82 323e 37a5 b2bc b346 a6bd
00000010: 9311 fc3d 878a fabd a98c 69bb 2238 8e3e
00000020: f5be fc3d 9279 75be 98d4 7f3c 8bc0 fabc
-0.26422232 0.17432591 -0.021807296 -0.081189536 0.123080395 -0.12233453 -0.0035636819 0.277772
0.1234111 -0.23972157 0.015614651 -0.03060939

exp_avg f4 [12]
00000000: 679a 7f3a 597b 4cbb 81ae 213d 507f b2bb
00000010: b4e9 9f3c eed5 6fbc c7b8 363b 2644 9abc
00000020: caa1 15bb 2e40 b5bc 79cb e93b 6b49 853a
0.0009750486 -0.003120145 0.03947306 -0.0054473057 0.019520618 -0.014638407 0.0027881132 -0.018831324
-0.002283203 -0.02212533 0.0071348515 0.0010168975

exp_avg_sq f4 [12]
00000000: 06b7 c03b 404b d43b b0b8 e53b dc07 f83b
00000010: eab1 ed3b 099a 003c d0d0 c93b 9b40 ef3b
00000020: e683 f03b 4449 f63b 355b 013c 9298 d93b
0.005881193 0.006478697 0.007010542 0.0075692963 0.007253875 0.007849225 0.0061589256 0.0073014027
0.0073399423 0.007516058 0.007895281 0.0066405023

exp_avg f4 [256, 41]
00000000: 1121 8b3b 2379 1abb cb62 68b9 7e08 cc3a
00000010: 5eb7 eb39 3f6f 08bb 63b6 8a3a 193c 9eba
00000020: 6b7d 1dba c5ca 9ab9 43a7 a2b9 2ca9 85bb
00000030: 0887 133a eea0 283b 0e01 a4ba 0090 9835
00000040: 0000 0000 0000 0000 0000 0000 544d 0436
00000050: 9fde a23b 7709 10bb 3e12 e1b8 3178 fab9
00000060: e752 46ba 421f 5b3a a14b c03a 0000 0000
00000070: 0000 0000 0000 0000 0000 0000 0000 0000
00000080: 0000 0000 0000 0000 0000 0000 0000 0000
00000090: 0000 0000 0000 0000 0000 0000 0000 0000
000000a0: 0000 0000 577a ebb8 b18b 5938 dc60 fdb9
000000b0: 53f7 b13a fadd ecb9 c4de 5cb8 097c dc3a
000000c0: 9100 a43b 9580 1b3b 6d28 6b3b 331e 733b
000000d0: b1c7 f63a e538 0339 852c 063b 6d78 b138
000000e0: 8765 0eb6 0000 0000 0000 0000 0000 0000
000000f0: ae99 76b6 b76b c039 23fd 313a 1b7d f13a
00000100: b8df 8e38 d4fc 603a 96a6 c13a 1d83 a3ba
00000110: 0000 0000 0000 0000 0000 0000 0000 0000
00000120: 0000 0000 0000 0000 0000 0000 0000 0000
00000130: 0000 0000 0000 0000 0000 0000 0000 0000
00000140: 0000 0000 0000 0000 afbc a8ba e702 7aba
00000150: 8542 a23a 5b36 58bb d310 e539 5680 173a
00000160: c812 5bbb ebde ad3a af19 0a3b dd24 19bb
00000170: 9ecb 9d3a 6549 d539 1bf3 4439 f246 b53b
00000180: 5e10 3bba 1b66 41b6 0000 0000 0000 0000
00000190: 0000 0000 6e59 a7b6 8180 e2ba 9361 cbba
000001a0: 9a26 2eb9 09b8 04ba b4d1 02b9 b565 00ba
000001b0: 8def 2bba 0000 0000 0000 0000 0000 0000
000001c0: 0000 0000 0000 0000 0000 0000 0000 0000
000001d0: 0000 0000 0000 0000 0000 0000 0000 0000
000001e0: 0000 0000 0000 0000 0000 0000 f5af 203b
000001f0: 9bb4 35bb 365b 9eba 0d58 763b 17e7 8039
00000200: 16de cdbb 6c25 173b 4c6e 0cbc 9026 e6bb
00000210: e692 02bc 79c7 63bb dee6 55bb f31d 3fba
00000220: 9eb3 3b3b 812d c33a 38b0 a936 0000 0000
00000230: 0000 0000 0000 0000 0bd5 1237 a52c 4c3b
00000240: 58b2 34bb 7a17 41bb 7995 7dba 81e0 f4b9
00000250: 9f58 453b 3011 803b 0000 0000 0000 0000
00000260: 0000 0000 0000 0000 0000 0000 0000 0000
00000270: 0000 0000 0000 0000 0000 0000 0000 0000
00000280: 0000 0000 0000 0000 0000 0000 0000 0000
00000290: 4653 823b 84ff 39ba f3bc 333b 4c9c e53a
000002a0: c80c d0ba 5023 78bb b06d 4fb8 62cf 85bb
000002b0: fb8f fabb e03b d2bb fa90 14bb b4ac 03ba
000002c0: b467 f93a c67e 903b 6c81 a43b 19f0 59b4
000002d0: 0000 0000 0000 0000 0000 0000 c2ff bdb4
000002e0: 660f 303b bbd8 26bb 3798 34bb d129 d938
000002f0: dc5e 1bba 785f 313b 4946 4a3b 0000 0000
00000300: 0000 0000 0000 0000 0000 0000 0000 0000
00000310: 0000 0000 0000 0000 0000 0000 0000 0000
00000320: 0000 0000 0000 0000 0000 0000 0000 0000
00000330: 0000 0000 1ccd 293b 03b7 40bb e382 d9bb
00000340: df67 053c bcf9 b5ba 9558 52bb 3d49 fb3b
00000350: 98c9 203b 7228 b13b 3b88 be3b c530 4dbb
00000360: 4a0d a8ba a13e 5cbb 402e f5bb 16bf 33bb
00000370: f23c 0c37 0000 0000 0000 0000 0000 0000
00000380: 7fd0 7237 7475 b73b a00e 9eba d20c 27ba
00000390: b3bd e1b9 eb2c 26ba 94f9 183b 8d05 ab3a
000003a0: 0000 0000 0000 0000 0000 0000 0000 0000
000003b0: 0000 0000 0000 0000 0000 0000 0000 0000
000003c0: 0000 0000 0000 0000 0000 0000 0000 0000
000003d0: 0000 0000 0000 0000 9a2a aabb 69f3 54bb
000003e0: 2dae dfba a6b4 03bc 76a3 d33a be76 e03a
000003f0: f84d f7ba d9e2 8cbb 7335 bb3b 5ce3 7d3a
0.004245885 -0.0023570738 -0.00022162047 0.0015566496 0.00044959312 -0.002081826 0.001058292 -0.0012072354
-0.00060077634 -0.00029524244 -0.00031023668 -0.0040790047 0.0005627726 0.0025730687 -0.0012512521 1.1366792e-06
0.0 0.0 0.0 1.9714544e-06 0.004970386 -0.0021978298 -0.00010732234 -0.00047773265
-0.0007565454 0.0008358845 0.0014670977 0.0 0.0 0.0 0.0 0.0
0.0 0.0 0.0 0.0 0.0 0.0 0.0 0.0
0.0 -0.00011228461 5.186693e-05 -0.00048328086 0.0013577737 -0.00045178813 -5.2659554e-05 0.0016821633
0.0050049503 0.0023727764 0.003588225 0.0037096858 0.0018827823 0.00012514328 0.0020473313 8.462449e-05
-2.1218746e-06 0.0 0.0 0.0 -3.674631e-06 0.00036701348 0.00067897345 0.0018424125
6.8127585e-05 0.0008582596 0.0014774378 -0.0012474988 0.0 0.0 0.0 0.0
0.0 0.0 0.0 0.0 0.0 0.0 0.0 0.0
0.0 0.0 -0.0012873615 -0.00095371756 0.0012379444 -0.0032991383 0.0004369082 0.00057793164
-0.0033427943 0.0013265287 0.0021072438 -0.002336792 0.0012038832 0.0004068121 0.0001878258 0.005532139
-0.0007135923 -2.8818674e-06 0.0 0.0 0.0 -4.987399e-06 -0.0017280729 -0.001551675
-0.00016608313 -0.0005062824 -0.00012475887 -0.0004897968 -0.0006558828 0.0 0.0 0.0
0.0 0.0 0.0 0.0 0.0 0.0 0.0 0.0
0.0 0.0 0.0 0.002451894 -0.0027726057 -0.0012081626 0.0037589103 0.00024586238
-0.006282578 0.0023063077 -0.008571219 -0.00702364 -0.007969594 -0.0034756346 -0.0032638828 -0.00072905346
0.0028640996 0.001489088 5.057107e-06 0.0 0.0 0.0 8.751881e-06 0.003115454
-0.0027572121 -0.0029463456 -0.0009673457 -0.00046706575 0.0030112637 0.003908299 0.0 0.0
0.0 0.0 0.0 0.0 0.0 0.0 0.0 0.0
0.0 0.0 0.0 0.0 0.003977212 -0.0007095265 0.0027425855 0.0017517894
-0.001587295 -0.0037862845 -4.94548e-05 -0.00408356 -0.0076465583 -0.006415829 -0.002266942 -0.0005022988
0.0019028098 0.004409644 0.005020311 -2.0297047e-07 0.0 0.0 0.0 -3.5390082e-07
0.0026864647 -0.0025458771 -0.0027556547 0.00010355155 -0.0005926916 0.002706496 0.0030864647 0.0
0.0 0.0 0.0 0.0 0.0 0.0 0.0 0.0
0.0 0.0 0.0 0.0 0.0 0.0025909608 -0.0029405958 -0.0066379174
0.008142441 -0.0013883631 -0.0032096256 0.007668643 0.0024534222 0.005406433 0.00581458 -0.0031309586
-0.0012821343 -0.0033606666 -0.00748232 -0.0027427129 8.35884e-06 0.0 0.0 0.0
1.4472868e-05 0.0055987183 -0.0012058802 -0.0006372455 -0.0004305668 -0.0006339091 0.002334212 0.0013047919
0.0 0.0 0.0 0.0 0.0 0.0 0.0 0.0
0.0 0.0 0.0 0.0 0.0 0.0 -0.005193067 -0.0032493717
-0.0017065458 -0.008038675 0.0016146738 0.0017125232 -0.0018867841 -0.0042995033 0.0057131588 0.0009685063
