isaacgymenvs/isaacgymenvs/checkpoints/last_FactoryTaskNutBoltPickPlaceGPT_ep_1024.pth (torch, 652698 bytes, 37 tensors)

value_mean_std.running_mean f8 [1]
00000000: b8ff 34f9 42b9 4340
39.447356367948885

value_mean_std.running_var f8 [1]
00000000: cb28 2b8d 8e16 8140
546.8196051952194

value_mean_std.count f8 []
00000000: 0000 0008 0000 8941
52428801.0

running_mean_std.running_mean f8 [41]
00000000: e1a9 1667 a065 8a3f 0546 9ac3 6203 c4bf
00000010: e5d7 b597 5eca dc3f 5f4a c93d ba78 83bf
00000020: 5f58 f273 158d ef3f 432f a57a cae3 483f
00000030: d824 4149 cc49 833f 83be 1578 4ded a1bf
00000040: a113 eabb 4e97 963f 6b2e f899 5006 acbf
00000050: 30cb 19b3 aae4 8d3f 1026 fb61 4764 97bf
00000060: aa0f 92e4 9baf 76bf ab65 280e 81ef 243f
00000070: 52a2 21ef f233 0d3f 76a7 6255 daa5 db3f
00000080: 0000 0000 0000 0000 0000 0000 0000 0000
00000090: 0000 0000 0000 0000 b981 14ae f5ff ef3f
000000a0: 8ba0 a7ec 1634 71bf a097 0028 2b70 c5bf
000000b0: 3536 95ba 9bae d93f dd4e 994e 6212 783f
000000c0: 8698 4838 07b4 8b3f 3f23 a1e8 95f3 7a3f
000000d0: 5be2 df55 32b4 ed3f 0000 0000 0000 0000
000000e0: 0000 0000 0000 0000 0000 0000 0000 0000
000000f0: 0000 0000 0000 0000 0000 0000 0000 0000
00000100: 0000 0000 0000 0000 0000 0000 0000 0000
00000110: 0000 0000 0000 0000 0000 0000 0000 0000
00000120: 0000 0000 0000 0000 0000 0000 0000 0000
00000130: 0000 0000 0000 0000 0000 0000 0000 0000
00000140: 0000 0000 0000 0000
0.01288914980508066 -0.1563533263293239 0.4498516542001865 -0.009507613192146267 0.9859721436103078 0.000759576670398478 0.009418102250622715 -0.03501360026245683
0.02206156751573796 -0.05473567847738255 0.014596303549500783 -0.02284347091225497 -0.005538567501506645 0.0001597256696903975 5.5700160275066885e-05 0.43199785555281467
0.0 0.0 0.0 0.9999950790407218 -0.004200067089620184 -0.16748561337697954 0.4012822458360888 0.005876907359908504
0.01352697029603812 0.006579957562345139 0.9282466580617198 0.0 0.0 0.0 0.0 0.0
0.0 0.0 0.0 0.0 0.0 0.0 0.0 0.0
0.0

running_mean_std.running_var f8 [41]
00000000: 0ee2 609a 6d08 723f 2ffd 8a72 ca72 943f
00000010: 0aaa ca37 2413 6d3f 8bc8 ebed 84ae 933f
00000020: f3e1 196d 4ef3 423f 76b1 8663 3c61 6b3f
00000030: ff19 4f41 81bc 723f 3de0 123c 5db6 8a3f
00000040: bc5b f80b 10c0 a83f 8b79 745a bfe8 963f
00000050: 8955 a6ec 06b6 af3f 4fe1 ffc9 34ce a63f
00000060: f802 d977 0d43 b83f 3d5b 806c 3e4a 6b3f
00000070: f08f b3f5 5644 6b3f a5f5 7524 ce13 b03e
00000080: fca2 923a e17a 643e fca2 923a e17a 643e
00000090: fca2 923a e17a 643e d927 2f0d fbd6 d43e
000000a0: 9255 7eb6 a57c 6b3f c2dc 0c59 ce13 963f
000000b0: b567 18f9 2571 493f 3dc0 1dbb 2618 8a3f
000000c0: ff19 dac3 0f6e 913f 44d2 3fc9 e92f b13f
000000d0: 1ae8 a29a 7334 a53f fca2 923a e17a 643e
000000e0: fca2 923a e17a 643e fca2 923a e17a 643e
000000f0: fca2 923a e17a 643e fca2 923a e17a 643e
00000100: fca2 923a e17a 643e fca2 923a e17a 643e
00000110: fca2 923a e17a 643e fca2 923a e17a 643e
00000120: fca2 923a e17a 643e fca2 923a e17a 643e
00000130: fca2 923a e17a 643e fca2 923a e17a 643e
00000140: fca2 923a e17a 643e
0.00440256894767589 0.01996914219011819 0.003549166429668964 0.019220425626322906 0.0005783207836450019 0.003342264124702672 0.004574303534303769 0.013043144603543161
0.04834032198066704 0.022372236152585805 0.06193563116827778 0.04454197851004215 0.09477314163178707 0.003331300660657814 0.003328485339453728 9.582855840789488e-07
3.8146971201058415e-08 3.8146971201058415e-08 3.8146971201058415e-08 4.968587933038318e-06 0.003355334909381732 0.021559929070659185 0.0007764277854136389 0.012741377435048768
0.017021414116721086 0.06713734782517472 0.04141579878474051 3.8146971201058415e-08 3.8146971201058415e-08 3.8146971201058415e-08 3.8146971201058415e-08 3.8146971201058415e-08
3.8146971201058415e-08 3.8146971201058415e-08 3.8146971201058415e-08 3.8146971201058415e-08 3.8146971201058415e-08 3.8146971201058415e-08 3.8146971201058415e-08 3.8146971201058415e-08
3.8146971201058415e-08

running_mean_std.count f8 []
00000000: 0000 0010 0000 7941
26214401.0

a2c_network.sigma0 f4 [12]
00000000: f19d a3bf 7fec a2bf 53e4 01c0 1671 c0be
00000010: 68f6 0fbf 2e14 8dbe 8aa3 20bd 5666 72be
00000020: 3d04 ad3c 04a3 3cbe 8739 4cbe 25e7 6cbe
-1.2782575 -1.2728423 -2.0295608 -0.37586278 -0.5623536 -0.27554458 -0.039218463 -0.2367185
0.021120185 -0.1842156 -0.1994382 -0.2313505

a2c_network.actor_mlp0.0.weight f4 [256, 41]
00000000: 3d2d c13d b1da 8e3e 1210 4c3e 7997 26bd
00000010: d890 083e bcac 6abc eb1c a03d 6c5a 7d3b
00000020: 4575 37be de63 17bd 4f06 19be 7398 1f3e
00000030: f8d9 663d af9b 673d 80ed 453c 04bb 093e
00000040: fd4f fa3d e040 e3bd c61b 213c 10cd fd3c
00000050: 2ee6 273d f569 1bbe 4c60 f83c b13f 9fbd
00000060: b793 d83d c358 09be 37c4 1abe 09c4 bebd
00000070: 34d7 0f3e 392d 553d 8fe2 193e d3fa 03be
00000080: 6d9f 1ebe f83b fabd ce27 d7bd b38c 813d
00000090: 860e 653d 0fe2 043e ed2c a5bd 950a dabd
000000a0: c1b3 a93d 13d7 d73c 6b95 873e d4c0 3abe
000000b0: e6a0 fa3d b0aa ecbd 8466 42bd ac0b b63d
000000c0: 14f1 233b b10c 29bd 6d6b 223d 2a23 533d
000000d0: 9473 4bbe f1d0 b5bd f403 313e 017c bdbd
000000e0: 793a b3bd 57bd 1abe 412a b7bd ddcb 1f3d
000000f0: be58 5bbd 0773 50be 8a3d 9dbc 1aba f2bd
00000100: 0da3 f3bd 2bb5 303d ff4a 5bbe 09be febd
00000110: 01dc 1f3e 5aa4 f13c 4120 453d 1c28 15be
00000120: a910 d2bd 7dec 54bd b00e c83c feb7 0cbe
00000130: e6cf 89bd 007b bfbd 25e9 e239 a507 6ebd
00000140: 844f 31bc 57bc d8bd 442e 79bd 94b4 83be
00000150: 9958 49be efeb f1bd f344 0c3e 746c 153c
00000160: 4496 0e3d 38a6 023d 2fb7 26be ac6f f43d
00000170: cca8 27bd 9c8c 1dbd 1c32 22be 2364 8ebd
00000180: ceb9 673d ff92 d2bc 940b 793d f93d 03be
00000190: 1f76 ed3d 135f d8bd 6f17 a13d bf70 ac3d
000001a0: 6c0e 233d 21e1 0f3e a106 8e3e 51a6 8bbd
000001b0: b830 59bd ba92 89bd 3b33 8cbc 6466 efbd
000001c0: 91aa 113e e4bf eabd e2f0 aa3d c5cf 603d
000001d0: cede 4f3d 21ec acbd 7d5c 113e 5792 0c3d
000001e0: 3594 a43c 96ee 0cbe 4b44 863d 3fcf cdbd
000001f0: 4526 88bd fd2c c93e 0b72 5b3c ec94 d63b
00000200: d388 38be 8d34 c03c fa51 7c3d 3633 c9bd
00000210: d664 32be 680d 2ebd ed27 04be 36a8 db3d
00000220: 99d5 983d 93c2 e3bd 4408 973d 8d3a a53d
00000230: 05fd e73c fece 63bd 3a68 f33d ecc0 083e
00000240: da87 2d3e 79a7 bfbd 4bee 93bd 4a8e 0f3d
00000250: 914d 4dbd 995a acbc 4872 cc3d d56f 093e
00000260: 404f 7dbc 5d39 0fbd 265a 153b 4dc7 18bc
00000270: c4c9 193d 1343 333d 0c40 11be a511 6cbd
00000280: cbac 063e 8c31 793d 3988 febb f1d5 c0bd
00000290: d3b1 64be 3106 77be 4ba4 2dbd 7790 693d
000002a0: 0f5f 213e ee72 f53d a81b eebd 7ebe 98bd
000002b0: a096 06bd 596d 273e c353 083d a7ec 41bd
000002c0: d11b 3e3d 96e9 67bd 5b52 e4bd b4a8 c23d
000002d0: ff6e 91bd 733c 00bd 4d17 1fbe a785 af3d
000002e0: 4ca0 5f3e 138c 0d3e 23a5 44be 8a69 f1bd
000002f0: a3c3 ebbd 214f f93d e88b 203e 3593 063e
00000300: 7b8e a73d 64e6 213d d374 c8ba 423e f3bd
00000310: 4404 09be 3095 15be 92ee 823d 7908 9dbd
00000320: 23bd 00bd 6312 b8bd e221 e9bc 061e e1bd
00000330: b2fd d0bd 5f3c 1c3e 1c72 03bd 4143 343e
00000340: 4148 4cbc 6e1e 1dbe 8ddd f8bc 877e d13b
00000350: 2a04 20bd 3cce 0dbe 433d 133e 1bac 99bd
00000360: f421 093d 53be fd3c 0754 af3d 4036 6cbd
00000370: 15c0 503e eb34 97bd 505e 6d3d 5f2f 163e
00000380: 8060 8f3d 7667 11be bd6f 9e3d d092 6abe
00000390: d631 983e f10b d9be 200d eb3c 38ae bd3d
000003a0: 3c3d 173e a6e3 16bd 0866 03be 38d2 0f3d
000003b0: c4b0 b03d f52b 1fbe dc32 11bd 6fbb bfbd
000003c0: 45cc 5fbc 756e 9dbd e7bd 82bd 1613 4bbd
000003d0: 76f9 17be 9737 033e 22ca 5d3e 3961 5bbe
000003e0: bf53 06be d9d3 8cbd 72ae 1b3b dcc6 7fbe
000003f0: 5672 083e 07ef 90bd 1add 6abd 7d4e 403d
0.09432457 0.27901223 0.19928005 -0.0406718 0.13336504 -0.01432341 0.07818016 0.0038658632
-0.17915829 -0.036960475 -0.14943813 0.15585499 0.056360215 0.056544956 0.01208055 0.13450247
0.12222288 -0.11096358 0.009833282 0.03098157 0.040991 -0.15177138 0.030319355 -0.0777582
0.10575049 -0.13412766 -0.15113913 -0.093147345 0.14046937 0.05204508 0.15027831 -0.1288865
-0.15490504 -0.122184694 -0.10505639 0.06325664 0.055922054 0.1297686 -0.080652095 -0.106465496
0.082862385 0.026347673 0.26481184 -0.1823762 0.1223772 -0.115559936 -0.047461048 0.08888945
0.002501552 -0.04127187 0.03965323 0.051547207 -0.19868308 -0.08877743 0.17286664 -0.092521675
-0.08751387 -0.1511129 -0.08943606 0.03901278 -0.053551428 -0.2035638 -0.019194383 -0.11851902
-0.11896334 0.043141525 -0.21415327 -0.1243859 0.15611269 0.029497314 0.048126463 -0.14566082
-0.10257084 -0.051983345 0.024421066 -0.13742062 -0.067291066 -0.09349632 0.00043279785 -0.05811276
-0.010822181 -0.10582798 -0.060835138 -0.25723708 -0.19662704 -0.11812579 0.13698177 0.0091200955
0.034811273 0.0318968 -0.16280816 0.11935362 -0.04093246 -0.038464174 -0.15839428 -0.06952693
0.05657368 -0.025704859 0.060802057 -0.1281661 0.115947954 -0.10565009 0.07865798 0.08419942
0.039808676 0.14050724 0.27739432 -0.06818832 -0.053024977 -0.06717439 -0.017114272 -0.11689451
0.14225222 -0.114623815 0.08346726 0.054885644 0.050749592 -0.084434755 0.14195438 0.034319248
0.020090202 -0.13762888 0.065559946 -0.10049295 -0.06647924 0.39292136 0.013393889 0.0065485146
-0.18020944 0.023462558 0.061601616 -0.09824221 -0.17421278 -0.042493254 -0.12905855 0.10725443
0.074626155 -0.111210965 0.073746234 0.08067808 0.028318891 -0.055617325 0.11885114 0.13354844
0.16946355 -0.09358115 -0.07223185 0.035047807 -0.0501228 -0.021039294 0.09982735 0.13421567
-0.015460789 -0.034966815 0.0022789328 -0.009324861 0.037545934 0.04376514 -0.14184588 -0.057634015
0.13151853 0.060838267 -0.007767704 -0.09415806 -0.2233346 -0.24123456 -0.04239301 0.057022538
0.15758918 0.11984812 -0.11626369 -0.074582085 -0.03285849 0.16350307 0.033283006 -0.04734483
0.046413247 -0.05661925 -0.111485206 0.09504834 -0.07101249 -0.03130765 -0.15536232 0.08570414
0.21838492 0.13822965 -0.1920362 -0.11787708 -0.11511924 0.12173296 0.1567837 0.13142093
0.08181473 0.03952636 -0.0015293605 -0.11877109 -0.13380533 -0.14607692 0.0639316 -0.07667632
-0.031430375 -0.08987882 -0.02845854 -0.10992055 -0.102046385 0.15257405 -0.032091245 0.1760378
-0.012468399 -0.15343639 -0.030379081 0.006393257 -0.03906647 -0.13848203 0.14378838 -0.0750353
0.033479646 0.030974543 0.08560949 -0.057668924 0.20385773 -0.0738314 0.05795127 0.14666508
0.07000828 -0.14199623 0.07736156 -0.22907567 0.29725522 -0.42391923 0.028692782 0.09261745
0.14769453 -0.036838196 -0.1283189 0.03511259 0.08627465 -0.15544112 -0.035448894 -0.09361922
-0.0136595415 -0.07687084 -0.06383877 -0.04957875 -0.14841256 0.12814175 0.21659139 -0.21423806
-0.13117884 -0.06876344 0.00237551 -0.24978203 0.13324866 -0.07076841 -0.057339765 0.046949852

a2c_network.actor_mlp0.0.bias f4 [256]
00000000: 7ec0 033e d2bf 85bd f83f 953c 9759 3a3d
00000010: 687e 68bc 7274 b03d b088 a53c 51b2 92be
00000020: 1c7d 613d 3f1e fa3d 9e88 7d3d f011 0a3d
00000030: 6d8c 63bc 8d8b 3f3e 066d d33d 17e7 3b3d
00000040: 53d3 b93d 0a86 3d3e f0d5 213e 4c9b a73d
00000050: 0b39 073e d350 d5bd 822c 023c 871c 133b
00000060: a5c0 8f3d 8403 803d fc9c 9bbc 820d 1c3e
00000070: 4761 f2bc 5fa8 e73c 8f6b c83d 3e22 fe3d
00000080: ad91 7d3d a6a9 003e 36ee b93d 72b3 d73c
00000090: 6db8 5b3e 6f15 ffbd 20df cbbd 38a0 8e3c
000000a0: 3348 2bbd 5a9a 8abd 9244 27bd ab3d 203e
000000b0: cabe 96bc a3bc 143e 5735 dbbc 31f3 1c3e
000000c0: f36f 7a3d f728 a3bd 6a39 91bd 8bcc 6e3d
000000d0: 2629 b63d 3653 593d 90c5 bb3d bc74 f83d
000000e0: 56ff 1c3e 7978 293e 9f41 163c 70a9 e5bd
000000f0: b254 efbb e891 283e 2239 c1bd 33c6 673d
00000100: c8ec 573e a15f d43c 9d1f 593e 029d 4fbe
00000110: 2fd3 993d 7c4e 403d 2f72 36bd 7149 213e
00000120: 2a32 923d 3a81 abbd 7d56 1a3e 4aac 303c
00000130: a2f8 1d3e a533 72bd 6610 533c efc4 f43d
00000140: 6c59 da3c c5ec b63d 2472 873d 4166 e63d
00000150: 2945 3b3d ef5c 84bc 920c 35be 7349 0e3e
00000160: 2ed9 993d e121 fc3d 8d1b 09be b2d2 263d
00000170: ab22 aabc 6749 a8bd e72f 463e 96a0 7e3d
00000180: 9036 2f3e 0fca 203e 919d 303e bf6a a43e
00000190: d76b 773e 86b2 903d 9bde 223d 3ea6 ab3e
000001a0: c31f f63d 45c5 7bbd 139b 09bd b598 c63d
000001b0: 67e9 673d 4e04 8b3d 6caa 083e d2d0 04bd
000001c0: 4f7d 163e aa24 283e 2c4e 1b3e d4d6 7a3a
000001d0: 63c2 72bd 71ae a8bd 8c45 80bd 1659 3e3d
000001e0: 9f52 913d 19db 89be 3c56 bdbd 4754 543d
000001f0: 40db 29bd f0ad 88bd 7856 c33d 7ff6 553e
00000200: 47c4 4e3e c15d 6d3c 121f bd3d dbf8 573d
00000210: 05fd 48bd 1130 f63d 9730 a03c 8879 f83d
00000220: 7b12 8ebd f596 67bd 509c 7ebd fdce 46bd
00000230: ceb3 273e 2679 223e f08e edbc 7ee0 213e
00000240: 3e53 203d 445d 933d b7a2 6a3d 4351 a83d
00000250: 0ec6 a33a 2ce2 d5bd 4022 0ebe c359 483e
00000260: e2ca 113e 822a 88bc 2621 b33d 0f4b bebd
00000270: 97d9 3d3e 81ca d73d 7fa8 273d c792 133e
00000280: 2a71 c7bd c1f6 a9bc 9efa c83e 490b d13d
00000290: 555f c4bc 7044 983d 2c68 ccbb ebec 813d
000002a0: e0ad 82be 3bef b9bd 1a00 25be d0c5 673c
000002b0: 6e16 283e 9027 8a3c dc16 cc3d 0b00 79bd
000002c0: b025 15be 402f 05be 9e6a 8fbb 2fd2 4d3d
000002d0: 5740 543e 2e29 b63d 0044 f83c a88c 373d
000002e0: 6509 023e c7ff d33c 913d 8dbd 5787 2dbe
000002f0: cae6 033e b2c7 c83d 60db c03c d493 45bd
00000300: 4e21 b43d 1b29 ff3c a59b fabc a92e 713d
00000310: 72ad 333b d673 e83d e867 62bc af17 463e
00000320: 2a2f 483d 4827 863d 7615 34be b69e 4a3e
00000330: 31b7 ba3c 8d38 b03d f866 0d3e 62a0 263d
00000340: 5251 7f3c 4f1b 2bbd 696e 3a3e f735 183e
00000350: d229 8c3d fa1c 83bd 6dd4 efbb 6db3 59bc
00000360: 0c39 02be c7a9 693d 01c0 51bc 81cc 0e3e
00000370: b70f c83b 05f2 983d 0690 2f3d ddf0 823e
00000380: 54c5 09be 9745 c2bd 3146 683d 10b0 a43d
00000390: e79b 7c3d da21 11bc f78b 2c3d a3ec 8f3d
000003a0: 1e2a 263e 1a98 ccbd 78a2 93bc f14b 2e3e
000003b0: 73f4 82bd c2aa bb3d 51ad 0c3e efa9 4d3e
000003c0: a116 56be 852d 153e 1268 84bd ef9d 843e
000003d0: a211 29bd b0f8 37bc ed55 41bc 8470 403e
000003e0: ccfe ab3c deeb 43bd 83c7 40bd 8dc5 b33c
000003f0: d8e2 a33d 445d 5f3d d75a b9bb 8aee 1c3e
0.12866399 -0.065307274 0.01821898 0.045495596 -0.014190294 0.0861596 0.02020678 -0.2865167
0.055050954 0.122128 0.061897866 0.033708513 -0.013888461 0.18705578 0.10323529 0.04587468
0.0907351 0.18508163 0.15804267 0.081839174 0.13205354 -0.104158066 0.007945182 0.0022447424
0.07019166 0.062506706 -0.018995754 0.15239528 -0.029587401 0.028278528 0.0978614 0.12408875
0.061906505 0.12564716 0.09078638 0.026330683 0.21457072 -0.1245526 -0.09954667 0.017410383
-0.0418169 -0.067677215 -0.040836878 0.15648524 -0.018401522 0.14525084 -0.026758833 0.15327145
0.06114192 -0.07966798 -0.07091029 0.058300536 0.08894567 0.05305787 0.091685414 0.1213164
0.15331778 0.16549863 0.009170919 -0.11213958 -0.0073037976 0.16461909 -0.09434725 0.056585502
0.21086419 0.025924506 0.21203466 -0.20274737 0.07510983 0.04694985 -0.044542488 0.15750672
0.07138474 -0.083742574 0.15072055 0.010783264 0.15426877 -0.059131283 0.012882328 0.119516246
0.026653968 0.08931879 0.066135675 0.11249972 0.045720253 -0.016157595 -0.17680576 0.13895206
0.07512127 0.123111494 -0.13389416 0.04072828 -0.020768484 -0.082171254 0.19354211 0.062164865
0.17110658 0.15702079 0.17247607 0.3211269 0.24162231 0.07065301 0.039763074 0.3352527
0.12017777 -0.061467428 -0.033595156 0.09697095 0.056619074 0.067879304 0.13346261 -0.03242571
0.14696239 0.16420236 0.15166539 0.0009568755 -0.059267413 -0.08236397 -0.06263265 0.046471678
0.07095837 -0.2692497 -0.092449635 0.051838186 -0.04146886 -0.06673801 0.09537977 0.20894812
0.20192061 0.014487685 0.09234442 0.05272756 -0.049069423 0.12020887 0.01955442 0.12132555
-0.069371186 -0.05654045 -0.06216079 -0.048537243 0.16377184 0.15866527 -0.028998822 0.15808293
0.039141886 0.071955234 0.057284083 0.082186244 0.0012494938 -0.104435295 -0.13880253 0.19565491
0.1423755 -0.016621832 0.08746557 -0.0929166 0.18540035 0.105366714 0.040932175 0.1441146
-0.09738381 -0.020747544 0.39253706 0.102072306 -0.02397124 0.074349284 -0.006238004 0.06344017
-0.2552328 -0.09078833 -0.1611332 0.014146283 0.16414806 0.016864568 0.099652976 -0.060791057
-0.14565158 -0.13006306 -0.0043767234 0.050249275 0.20727669 0.08894573 0.030305862 0.044811875
0.12698896 0.0258788 -0.068965085 -0.1694616 0.12881008 0.09803714 0.023542106 -0.048236683
0.08795415 0.03114753 -0.030591795 0.05888239 0.0027416614 0.11350219 -0.0138187185 0.19344972
0.048873104 0.06550461 -0.17586312 0.19787106 0.02279243 0.08604536 0.1380881 0.040680297
0.015583353 -0.04177409 0.1820618 0.14864336 0.06843914 -0.06402011 -0.0073190243 -0.013287407
-0.12717074 0.057046678 -0.012802125 0.139452 0.006105389 0.074680366 0.04286196 0.2557439
-0.13454181 -0.094859295 0.056707565 0.08041394 0.061672118 -0.0088581685 0.04212567 0.07027557
0.16227004 -0.099899486 -0.018021807 0.17021157 -0.06394281 0.09163429 0.1373799 0.20084356
-0.2090707 0.14568146 -0.06465162 0.25901744 -0.04127658 -0.011228725 -0.011800271 0.18792921
0.02099552 -0.047832362 -0.04706527 0.021944785 0.080022514 0.054532304 -0.005656581 0.1532537

a2c_network.actor_mlp0.2.weight f4 [128, 256]
00000000: 4a5f 9cbd 6a95 d1bc 46f2 423d 2dfb fa3c
00000010: 6ac8 173d c3ee 19bd 255d 9ebb dde0 bf3d
00000020: 31aa 193c 6e39 4cbd 5966 27bd 0dba 0fbc
00000030: 884b cbbc 7190 2d3c d601 15bd 4f8b c5bd
00000040: 4d7a e5bd 8963 83bd 1ea0 39bd 6307 c93d
00000050: 18c3 2cbd 1939 46bd 11a6 e0bc 79d0 f2bb
00000060: 51b6 2a3d d073 e73c 4280 73bd a711 d1bd
00000070: ba27 52be 5bdc e43d f107 28be ddcb 9abd
00000080: e0a3 28be 8b72 933c 22b3 bbbd 4c57 c3bd
00000090: f49a b43c 7171 543d 8791 533d 731c 1bbd
000000a0: c70c 273d d50d f8bd 5340 bfbd 40e0 153d
000000b0: 50de 2bbe ce15 18be 551d bf3c c2e8 68bd
000000c0: f49d 003c c105 88bc b9e3 24bd 59e3 1cbd
000000d0: 1789 f9bd 22d2 c53c ab43 733d d8a3 3d3d
000000e0: 4073 33bd cfdc b43c eff1 e33c d14d 7ebd
000000f0: b2b2 6c3d 7034 d4bc de6b 3ebc f81b 3d3d
00000100: 153c 0cbd 4a39 ee3b a829 96bd 3e20 0d3b
00000110: 1e69 f53c 1848 253e 8bcd 00bd 457e 173d
00000120: aeeb 87bc 108a b83d 3f3c edbd 55e2 0a3d
00000130: c1df 32bd 100a bbbd b344 d7bd ce26 04bd
00000140: 65c3 37bd 0f4a ac3d 15e7 443c 1fad c73d
00000150: ebde 8fbd c1bc bc3d ba97 923d 59f1 5ebd
00000160: 6357 803d 7806 1ebe 3c16 f9ba 178e b33a
00000170: 125e 37be 2ef6 51bc 4f42 37bc 0539 c4bd
00000180: 1e32 43bd 3591 e4bd 39e1 33be 399a 19be
00000190: 64df 503d 30a7 eabd 0370 aabc d44f 7abd
000001a0: a14e 25be bf7b 173e 1cf9 02be 3397 e3bd
000001b0: c0a2 d8bc 5f67 b6bd d8d7 01be acdd fcbc
000001c0: d1ae 0bbe 1ca9 423d 86e8 51bd 8136 e93d
000001d0: 292f a0bd 03de cfbd 2e15 0f3e 5c35 5ebd
000001e0: 94af 85bd bf6c 8c3c d56c d43d 11a2 07be
000001f0: 4458 3ebd 813c 5cbe 5d94 9bbc f0b5 c63b
00000200: d74a 7fbd 01ed 85bc 7e2f 83bd fdec 883c
00000210: 793e e7bd 93ff 8ebd 2a82 cbbd a6c9 abbd
00000220: 8e72 843d e9b2 a3ba d824 ddbd fa82 113d
00000230: 570f a23d 0961 44be 6be0 24be 5967 60bc
00000240: e451 8fbd 821f 873d bc60 01bd dad8 73bd
00000250: 0b52 96bb 7ccb cdbc 1b1c 9b3d e470 cf3c
00000260: 7e38 bebd b08a bbbd 7aac 1fbd eaaf 07be
00000270: 9580 a2bd 9b7c a8bd 0bb0 83bd 9ccb 07be
00000280: 9c95 41bc 4bd7 73bd 8832 f1bd ebd3 e33c
00000290: a436 afbc ef14 bebc 2e11 5e3c 4669 1bbe
000002a0: cd41 94bd 8096 ff3b dc02 03bd 96d3 953d
000002b0: 705d 50be 43db 903c 7d17 f7bc 7376 463d
000002c0: 65bc 193e 3621 3ebc f057 9e3d 1126 263d
000002d0: 4ab6 f53c 90b2 14bd 6a99 16be aac6 f8bd
000002e0: f1cc e7bd 435d f4bd 098c 9cbd 7f09 a9bb
000002f0: dbb9 b33b 0759 053d f102 03be 5867 3ebd
00000300: 4be0 333d da95 703d d43e 56bc ed6d 3c3d
00000310: 5ec9 863d 85bb 88ba 6786 87bc 8462 aa3c
00000320: 6061 e3bd d5f0 cabd 0361 3d3c f41c d0bd
00000330: 2994 d03d a3dc b7bc d555 9cbb a25d 843d
00000340: bfa8 edbd 0ad6 b1bd 823c 13bd e799 1dbe
00000350: 6877 ac3c 1f44 6b3d 8dc2 3e3d 3aaf 6f3d
00000360: 39a8 4dbd 5107 97bd 7ff5 bbbd b86f 04bd
00000370: c64e 27bc 7532 053c bc3e 1bbe 82a4 ddbd
00000380: c997 e2b8 4dc1 3b3d f6ad 92bd a6ec b7bd
00000390: f848 bdbc ae0c 6cbd 8157 30be fb8a febd
000003a0: 7cca 62bd de37 d5bb fcb0 49bd c79b 16be
000003b0: 6c70 853c 0d56 cc3c 990b 6ebd 2f7f 55bc
000003c0: 178d ce3b 8119 003e 1cb0 2f3d ca2d 45be
000003d0: 7f0d 92bd d1ef 6f3d 5ad1 4dbd 3dc9 b3bc
000003e0: bd8e 2e3d 661e c93b 7728 42bd 67d7 26bd
000003f0: 7404 edba 01c9 00bd ba77 51bc d30a 21bc
-0.076353624 -0.025583941 0.04759433 0.030637348 0.037056364 -0.037581217 -0.004832881 0.09369061
0.009378956 -0.049859457 -0.04086909 -0.008772385 -0.02481629 0.01059352 -0.036378704 -0.09645712
-0.11204968 -0.06415469 -0.045318715 0.09815862 -0.042178243 -0.048394296 -0.027422937 -0.007410106
0.041677777 0.028253466 -0.059448488 -0.10208445 -0.20522967 0.11174842 -0.1640928 -0.07558415
-0.16468763 0.017998954 -0.09165026 -0.09538135 0.022046544 0.051866 0.051652458 -0.03786893
0.04078367 -0.12112013 -0.09338441 0.036590815 -0.16784024 -0.14852068 0.023329416 -0.0568626
0.007850159 -0.016604306 -0.040256236 -0.038302753 -0.12184351 0.02414805 0.059390705 0.04629883
-0.043811083 0.022077946 0.027825324 -0.06208593 0.057787605 -0.02590391 -0.011622397 0.04616925
-0.034236986 0.007270013 -0.07332164 0.002153411 0.02995735 0.16140783 -0.03144602 0.036985654
-0.016591873 0.09010708 -0.11583757 0.033907253 -0.04367042 -0.09132779 -0.1051115 -0.03226357
-0.044864077 0.08412563 0.012017985 0.09749817 -0.0702494 0.092156895 0.07157846 -0.054429386
0.06266668 -0.15432155 -0.0019003819 0.0013698962 -0.17906979 -0.0128150415 -0.011185243 -0.09581188
-0.047655217 -0.111605085 -0.17566384 -0.15000238 0.050994292 -0.1145767 -0.020805364 -0.061111286
-0.16143276 0.14793299 -0.1279034 -0.11112823 -0.026444793 -0.08906435 -0.12679994 -0.03086742
-0.13640906 0.047524557 -0.051247142 0.11387349 -0.07821495 -0.10149767 0.13972923 -0.054250106
-0.065276295 0.017141698 0.103723206 -0.13245417 -0.046470895 -0.21507455 -0.018991644 0.006064169
-0.062327232 -0.016348364 -0.06405543 0.016714567 -0.112912126 -0.06982341 -0.09936936 -0.08388071
0.06467162 -0.0012489232 -0.10798043 0.0355253 0.07913082 -0.19177641 -0.16101234 -0.013696515
-0.06998041 0.065978065 -0.031586394 -0.059532978 -0.004587417 -0.025121443 0.0757372 0.025322385
-0.09288119 -0.09157312 -0.038982846 -0.132507 -0.07934681 -0.082268916 -0.06430062 -0.13261265
-0.011815455 -0.05953149 -0.11777216 0.027811011 -0.02138836 -0.023203341 0.013553901 -0.15176877
-0.07239113 0.0077999234 -0.03198515 0.073157474 -0.20348144 0.017682677 -0.030162567 0.048452806
0.15013273 -0.011604598 0.077316165 0.040563647 0.029994149 -0.036303103 -0.1470696 -0.12147267
-0.11318386 -0.11931851 -0.07643897 -0.0051586027 0.005484802 0.032555606 -0.12794091 -0.046485275
0.043915074 0.05873666 -0.013076503 0.04600327 0.065813765 -0.0010431862 -0.01654358 0.020798929
-0.11102557 -0.09909216 0.011558774 -0.10161772 0.10184509 -0.022444075 -0.004770974 0.064631715
-0.116044514 -0.08683403 -0.035946377 -0.1539074 0.021053031 0.057438012 0.046572257 0.05851672
-0.050209258 -0.07374442 -0.09177684 -0.032333106 -0.010211652 0.008129706 -0.1516065 -0.10822393
-0.00010804792 0.045838643 -0.07162087 -0.08980684 -0.023106083 -0.05762928 -0.1722088 -0.12428852
-0.055368885 -0.006506904 -0.04924105 -0.14707862 0.016288958 0.024943376 -0.05811653 -0.013030811
0.0063034403 0.12509729 0.04289256 -0.19255748 -0.071314804 0.058578316 -0.05024848 -0.021946544
0.042616595 0.006137657 -0.04740187 -0.040732767 -0.0018082992 -0.031441692 -0.012784893 -0.009829241

a2c_network.actor_mlp0.2.bias f4 [128]
00000000: 3983 fdbd 8552 3c3e 23c9 7bbe bf38 31be
00000010: 9788 1cbe d299 543d f135 0ebe c3d4 11be
00000020: 8da3 b63c 1d5a 83bd 2e66 7ebc 1e9d 113e
00000030: 7269 96bd c4bb 55bc 9c18 3cbe 195f 36bc
00000040: 7fde ac3a 7054 a13c 0a57 153d 1a6b 31bd
00000050: 6644 683d fa4a e63a 43e2 5e3d 9abc e2bd
00000060: 9852 d0bd 14be 50bd ff93 ebbd d7e1 26be
00000070: bf3a 9e3c 7e02 e9bd 38ef d5bd 1fe2 82bd
00000080: 6868 7dbd e044 5bbd 6bec 173d 4e89 a33d
00000090: c474 dfbd 8150 94bd 5138 083e 42bf b63c
000000a0: 06c5 423e 4330 093e 78c5 2d3d 622b 2cbc
000000b0: 98d4 2b3c b75d 6c3d cea8 c33d ad48 f5bd
000000c0: 2854 323d 3c81 fcbd 7808 30be 9df5 9dbd
000000d0: 891a 68bd 2032 c4bc 1091 9fbd 2e50 b3ba
000000e0: 5656 e5b9 24cb 433d 2abc 873d e58b 223d
000000f0: 6652 10bd b431 a7bd a73f b8bd c498 67bd
00000100: 0453 50bd cf5b 6fbe 7751 5dbd cf2a 1d3c
00000110: 9af2 32bd 2f87 10bd adb4 31be de0d 963d
00000120: 8fac 3c3d 5c64 2ebd c862 9c3d 9e7f 64bd
00000130: 5f57 27be ed5f 6d3d 2f24 12bc 02ed 3fbd
00000140: 2edf 31bc cc26 1a3e 44e0 1abe 9b82 623e
00000150: 944e 95bc 6a33 e5bd 390c d53c 5004 b73c
00000160: 1317 9bbd a2c6 1abe 35fb b4bd 36e8 acbd
00000170: 409b e0bd 44d2 57bd a090 99bd 879b 6dbd
00000180: 6537 0a3d 417b 263d ed3c aabd 73be 00be
00000190: 7427 49bd 0043 a53d ea02 e7bd 8f4c bdbc
000001a0: 5afc 1abe 54b5 953d c0df 963d cbd4 9bbd
000001b0: e016 8c3d a199 1dbe 7de6 a8bd 2c44 b03d
000001c0: 796e fa3b 89b0 00be f548 2fbc 6095 02bc
000001d0: d025 19be 6314 76bd 1c03 b8bc 9b96 943d
000001e0: 28ce 88bd fa76 78bc 4c44 59bd 6252 38be
000001f0: 84fa e73c aaa0 99bd 98b2 a7bd 578a 6bbd
-0.12378544 0.18390854 -0.24588446 -0.17306803 -0.1528648 0.051904507 -0.13887765 -0.14241318
0.022294784 -0.06413672 -0.015527291 0.14220092 -0.07344331 -0.013045255 -0.18368763 -0.0111310715
0.0013188868 0.019693583 0.03645996 -0.04331503 0.056705855 0.0017569952 0.054415 -0.11071129
-0.101720035 -0.050962523 -0.115028374 -0.16297089 0.019315122 -0.113774285 -0.10446018 -0.063907854
-0.061867148 -0.05353248 0.0370907 0.07985173 -0.10910943 -0.072419174 0.13302733 0.022307996
0.19020471 0.13397317 0.04242465 -0.01050839 0.010487698 0.05770656 0.09553681 -0.119767524
0.04353729 -0.12329337 -0.1719073 -0.07712863 -0.05666593 -0.023949683 -0.0779134 -0.0013680512
-0.0004374261 0.047801152 0.06627686 0.039684195 -0.03523483 -0.08163777 -0.08996516 -0.056542173
-0.05086042 -0.23374866 -0.05403277 0.009592726 -0.043688394 -0.03528517 -0.17354079 0.07326864
0.046063002 -0.04257618 0.076360285 -0.055785768 -0.16341923 0.05795281 -0.00891976 -0.046856888
-0.010856433 0.15053862 -0.15124613 0.22120135 -0.018225946 -0.11191447 0.026006805 0.022340924
-0.075727604 -0.15114835 -0.088369764 -0.08442728 -0.109671116 -0.05269076 -0.07498288 -0.05800965
0.033744235 0.040644888 -0.08312402 -0.1257265 -0.04910989 0.0806942 -0.11279853 -0.023107795
-0.15135327 0.07309976 0.07366896 -0.076089464 0.068403006 -0.15390636 -0.08247087 0.08606753
0.007642564 -0.12567343 -0.010698547 -0.007970184 -0.1495583 -0.060078036 -0.02246242 0.07255288
-0.06679946 -0.015165085 -0.05304365 -0.18000177 0.028317697 -0.07501347 -0.08188361 -0.057504978

a2c_network.actor_mlp0.4.weight f4 [64, 128]
00000000: 3f0d ef3c 7b91 1e3d 5c51 f23c 5165 edbd
00000010: f85a ff3d d9df 69bd ad75 0cbd 5c59 b2bd
00000020: 1b37 64bd 545e 453d 4e55 843d cc65 f53c
00000030: afb3 ffbc 523c debd fbb3 b33d b295 5ebd
00000040: 7461 1c3e fb61 a63d 4a1f 0e3d 9cbb 83bd
00000050: 8303 063d 52b9 afbd 33ee efbc fa9b 49b8
00000060: cddc 053d 3f3e d4bc 1794 463d 249c 0a3d
00000070: b54d 0abc c3da 3cbd 28c0 4d3d b8e1 6bbc
00000080: 5ea5 dcbd 589c 7b3d 25e0 1ebe 236d 5b3b
00000090: 4ae1 97bd 8fc5 10be 42cc 26bd 427a 15be
000000a0: 2c73 983c 0708 78bd 55a0 9ebd 8075 bebd
000000b0: 0c6e 1d3d 258c f0bb dc10 cfbb b5c9 ed3b
000000c0: f980 0fbd f9b9 3bbd 6632 b93d 5554 003e
000000d0: 35a4 62bc a640 f3bd 03e6 323d f862 073d
000000e0: 2b33 fabd a434 8cbd 64f8 393d 477f b03d
000000f0: 9a8b a63d 85e5 a3bc 981a 1e3b 2c52 d33b
00000100: 7a4a 183b d8c1 893d 63a4 99bc fde1 b9bd
00000110: 3ff3 14be bd3c 923c 83fc 39bd f910 243d
00000120: 176e 7b3d 9b29 2c3d 8102 90bd 499c 02be
00000130: e988 483d 6051 debc 6727 5bbd a4d3 0abe
00000140: 59a5 923c fc23 113d 5f09 d63d 5951 e73c
00000150: eabc 08be 7ed7 4ebe 26ae 25bc 1d42 2b3e
00000160: 3298 8ebd 66d9 d33c b364 c1bc 2cf2 a73d
00000170: 8838 82bd e385 84bd 1ebe a93d 7ed0 06be
00000180: cdd1 0e3d 5a8c 233d 34f3 86bd 01fb dcbd
00000190: 11e6 cabd 5377 0a3e cdb0 f43c 0aab 573d
000001a0: c804 d03d 732c 253d 1fce 03be d5fc 07bd
000001b0: 4053 a0bb 01a9 16bb 46ee f1bd bcd3 d43c
000001c0: cf7d b2bd f01b 2a3b 79b5 f1bd fc67 403c
000001d0: 8c73 d4bd a312 ec3c 2e1c 40be dba1 ab3c
000001e0: c2f8 22be 8cb3 0e3e b823 973d 8cd3 0e3e
000001f0: ca9e f33d 1bf5 0b3e 4611 a43c 9628 d13d
00000200: 9714 133e 4e34 28be 6fe1 463e 870b 433e
00000210: 1a60 f03d a3bf 983d 73c0 943d c263 ba3d
00000220: 4f59 2ebd aae9 c93d ded9 ce3d 09bd aa3d
00000230: 1c02 29bd 0aca 28bc 2762 853d e11a db3b
00000240: d923 2cbc ad04 beba c445 48be db4d d13d
00000250: f149 d5bd 84d5 213d 9387 e93d e2be b93d
00000260: 4146 c1bd 9c13 0bbe 8d09 8e3d dcfe 723d
00000270: 065d 97bc 0a8f 583d 4153 4bbe a823 223d
00000280: ab97 25bc 61be 2bbe a39b 7b3d e4a3 14be
00000290: 254c a3bd d541 de3d 0d01 0bbd 96c3 a5bc
000002a0: 707e 653c 0758 56bd 147c f23d 669a e0bd
000002b0: aa6f e93b 3f3c 88bc f762 ccbd 1947 483e
000002c0: 0707 b8bd a3a4 973d a6a2 f5bc b6a2 2cbd
000002d0: b4f1 44bc ce50 7b3d 3c06 40bd 5d88 cc3d
000002e0: 8e64 b03c 1900 2c3e 3479 aabd c828 fdbc
000002f0: fa56 c5bc 01bc 3bbe 97dd 4e3e 5d95 8cbd
00000300: d2d8 48be e67c a03d 3a3f e03d 580c adbd
00000310: 4c16 033e 9829 713c 4936 bcbc 51ba f83c
00000320: 70f1 c4be 63a9 1f3d 056c b33d 50cf cebc
00000330: 4b0b e63c f18b e6bd bd1f 313e a35e 9e3d
00000340: 26b2 ebbd 55f2 ccbd 2972 2e3d bba1 04bd
00000350: 9709 963d 0df2 6cbe 5366 9abd 5a45 f6bc
00000360: 8402 fd3c f45b 423e 582a 83bd 10c6 55bc
00000370: 4108 f93d 5e91 b1bd 23cb 5bbc 5946 1fbe
00000380: c23f 86bd a701 6c3d 7283 03be e25d d9bc
00000390: 834f 433c c320 e1bd a423 0cbd b95f 8bbd
000003a0: be4f 1c3e f86a e5bb c425 6dbd f3f9 50be
000003b0: a1d7 78bd 27a4 fdbd 3e23 373d 2b08 7f3d
000003c0: 51b7 ea3d 562f db3d be8e 61be b39c 32bd
000003d0: 3c78 23bd d52b 95bd af6a 753d cc1e 93bc
000003e0: e28e c83d 0864 acbc 4d68 603d f462 24bd
000003f0: fb12 f03d 107f 0c3e 048a bdbd a119 bf3d
0.02918112 0.03871296 0.02957981 -0.1159159 0.12468523 -0.057098243 -0.034291912 -0.0870845
-0.055716615 0.04818566 0.06461583 0.029955767 -0.03121361 -0.10851349 0.08774563 -0.05434198
0.1527155 0.08124157 0.03469781 -0.06432268 0.032718193 -0.08580269 -0.029288387 -4.80674e-05
0.032681275 -0.025908588 0.048481073 0.033840314 -0.008441378 -0.046107065 0.050232083 -0.014397077
-0.10773729 0.061428398 -0.15515192 0.0033481799 -0.07416017 -0.14137863 -0.04072214 -0.14597419
0.018609606 -0.06055453 -0.07745425 -0.09299755 0.038435027 -0.0073409253 -0.0063191485 0.0072567114
-0.035035107 -0.045831654 0.09042816 0.1253217 -0.013833095 -0.11877565 0.043676388 0.03305337
-0.12216791 -0.06845978 0.0454029 0.08618026 0.08132096 -0.020006904 0.0024124738 0.0064490046
0.002323775 0.06726426 -0.018755144 -0.09076307 -0.14545916 0.017851228 -0.04540683 0.04005525
0.061384287 0.042031866 -0.070317276 -0.1275493 0.048958693 -0.027138412 -0.053504374 -0.13557297
0.01790111 0.035434708 0.10451006 0.028237032 -0.13353315 -0.20199391 -0.010112321 0.16724439
-0.06962623 0.0258605 -0.023607587 0.082004875 -0.06358439 -0.06470849 0.08288215 -0.13165471
0.03486805 0.03992877 -0.06589356 -0.10790063 -0.09907163 0.13522081 0.029869461 0.05265335
0.10157162 0.040325593 -0.12871598 -0.033200104 -0.0048927367 -0.0022988918 -0.11813025 0.025979869
-0.08715402 0.0025956593 -0.11802191 0.011743542 -0.10373601 0.02881748 -0.1876075 0.020951202
-0.15915206 0.13935679 0.0737986 0.13947886 0.11895521 0.13667719 0.020027768 0.10212819
0.14363323 -0.16426203 0.19421934 0.19047366 0.1173708 0.07458427 0.07263269 0.091010585
-0.04256564 0.09859021 0.101001486 0.08336837 -0.041261777 -0.010302076 0.06512862 0.006686554
-0.010506594 -0.0014497243 -0.19557863 0.10219928 -0.10414494 0.039510265 0.11402812 0.09069611
-0.09437228 -0.13581699 0.069354154 0.059325084 -0.018476974 0.052870788 -0.19855978 0.039584786
-0.010106961 -0.16771843 0.061427724 -0.14515644 -0.07973508 0.108524 -0.03393655 -0.020234864
0.014007196 -0.052330043 0.11840072 -0.10966949 0.007123907 -0.01663029 -0.099798135 0.19558372
-0.08985715 0.07404449 -0.029984783 -0.04214736 -0.012020517 0.06135636 -0.046880946 0.09986947
0.021532323 0.16796912 -0.08323899 -0.030903235 -0.024089325 -0.18333437 0.20201717 -0.06864426
-0.1961396 0.078363225 0.109495595 -0.0844962 0.12801474 0.014719389 -0.022975104 0.03036228
-0.38465452 0.0389799 0.087608375 -0.025245339 0.028081557 -0.112571605 0.17297263 0.07732894
-0.115085885 -0.10007159 0.04258934 -0.0323808 0.07326048 -0.2313921 -0.07539048 -0.030062366
0.030884989 0.1898039 -0.06404561 -0.01304771 0.121597774 -0.08670305 -0.013415131 -0.15554179
-0.065551296 0.057618763 -0.12843111 -0.026534025 0.011920813 -0.10992577 -0.034213677 -0.06805367
0.15264794 -0.007001277 -0.057897344 -0.20407848 -0.060752515 -0.12384825 0.044711344 0.06226365
0.11460746 0.10702388 -0.22027108 -0.04360647 -0.039909586 -0.07283751 0.059916195 -0.017959021
0.09792878 -0.021043792 0.05478697 -0.04013343 0.1172237 0.13720345 -0.0925484 0.0933106

a2c_network.actor_mlp0.4.bias f4 [64]
00000000: 3202 003c abba 59be be62 6ebd 83ee 42bb
00000010: 4577 deba 0c3e 01bd 590d 8cbd 9421 e5bd
00000020: 409f 4f3d 1e89 43bd 979f 1abe c0e9 7e3d
00000030: 25ec 89bd 67bb 7a3d 1f36 4fbd 884a 96bd
00000040: 1053 893d f1a1 97bd 9c8f ffbd 1041 45be
00000050: 532c a63d 7b1e ba3c 709a 48bd d318 b53c
00000060: 1a71 e8bd ef80 a9bd 2b31 61bd f8da 0f3d
00000070: 6d82 663d d025 1cbe 8df1 1dbe 6735 ebbd
00000080: 1068 cebd 391a e3bd 4d6e d2bd cc83 933d
00000090: 72fa a6bc 8285 15bc 4f44 14be 2a0f e6bd
000000a0: c39b 953b 9cf9 973c eba4 f1bd 6e03 eebd
000000b0: 7649 f13c 5e3a 7c3d a0bd 0abd 7718 81bd
000000c0: 6d46 e13d 4657 51bd 446b a8bd b477 ebbd
000000d0: a091 8cbd 1f92 7fbe 5cd5 c63c caea c8bd
000000e0: 898c 04be b63d 6d3c dd7d 243d c400 cdbd
000000f0: dfbd 6abd 646d c13c fe46 b3bd 3d23 a1bd
0.007813023 -0.21262614 -0.058199637 -0.0029744215 -0.0016972801 -0.031553313 -0.06838483 -0.11188045
0.050688982 -0.047738187 -0.15099941 0.06223464 -0.06734494 0.061213877 -0.050588723 -0.073384345
0.06705296 -0.07403935 -0.12478563 -0.192631 0.08113923 0.022719612 -0.048975408 0.022106564
-0.113496974 -0.08276545 -0.05497853 0.035120934 0.056276727 -0.152488 -0.15424176 -0.11484795
-0.10078442 -0.11088986 -0.102749445 0.07202873 -0.020383094 -0.009126069 -0.14479183 -0.11233361
0.0045656874 0.01855164 -0.11799034 -0.11621748 0.029453974 0.0615791 -0.033872247 -0.063034944
0.10999761 -0.05110862 -0.08223584 -0.11497441 -0.06863713 -0.24958085 0.02427166 -0.098104075
-0.12944235 0.014480045 0.040159095 -0.10009912 -0.05730998 0.023611732 -0.08753775 -0.07868049

a2c_network.value0.weight f4 [1, 64]
00000000: db9a bd3c 377e e0bc 11ba 56bc 4a31 cebb
00000010: 97a3 aebc cd2a f83d 8e79 803d cdcd 50bb
00000020: 0acf f43c 9ad4 14be 9713 eabd 38cf 263d
00000030: a619 273e 8ac0 34bd cc9f c43d c4da 7839
00000040: e9bc 4e3e 951f dabd 43fc 72bd b8c4 acbe
00000050: c7a4 0d3e 5682 073e 6c54 eabc d5c9 74bc
00000060: af3d 8bbd ef57 59bd 3a94 a73d a84b fa3d
00000070: 2845 f93c a04d 8abc b536 ccbc 159e 35bd
00000080: 4ce9 90bc 82ff 663c 372b 573e 04cc 703c
00000090: 1bb6 523d 28cb 0f3d 57c0 fabd 577e f0bd
000000a0: 45c5 583e bcc5 59be e1aa c3bd 0c80 cabd
000000b0: 4152 8a3c 976f 8a3d 9062 a83d a6b8 88bb
000000c0: f937 d03d 77a1 3c3e 89f1 84bc a0fd 613d
000000d0: e3b0 a13d dab1 9cbe 044c 473b f2f3 3c3c
000000e0: b44f bdbd 2e7c ed3d b9e2 773e 3c75 863d
000000f0: e145 32bd 682c 9b3e f238 a5bd f0fa cabd
0.02314513 -0.027403934 -0.013105885 -0.006292497 -0.02131824 0.121175386 0.06273185 -0.0031860948
0.02988388 -0.14534226 -0.11429518 0.040724963 0.16318378 -0.044128932 0.09600791 0.0002373262
0.20189251 -0.10650555 -0.059322607 -0.33743834 0.13832389 0.13233313 -0.028604709 -0.014940699
-0.067988746 -0.053062376 0.08182569 0.122214615 0.030428484 -0.016882718 -0.02492843 -0.044340212
-0.01768937 0.014099004 0.21012579 0.014697079 0.0514432 0.035105854 -0.12243717 -0.117428474
0.21169002 -0.21266836 -0.09554077 -0.09887704 0.016884925 0.06759565 0.08221924 -0.0041724024
0.10166926 0.18420969 -0.016228454 0.055173516 0.078950666 -0.3060444 0.00304103 0.0115327705
-0.09243718 0.11595951 0.24207582 0.065653294 -0.043523673 0.30307317 -0.08067502 -0.09911144

a2c_network.mu0.weight f4 [12, 64]
00000000: 4a27 b03d 6e2e f73d a0cd 593d d107 a3bd
00000010: 7047 393d 5709 05be 4410 9f3d fb53 40be
00000020: 6a68 743c 16cc cabc ee38 0c3e 9546 173d
00000030: 9dd7 183c d951 17be 741a 2abd 40cd 7a3d
00000040: 4e9a 913d 58f9 843c 9d58 08be 816f 39bd
00000050: ffaa 81bd f559 fcbc bb3b 26be 2dc8 c3bc
00000060: f4e9 04be 946b d9bd 7155 b3bd 5f24 403c
00000070: a1fe ddbc 89fb 1a3d 0f50 1e3e f5ce 763c
00000080: ccb6 673c a571 033e 821f 19bc 9c31 143d
00000090: c83f b3bc 9d36 2bbd 1444 463d 7fcb 5d3d
000000a0: 38c4 523c ea0a 0f3d b07f 053e c149 09be
000000b0: b145 c53d a42e 9abd 929f ad3d 3ca9 20be
000000c0: b065 64bc 2845 a73d 2a11 adbb 0e54 e9bc
000000d0: 757a 62bc cd96 733c 56a0 fe3d 6b47 95be
000000e0: 45b1 0a3e 9618 c43b 027a a7bd f3c8 cd3d
000000f0: 318f 2d3c 79df ea3c 623c 4abe 72a7 5abd
00000100: 6dc8 49bd ed4e f9bc 16ed bf3d 25e9 423c
00000110: 9923 043e 3552 f4bc 659a 3abd 6a94 673d
00000120: f34a b73c 918b 243d 55ec 9abd 19d2 9a3c
00000130: 0a1b 24be 61f4 843e 4e85 19bd 268d c93d
00000140: e690 2a3d b357 6abc 0135 083d 5162 23be
00000150: afaf ee3d 3d2c a4bd 07b7 2e3d c94b 91bc
00000160: 025f 10bd 2353 27be 7274 b7bc d965 d9bb
00000170: c26c d3ba 7966 96bc d227 23be 213c cf3d
00000180: 3d8a 123d ceaf be3c 33a7 013e 272d 02be
00000190: 4359 f7bc 01f8 e5bd 6783 a83a ea6f 2bbe
000001a0: e11f 653d 8c5b ed3c be30 6cbc f9ae 203d
000001b0: aa23 ed3d 30a1 a73d bfba 51bd e81e 29be
000001c0: d080 333b 464f bdbd 9c90 a33c 8db8 16be
000001d0: b711 483c 0757 2cbe 4da1 a43d a824 15bd
000001e0: 281e 5ebe 14a6 3d3d 72c0 59bd 6961 1dbe
000001f0: bc53 943c 93fd 253d 36d0 cabd aa5c abbd
00000200: f50b b8bc e727 b63d 80de 073e 6a30 62bd
00000210: 5076 bfbc b59b 803d eee4 1ebc 6361 763d
00000220: 5be0 c3bb 103b cbbd f120 a8bc 69a9 8ebd
00000230: b472 f83c e0d8 75bd ea68 d23c c2ff 693d
00000240: 442c b23c 16d8 7a3d ad5f b2bd e0f3 b4bd
00000250: 18cc 5abd 8377 003e a0e2 a33d 14cf efbc
00000260: 4577 fd3c 4c56 33bd 5e34 30bc 8fb6 cebc
00000270: 2f37 9a3a e730 f53d 3947 e2bc 854b 6abc
00000280: 9564 153c 112d 123e cbc0 403d bb04 e2bd
00000290: b56d c23b 6233 55bd 129a a83d f092 1e3d
000002a0: 1954 5a3d 1489 fbbb fdb7 04bd ad76 d53d
000002b0: 9a21 3c3c 7a4a c83c b0ca 7abc 8ea6 ce3d
000002c0: 5887 8a3b fc87 cbbc 6061 183d 398c 2cbd
000002d0: 8a39 b23d 3d40 9bbc 9209 b2bd 8e07 5bbc
000002e0: da6d 993d aaaf 2ebd 0375 10bd a855 9f3d
000002f0: 8bb9 34bb f68e 13bc d215 53bd 1d77 14bd
00000300: b3c7 d23d 0b0b 1fbd 13a6 193b b1d4 1e3d
00000310: 218e f6bd 357b 15bd e91d 89bd 795f 5ebe
00000320: d4dc bb3d 01c7 86bd ed00 203e e429 033e
00000330: af5d 43bb e628 093d 35d6 5c3e 55e8 5ebe
00000340: ad34 2bbe 1778 493d f2c2 363e c5b2 ebbd
00000350: 7d80 583e 236c a33d 15ce 413e 5ae3 203d
00000360: cbc7 c43d 8a2f f8bd 36d3 643d 568c 963c
00000370: cd01 5fbe c5bd 6e3e eebd e83c 01be 573e
00000380: 70b9 99bd 0be3 c6bd 4842 b13d a2de a7bc
00000390: 80b6 01be f0f5 023e 1fa8 de3d 273c 483d
000003a0: 542b 013d a3ec 413e 7465 f43d 6244 53bd
000003b0: 5b51 78bd 7a3f f4bd d222 443e bf93 313e
000003c0: b287 1cbe da30 c63c 4179 78bc d712 2cbd
000003d0: 3c49 edbd d61f 933d 1e7a 90be e8a0 e53b
000003e0: 7f13 48be 704e f23d 9c6f 82bc 98fc b2bd
000003f0: 7308 04be 5718 013e 3059 9a3d 349a b23d
0.08601244 0.12069403 0.053174615 -0.07960475 0.045234144 -0.12991844 0.07766774 -0.18782036
0.014917472 -0.024755519 0.13693592 0.036932547 0.00932875 -0.14777316 -0.041529134 0.061230898
0.071095094 0.016232178 -0.13315053 -0.045272354 -0.06331443 -0.030804614 -0.16233723 -0.023899162
-0.12979871 -0.10616222 -0.08756531 0.011727422 -0.027098956 0.03783754 0.15460227 0.015063991
0.014142703 0.1283632 -0.009345891 0.036180124 -0.021881 -0.04180013 0.048404768 0.054149147
0.012864165 0.034922518 0.1303699 -0.13407041 0.09632433 -0.07528427 0.08477701 -0.15689558
-0.01394026 0.081674874 -0.005281587 -0.028482463 -0.013823141 0.014867497 0.124329254 -0.2915605
0.13544185 0.005984376 -0.08177568 0.10048094 0.0105932215 0.028671013 -0.19749597 -0.053382345
-0.049263407 -0.030433143 0.093713924 0.011896406 0.12904204 -0.029824356 -0.0455574 0.056538023
0.022374606 0.040172163 -0.07564608 0.01889901 -0.1602594 0.25967696 -0.037480645 0.09841375
0.041642092 -0.014303136 0.033253673 -0.15955473 0.11654603 -0.0801625 0.042655017 -0.017736332
-0.035246857 -0.16340308 -0.022394393 -0.0066344556 -0.0016130435 -0.01835941 -0.15933159 0.101188906
0.035776366 0.02327719 0.12661438 -0.12712537 -0.03019393 -0.112289436 0.0012856544 -0.1674191
0.055938605 0.028974317 -0.014415918 0.039229367 0.11579068 0.08185041 -0.051203486 -0.16515696
0.002739001 -0.09243636 0.019966416 -0.14718838 0.012211255 -0.16830073 0.08038578 -0.03641191
-0.21691191 0.046300963 -0.053162046 -0.1536919 0.018106334 0.04052503 -0.09902994 -0.08367284
-0.022466639 0.088943295 0.13268471 -0.055221952 -0.023371845 0.06279699 -0.009698136 0.06015147
-0.005977673 -0.09923375 -0.02052352 -0.06965906 0.030328132 -0.06002128 0.025684793 0.057128675
0.021749623 0.06124123 -0.08709655 -0.08835578 -0.053417295 0.1254559 0.0800221 -0.029273547
0.030940661 -0.04378347 -0.010754673 -0.025233535 0.0011765714 0.11972218 -0.027621852 -0.014300232
0.009118219 0.14275004 0.04705886 -0.110360585 0.0059334883 -0.052050956 0.082325116 0.03871435
0.053302858 -0.007676253 -0.032402027 0.10423026 0.011482621 0.024449576 -0.0153071135 0.100903615
0.00422756 -0.024845116 0.03720224 -0.042125914 0.08702381 -0.01895153 -0.08693232 -0.0133685
0.07491656 -0.042647995 -0.03526784 0.077800095 -0.0027576413 -0.0090062525 -0.05153448 -0.036246408
0.10291996 -0.03882889 0.0023444935 0.038777057 -0.12038828 -0.036494453 -0.06695158 -0.21716107
0.09172979 -0.06580926 0.15625353 0.12808949 -0.0029810478 0.03348627 0.21566088 -0.21768315
-0.16719313 0.049186792 0.17847803 -0.11508707 0.21142764 0.0797961 0.1892627 0.03927932
0.0960842 -0.12118442 0.05586549 0.018377464 -0.2177803 0.23314579 0.028410878 0.21068574
-0.075060725 -0.09711274 0.0865522 -0.020491902 -0.12667274 0.1278913 0.1087191 0.04888549
0.03153546 0.18937926 0.11933413 -0.051578887 -0.06062446 -0.1192617 0.19153908 0.17341517
-0.15286139 0.024193216 -0.015165628 -0.042010155 -0.11586234 0.071838066 -0.28218168 0.007007707
-0.19538687 0.11831367 -0.01592236 -0.08739585 -0.12893848 0.12606941 0.075365424 0.08720818

a2c_network.mu0.bias f4 [12]
00000000: 4887 8a3c bd7c 643c 08f6 bbbd 6582 a3bc
00000010: 94d2 7bbd 9166 8b3c 0106 173c 0f90 9a3a
00000020: 6e7f 6e3c 07f9 cfbb 0e5e d8bd 55eb c4bd
0.01691021 0.013945756 -0.09177786 -0.019959638 -0.06148012 0.01701668 0.00921774 0.00117922
0.014556749 -0.006346825 -0.105648145 -0.096151985

a2c_network.adapt_weight0.weight f4 [1, 12]
00000000: 2648 87be 7e82 323e 37a5 b2bc b346 a6bd
00000010: 9311 fc3d 878a fabd a98c 69bb 2238 8e3e
00000020: f5be fc3d 9279 75be 98d4 7f3c 8bc0 fabc
-0.26422232 0.17432591 -0.021807296 -0.081189536 0.123080395 -0.12233453 -0.0035636819 0.277772
0.1234111 -0.23972157 0.015614651 -0.03060939

exp_avg f4 [12]
00000000: 1c31 463b 7b25 9bba 94f1 3ebc 31a2 febb
00000010: 7475 b039 d6d2 5fbc a2c8 88bb 6a96 223b
00000020: 565b d6ba a203 61bb c36c 3dbc 9412 193c
0.0030241674 -0.0011836732 -0.011654276 -0.0077707996 0.00033656845 -0.013661107 -0.004174308 0.0024808892
-0.0016354125 -0.003433444 -0.011561575 0.009342808

exp_avg_sq f4 [12]
00000000: 9992 383b 609f 2e3b 6629 2c3b a211 353b
00000010: a1fe 203b 142a 393b 0a51 4d3b e125 3d3b
00000020: 4379 113b bc52 253b 74a1 513b b002 2f3b
0.002816355 0.0026645288 0.0026269793 0.0027628918 0.0024565833 0.002825384 0.003132882 0.002886169
0.0022197522 0.0025226315 0.0031987103 0.0026704483

exp_avg f4 [256, 41]
00000000: 0808 5d3b b492 063a d2f0 76ba 31ff 793b
00000010: fb19 55bb fa2c 533b 620a 01bc e3bf 8e3b
00000020: b4a2 b13b 7420 7b3b 85a4 523a 4f1c fb3a
00000030: d470 5a39 12be a13b 9256 353a 0879 b135
00000040: 0000 0000 0000 0000 0000 0000 b122 2f36
00000050: 8e61 643b 019c 6b3a 721a a2ba 7b79 74ba
00000060: 475a 433a 043f 6539 d0c0 833a 0000 0000
00000070: 0000 0000 0000 0000 0000 0000 0000 0000
00000080: 0000 0000 0000 0000 0000 0000 0000 0000
00000090: 0000 0000 0000 0000 0000 0000 0000 0000
000000a0: 0000 0000 6516 173a a848 843b 0f70 f6ba
000000b0: 224b 73ba 1ea1 9539 ab65 f13a db62 28ba
000000c0: efe9 0a3c b642 863b 8ee5 033b 3820 78ba
000000d0: 7cad 41ba b7a9 24b9 33f9 28ba b8bf c5ba
000000e0: 97ef b3b5 0000 0000 0000 0000 0000 0000
000000f0: 7cb9 31b6 0137 a13b 54ba 983b ab4e 4c3a
00000100: 840f 37bb 8843 db3a ba13 bab9 eb0e 40b9
00000110: 0000 0000 0000 0000 0000 0000 0000 0000
00000120: 0000 0000 0000 0000 0000 0000 0000 0000
00000130: 0000 0000 0000 0000 0000 0000 0000 0000
00000140: 0000 0000 0000 0000 e58a eaba 3744 7c39
00000150: 0853 7c3a ca9e 82bb d8ee c13a 48cd 7a3a
00000160: f454 9f39 dc10 37bb 2aa8 91bb 7873 e3ba
00000170: e952 d4ba d885 10bb 163b 9739 9aee 50ba
00000180: 398f e0ba dcbe b635 0000 0000 0000 0000
00000190: 0000 0000 bd35 3436 269a 24bb e761 0137
000001a0: 39e9 593b 7be1 313a 113a 3239 1cfa a6b9
000001b0: f775 6f3a 0000 0000 0000 0000 0000 0000
000001c0: 0000 0000 0000 0000 0000 0000 0000 0000
000001d0: 0000 0000 0000 0000 0000 0000 0000 0000
000001e0: 0000 0000 0000 0000 0000 0000 5397 ab3b
000001f0: ed14 30bb d474 a23b ea3e 003c f536 bebb
00000200: 1d91 023b e4c2 1dbc aade 1cbc 192d 69ba
00000210: 508c 123b 4bb0 19ba d6a4 843b fa6d 9d3b
00000220: eafa b73b 2978 703a 7120 4a36 0000 0000
00000230: 0000 0000 0000 0000 7571 c736 078a bdbb
00000240: 8ac7 5cbb 0c59 47ba f066 0cba cc9d cc3a
00000250: 78b8 19ba 416d 153b 0000 0000 0000 0000
00000260: 0000 0000 0000 0000 0000 0000 0000 0000
00000270: 0000 0000 0000 0000 0000 0000 0000 0000
00000280: 0000 0000 0000 0000 0000 0000 0000 0000
00000290: 3cda 7ebb cc92 a6bb 6839 da39 39a4 9bbb
000002a0: 8080 4aba 8701 41bb fa0a 55ba 286a b8bb
000002b0: ac87 5cbb 0e44 0abb fbf6 21bb ec44 12bb
000002c0: b452 223b fca6 dfba 521d 2b3a f48a 1a35
000002d0: 0000 0000 0000 0000 0000 0000 04ad 9835
000002e0: 5a92 dbbb 6ebe b7bb 9b5f 02bb 4ba2 843a
000002f0: f8ca 8eba 5139 cbba 7cc5 2439 0000 0000
00000300: 0000 0000 0000 0000 0000 0000 0000 0000
00000310: 0000 0000 0000 0000 0000 0000 0000 0000
00000320: 0000 0000 0000 0000 0000 0000 0000 0000
00000330: 0000 0000 c5f1 8d3a ffc8 4fbb 4d5b 21bb
00000340: ad64 ae3b 2204 02bb c18c 31b9 150b b3bb
00000350: 7e9e 6e3b 0185 ef3a 58e6 c93a 2e52 c1b9
00000360: 4405 603b 50a1 043c 51cf 343b 1642 f1ba
00000370: e2e6 6736 0000 0000 0000 0000 0000 0000
00000380: 9ecc e436 547b e53a 50b1 40bb b4ab c7ba
00000390: b07e b3b9 dc85 d9ba e5bd 833a d4db 083b
000003a0: 0000 0000 0000 0000 0000 0000 0000 0000
000003b0: 0000 0000 0000 0000 0000 0000 0000 0000
000003c0: 0000 0000 0000 0000 0000 0000 0000 0000
000003d0: 0000 0000 0000 0000 1b4f f83b e803 5cbb
000003e0: 501e 623b fe21 7e3a bd8e 7f3b 25e4 9cb9
000003f0: caff 203b cc0e 96bb 7fa6 7abb fa79 68ba
0.003372671 0.0005133555 -0.00094200403 0.003814649 -0.0032516706 0.0032222853 -0.007876011 0.004356371
0.005421007 0.0038318904 0.00080353796 0.0019158217 0.00020832132 0.004935988 0.0006917502 1.3222752e-06
0.0 0.0 0.0 2.6097225e-06 0.0034848186 0.0008987785 -0.00123675 -0.00093259633
0.0007452112 0.00021862617 0.001005197 0.0 0.0 0.0 0.0 0.0
0.0 0.0 0.0 0.0 0.0 0.0 0.0 0.0
0.0 0.000576353 0.0040369816 -0.0018801707 -0.000928091 0.00028539536 0.001841714 -0.0006423422
0.008478626 0.004097308 0.002012584 -0.000946525 -0.0007388217 -0.00015703482 -0.0006445825 -0.0015087044
-1.3406269e-06 0.0 0.0 0.0 -2.6483021e-06 0.004919887 0.004660884 0.0007793705
-0.0027932832 0.00167285 -0.00035491382 -0.00018316104 0.0 0.0 0.0 0.0
0.0 0.0 0.0 0.0 0.0 0.0 0.0 0.0
0.0 0.0 -0.0017894177 0.00024058005 0.000962541 -0.0039862143 0.0014795912 0.00095673325
0.00030390138 -0.0027933633 -0.0044450955 -0.0017353138 -0.0016199026 -0.0022052433 0.00028844987 -0.0007970125
-0.0017132527 1.3615604e-06 0.0 0.0 0.0 2.685337e-06 -0.0025116294 7.711794e-06
0.0033250584 0.00067856134 0.00016997034 -0.00031848333 0.00091347046 0.0 0.0 0.0
0.0 0.0 0.0 0.0 0.0 0.0 0.0 0.0
0.0 0.0 0.0 0.005236545 -0.0026867941 0.0049577747 0.0078275 -0.005804891
0.001992292 -0.009628985 -0.009574572 -0.00088949647 0.0022361465 -0.00058627565 0.0040479703 0.00480437
0.005614628 0.00091731787 3.011923e-06 0.0 0.0 0.0 5.9438703e-06 -0.0057842764
-0.003368827 -0.00076045166 -0.0005355915 0.0015610992 -0.0005863975 0.0022800716 0.0 0.0
0.0 0.0 0.0 0.0 0.0 0.0 0.0 0.0
0.0 0.0 0.0 0.0 -0.0038887402 -0.0050834175 0.0004162297 -0.0047498015
-0.00077248365 -0.0029450373 -0.0008126941 -0.005627889 -0.0033650203 -0.0021097693 -0.0024713862 -0.0022318913
0.0024768533 -0.0017063315 0.00065275014 5.7571674e-07 0.0 0.0 0.0 1.1375237e-06
-0.006700796 -0.005607418 -0.001989341 0.0010119168 -0.001089423 -0.0015504753 0.00015713827 0.0
0.0 0.0 0.0 0.0 0.0 0.0 0.0 0.0
0.0 0.0 0.0 0.0 0.0 0.0010829499 -0.0031705496 -0.002462107
0.00532206 -0.001983889 -0.0001693247 -0.0054639676 0.0036410387 0.0018273891 0.0015403731 -0.00036873057
0.0034182826 0.0080951005 0.002758939 -0.0018406536 3.4556074e-06 0.0 0.0 0.0
6.81875e-06 0.0017508068 -0.0029402561 -0.0015233667 -0.0003423593 -0.0016595679 0.00100511 0.002088298
0.0 0.0 0.0 0.0 0.0 0.0 0.0 0.0
0.0 0.0 0.0 0.0 0.0 0.0 0.0075777895 -0.0033571664
0.003450293 0.0009694396 0.003899499 -0.0002992462 0.0024566525 -0.0045794006 -0.0038246212 -0.00088682736
