isaacgymenvs/isaacgymenvs/checkpoints/last_FactoryTaskPegHoleInsertionGPT_ep_1024.pth (torch, 652698 bytes, 37 tensors)

value_mean_std.running_mean f8 [1]
000000 9b 51 48 44 3b 97 47 40
       47.18149617701712

value_mean_std.running_var f8 [1]
000000 98 03 99 7a df f2 79 40
       415.1795602776633

value_mean_std.count f8 []
000000 00 00 00 10 00 00 7e 41
       31457281.0

running_mean_std.running_mean f8 [41]
000000 0a 37 cd c2 9d 40 57 bf 81 a5 f1 13 80 ec 6d bf
       -0.0014192143091408837 -0.0036528111955262403
000010 a0 23 e8 c2 d6 de dc 3f 78 98 2a 10 79 30 a2 bf
       0.45110100778452455 -0.03552606890052429
000020 fa 48 6d ea a4 01 ef 3f 63 14 ff d9 0f dd 8c 3f
       0.9689507082605637 0.014093517151090923
000030 49 8c d7 37 cb 8a 9a bf e3 d6 f3 86 71 9b 5f bf
       -0.02592008140880989 -0.0019291504539160002
000040 13 d5 b6 2f 1e 5a 56 bf 06 36 a4 91 75 f7 a9 bf
       -0.0013642592228795866 -0.050716089275834306
000050 59 5f 66 70 00 09 92 3f 4d f0 8b eb 42 01 90 3f
       0.017612463817925448 0.015629811884523104
000060 5c 09 93 be ca 02 9d 3f c7 0e e1 f7 09 fe 1d 3f
       0.028330963021980224 0.00011441169587649977
000070 fb 2a 86 9a 67 2c 3d bf 1d 8b 46 ae dd 2c da 3f
       -0.0004451516092777577 0.40898839968774486
000080 00 00 00 00 00 00 00 00 00 00 00 00 00 00 00 00
       0.0 0.0
000090 00 00 00 00 00 00 00 00 35 df cc cc ee ff ef 3f
       0.0 0.9999917984014021
0000a0 c7 0e e1 f7 09 fe 1d 3f fb 2a 86 9a 67 2c 3d bf
       0.00011441169587649977 -0.0004451516092777577
0000b0 a2 d1 6d 5d 8b 99 d9 3f 00 00 00 00 00 00 00 00
       0.3999966061012633 0.0
0000c0 00 00 00 00 00 00 00 00 00 00 00 00 00 00 00 00
       0.0 0.0
0000d0 35 df cc cc ee ff ef 3f 35 af 27 3e 2f 2a 4a bf
       0.9999917984014021 -0.0007984858205509539
0000e0 dd 6b 41 fe ed db 45 3f 34 83 a0 26 15 68 da 3f
       0.0006670867992498681 0.4126026990143601
0000f0 86 6a 9b ab 0d f0 84 3f 71 87 64 bf 73 b9 64 bf
       0.010223490523846534 -0.002529836721024852
000100 6c cf f9 58 58 c8 86 3f 41 a6 86 9a 70 cb ed 3f
       0.011124315467192246 0.9310839670262753
000110 35 af 27 3e 2f 2a 4a bf dd 6b 41 fe ed db 45 3f
       -0.0007984858205509539 0.0006670867992498681
000120 a4 17 a1 e9 ad 01 dc 3f 86 6a 9b ab 0d f0 84 3f
       0.437602499154645 0.010223490523846534
000130 71 87 64 bf 73 b9 64 bf 6c cf f9 58 58 c8 86 3f
       -0.002529836721024852 0.011124315467192246
000140 41 a6 86 9a 70 cb ed 3f
       0.9310839670262753

running_mean_std.running_var f8 [41]
000000 7a 7b 06 9b 8c 6e 66 3f e2 27 f0 51 74 29 67 3f
       0.002738260860680905 0.002827384174001844
000010 a2 4d bc 22 49 ea 64 3f 17 31 3a 37 ae 91 98 3f
       0.0025531223708498843 0.02399322712021598
000020 e4 c9 cb fe 0d bc 86 3f 14 d8 3e fd 09 fa 73 3f
       0.011100873316057532 0.004877127666921072
000030 8a 41 5c 8e eb ba 93 3f d5 3f 01 76 a7 80 7d 3f
       0.019267731250751242 0.007202772278176857
000040 cd c3 ac 83 4f 27 80 3f 87 37 e2 3c eb 24 8c 3f
       0.007887479024789723 0.013742292209169239
000050 ba 96 9f af 8a 5f a4 3f 1b 08 5c d2 67 16 aa 3f
       0.039791425646212145 0.05095219080796217
000060 ab c9 08 2d 20 95 a3 3f 26 c5 ce cf b1 65 6b 3f
       0.03824711370215835 0.0033443901906699157
000070 0f df ad 8f be 75 6b 3f 01 4f 69 4d fb 42 b8 3e
       0.0033520433329917785 1.4461068552810792e-06
000080 aa ba dc fe 10 11 71 3e aa ba dc fe 10 11 71 3e
       6.357828371821822e-08 6.357828371821822e-08
000090 aa ba dc fe 10 11 71 3e ac b1 1d 86 65 77 e1 3e
       6.357828371821822e-08 8.328625145736405e-06
0000a0 26 c5 ce cf b1 65 6b 3f 0f df ad 8f be 75 6b 3f
       0.0033443901906699157 0.0033520433329917785
0000b0 b3 de a3 b6 c3 40 b7 3e aa ba dc fe 10 11 71 3e
       1.3859859913627193e-06 6.357828371821822e-08
0000c0 aa ba dc fe 10 11 71 3e aa ba dc fe 10 11 71 3e
       6.357828371821822e-08 6.357828371821822e-08
0000d0 ac b1 1d 86 65 77 e1 3e 67 8e 5c 74 40 16 96 3f
       8.328625145736405e-06 0.02156925878729368
0000e0 b5 53 6e f2 69 5b 9d 3f 4d d9 77 55 2f 41 80 3f
       0.02866902868443662 0.007936830325871691
0000f0 bc 07 e8 52 f3 b5 91 3f 8f 27 f4 26 7e 1d 92 3f
       0.017295648513033987 0.017690631034418976
000100 c9 cd 39 0e f3 64 9c 3f fa 72 3d 67 6d 1f b2 3f
       0.02772884153678293 0.07079204340466197
000110 67 8e 5c 74 40 16 96 3f b5 53 6e f2 69 5b 9d 3f
       0.02156925878729368 0.02866902868443662
000120 42 77 df ee 46 41 80 3f bc 07 e8 52 f3 b5 91 3f
       0.007937006153891372 0.017295648513033987
000130 8f 27 f4 26 7e 1d 92 3f c9 cd 39 0e f3 64 9c 3f
       0.017690631034418976 0.02772884153678293
000140 fa 72 3d 67 6d 1f b2 3f
       0.07079204340466197

running_mean_std.count f8 []
000000 00 00 00 20 00 00 6e 41
       15728641.0

a2c_network.sigma0 f4 [12]
000000 dd c6 c5 bf bc db ad bf 0e df cf bf 55 7e 2b bf
       -1.5451313 -1.3582683 -1.6239946 -0.6698964
000010 9d 73 0d bf 06 fc 3f bf 7e f1 1b be 26 70 4e bd
       -0.55254537 -0.7499393 -0.1522884 -0.05039992
000020 c4 43 f9 bc 27 31 c0 bd a2 d5 ee bc b8 04 f4 bd
       -0.030427821 -0.09384375 -0.029154602 -0.119149625

a2c_network.actor_mlp0.0.weight f4 [256, 41]
000000 49 2a 2c 3e 93 36 a5 3e bc ad 42 3e 16 64 ef 3d
       0.16813006 0.322682 0.19011587 0.11689012
000010 25 77 10 be 2d d9 48 bc 76 77 9c 3e 8a 3e 97 3b
       -0.1410795 -0.01225881 0.3055989 0.0046156095
000020 07 ca 29 3d e9 58 23 be 77 87 fd 3d d9 d9 a6 bd
       0.041452434 -0.15951885 0.123793535 -0.0814702
000030 5c b5 ad bd 9f 68 da 3c 71 27 a8 3d e4 33 41 bd
       -0.08481857 0.026661215 0.08210648 -0.047168627
000040 fd 4f fa 3d e0 40 e3 bd c6 1b 21 3c a9 ec 1a be
       0.12222288 -0.11096358 0.009833282 -0.15129341
000050 60 ef 25 3c 0f 98 ac bc ee 8c 5e 3b 03 46 05 bd
       0.010127872 -0.021068601 0.0033958512 -0.03253747
000060 51 a3 04 3e 73 92 bd bd 73 26 0d be ad 72 bc be
       0.12952925 -0.092564486 -0.13784198 -0.3680624
000070 a9 ae a6 3e 31 6c b1 3e be 9f 96 3e 67 be 10 bf
       0.3255513 0.34652856 0.2941875 -0.5654053
000080 21 e3 28 be ed 44 9c be 83 8b c2 be 82 4d 7e 3e
       -0.16492893 -0.30521336 -0.37997064 0.24834254
000090 a5 42 b3 3e 57 1f 8c 3e dd 64 04 bf 0d 92 ee bd
       0.35011783 0.2736766 -0.51716405 -0.11648951
0000a0 d9 23 cd bd c9 00 ab bd 8d 56 d1 3e 5f 89 18 bd
       -0.10016603 -0.08349759 0.40886346 -0.037240382
0000b0 eb 21 88 3d a2 49 6c bd 62 cb a2 b9 c5 f6 18 3d
       0.06647094 -0.05768741 -0.0003105058 0.037344713
0000c0 8f c4 f1 3c 5b b4 a6 3d cd 56 c0 3c 91 02 e6 3d
       0.029512672 0.08139869 0.02347889 0.11230958
0000d0 65 ba 02 be c1 02 f6 bd 76 fd 5f 3e f1 fd 99 bd
       -0.12766416 -0.12012244 0.21874031 -0.075191386
0000e0 48 68 94 bd 57 bd 1a be 41 2a b7 bd dd cb 1f 3d
       -0.072464526 -0.1511129 -0.08943606 0.03901278
0000f0 69 b7 1a bd 42 1e 1a bd cc 41 9a bc 44 71 fd bd
       -0.03777257 -0.037626512 -0.018830203 -0.12375119
000100 5f ad 07 be 46 20 b0 bd 32 f7 0b be 4b cc ee bd
       -0.1324973 -0.08599906 -0.13668516 -0.116600595
000110 9d c8 65 3e 77 ce 02 bf e8 87 ce be d3 7e ea bd
       0.22439809 -0.5109629 -0.40338063 -0.11449971
000120 3f b3 1b be 87 ca b0 bd 04 b4 1f bc 3e 98 8d bd
       -0.15205096 -0.08632379 -0.009747509 -0.069138035
000130 8f 95 1b bf 57 5e 0b bf d8 67 01 3d 97 5a dc bd
       -0.60775083 -0.54440826 0.031593174 -0.10759466
000140 a0 00 39 bd 47 5a 0f be a8 53 3b be b3 b8 68 be
       -0.04516661 -0.13999282 -0.18293631 -0.22726707
000150 0e db 29 bd 48 20 92 bd 9d 1d 28 3e f5 a2 8b 3d
       -0.041468672 -0.071350634 0.16417547 0.06818191
000160 85 2c d1 3d c7 4e b9 3d 62 a6 94 be b1 69 37 3e
       0.102135696 0.09048229 -0.2903319 0.17911412
000170 16 da c6 3d 08 13 01 be 38 a8 02 be bc dc 4c bd
       0.09709565 -0.12604916 -0.12759483 -0.050015196
000180 94 7f 4a 3d 37 90 89 bd 94 0b 79 3d f9 3d 03 be
       0.049438074 -0.0671696 0.060802057 -0.1281661
000190 1f 76 ed 3d 68 44 17 be 25 51 a0 3d f2 16 19 3d
       0.115947954 -0.14772189 0.07827977 0.037375398
0001a0 2c a6 42 3d 4c 1b 01 3e b0 ae 11 3e 7d 9c fd bd
       0.047521755 0.12608069 0.14226794 -0.123833634
0001b0 e0 f3 cb 3b 3c 60 8d 3e c7 f4 67 bc 19 40 88 3e
       0.0062241405 0.27612484 -0.014157481 0.26611403
0001c0 68 4a a3 3e 5f 64 54 be 5a 2a 0b 3d 86 e5 b7 3b
       0.31892705 -0.20741414 0.033975936 0.005612078
0001d0 b3 c1 c9 3e 0e df a6 bd 65 92 06 3f 22 0e 58 3e
       0.39405593 -0.08148013 0.5256713 0.21099141
0001e0 c2 e5 94 bd ee 9d 3f be 73 69 85 3c 95 bf 7e bd
       -0.07270385 -0.18712589 0.016285634 -0.062194426
0001f0 8c cd 4f be 69 2b 8b 3e 5f 30 2e 3d 21 c1 42 bd
       -0.20293254 0.27181557 0.0425266 -0.047547463
000200 9b c5 1b be f4 ac b9 3d a2 58 13 3e 24 ca f3 bd
       -0.15212099 0.09066191 0.1438928 -0.1190379
000210 53 c5 af bd 16 1f 46 bd b7 6b 4f be ae ab ad 3d
       -0.085825585 -0.04836949 -0.20255934 0.08480011
000220 7f b2 01 3e 2e d4 05 be 57 81 ba 3d 8d 3a a5 3d
       0.12665747 -0.13069221 0.09106701 0.08067808
000230 05 fd e7 3c fe ce 63 bd 58 fd 0a 3e da e6 b3 3d
       0.028318891 -0.055617325 0.13573205 0.08784266
000240 fc 0d 99 3d fc 13 e2 3c df 63 29 bd 67 de 88 3c
       0.074733704 0.02759742 -0.04135501 0.016707612
000250 c6 01 e2 bc b1 ac fb 3b 7d 62 c6 3d c8 f4 1e 3e
       -0.027588736 0.0076804985 0.09686754 0.15523064
000260 ec 59 69 bd 77 5d b2 3d f1 70 1d be d0 91 63 bd
       -0.05697052 0.08709233 -0.15375115 -0.05555898
000270 b0 b0 18 3e 3f 26 27 3d 3b 78 f7 bd 49 67 cd bd
       0.14911151 0.04080796 -0.12083479 -0.10029466
000280 21 d5 81 3e 33 f2 c2 bd ed 30 5d bd 4f 9c 8e 3c
       0.25357917 -0.09518852 -0.054001737 0.017408518
000290 07 e0 50 be 78 c2 55 be 73 a1 97 be e3 ae 0f 3e
       -0.2039796 -0.20874965 -0.29615363 0.14031558
0002a0 17 c0 88 3d 4d 5c 1f 3d ac 03 cf bd d8 24 a2 bd
       0.06677263 0.038906384 -0.10108122 -0.07917184
0002b0 fb 11 b5 bc 71 bc 2d 3e 78 aa 93 3c b6 25 dc bd
       -0.0221033 0.16966416 0.018025622 -0.1074938
0002c0 17 a9 df bd a1 de 26 3d d3 48 2a bd 06 60 2b 3e
       -0.10920923 0.04073966 -0.041573357 0.16735849
0002d0 ff 6e 91 bd 73 3c 00 bd 4d 17 1f be 73 d0 21 3e
       -0.07101249 -0.03130765 -0.15536232 0.15802173
0002e0 36 ca 5f 3e bd 70 ee 3d 53 53 63 bd 56 d5 1d be
       0.21854481 0.11642597 -0.055499386 -0.15413412
0002f0 9f e2 01 be f5 81 ee 3d e9 90 03 3e 15 74 c2 3e
       -0.12684105 0.11645881 0.12848248 0.3797919
000300 01 46 55 3e b3 58 33 3f 56 70 c0 bd 7f f2 cc be
       0.20827486 0.7005722 -0.093964264 -0.4002876
000310 8e 77 1c be 6d 69 18 be 26 e7 9f 3e 04 ea 4b 3d
       -0.15279981 -0.14883967 0.3123104 0.04978372
000320 af 06 21 3f bc ae 3a be 92 b4 9e be 61 02 04 be
       0.62900823 -0.18230718 -0.3099714 -0.12891532
000330 b9 a5 d6 bd 5a fe 01 bd 39 bf 17 bd e8 4a 6c 3e
       -0.10480828 -0.03173671 -0.0370476 0.2307545
000340 95 a9 83 3d ad 70 24 be 7d 8b 8e 3d 25 0e 0d 3d
       0.064288296 -0.16058607 0.06960199 0.034437317
000350 a6 42 0c be 1d 42 c2 bd eb 0f ac 3e 63 42 19 be
       -0.136973 -0.09485266 0.33605894 -0.14966731
000360 fe af 89 bb cd bb b7 bd 07 cf 3b 3e f2 67 d4 bd
       -0.004201888 -0.08971367 0.18340693 -0.103713885
000370 b4 cf 8a 3d eb 34 97 bd 50 5e 6d 3d 5f 2f 16 3e
       0.067778975 -0.0738314 0.05795127 0.14666508
000380 2d b0 89 bd 47 9f 90 3d bd d3 a2 bc 0f 1f 33 be
       -0.06723056 0.0706163 -0.019876355 -0.17492317
000390 76 7e 99 3d e3 c1 1e be 1d 8f c6 3d 64 bc 92 3d
       0.07494824 -0.1550365 0.096952654 0.07164839
0003a0 6b 95 9f 3d 7f 7e 27 3e cd c1 97 3e 0b 82 bd bd
       0.07792171 0.16356848 0.29640046 -0.09253319
0003b0 bb 1c 1d bd 40 36 f9 bd e2 b1 d5 bc bb 4f 27 be
       -0.038357478 -0.121685505 -0.026085798 -0.16339009
0003c0 16 3a 3f 3e 6e b8 b1 3e 9e 14 44 be 25 65 32 be
       0.18674502 0.3471102 -0.1914849 -0.17421396
0003d0 30 d1 ea bd 30 ce 0c 3e 93 b1 dc 3d 7d c3 fa bd
       -0.114656806 0.1375053 0.10776057 -0.12244318
0003e0 a9 3d ba bd 95 b8 07 3e 0f ba 93 be 80 f1 68 be
       -0.09093792 0.13254006 -0.2885289 -0.22748375
0003f0 37 9f 8f 3e aa 4e a3 3c 11 1f c2 bd 2d c6 c0 bd
       0.2805116 0.01993497 -0.09478582 -0.09412799

a2c_network.actor_mlp0.0.bias f4 [256]
000000 56 b4 3d bd 3e 49 a6 ba 97 ad c5 bc e3 df e0 3c
       -0.04631456 -0.0012686623 -0.024130626 0.027450508
000010 39 21 43 3d e6 f4 80 bd 2c 11 a3 3d 89 b2 38 bd
       0.047639105 -0.06296711 0.0796226 -0.04509214
000020 0d fd b0 3d 26 2e bc 3d f4 e3 b2 3d f2 d5 8a bd
       0.086420156 0.091884896 0.08734885 -0.06779088
000030 8d 32 09 3c bf 2d b4 3d 3e 8b 1b 3e 12 59 dd 3a
       0.008373869 0.08797788 0.15189835 0.0016887507
000040 fc 45 4c 3d e9 7c e9 3d 83 0d a7 bd 63 5a 52 3d
       0.04987143 0.11400778 -0.08156874 0.05135573
000050 92 94 ec bd 05 ae 9d bb f7 94 9d 3d 48 b7 40 bc
       -0.11551775 -0.0048120045 0.076944284 -0.011762448
000060 e5 ac bd 3c 25 48 89 3d 71 60 88 bb 7c 16 ca 3d
       0.023153732 0.067032136 -0.0041618873 0.0986757
000070 99 f7 b0 bd e8 47 d6 3d 77 ea 0b bd 44 95 30 3e
       -0.086409755 0.10462934 -0.03415915 0.1724444
000080 0b f1 45 bc e3 e9 ec 3d e9 bd dd bc b4 78 50 3d
       -0.012081395 0.11568048 -0.027068095 0.05089636
000090 eb eb 98 3e a0 a9 d0 bc 59 b8 49 bb a2 8a e5 bc
       0.2986749 -0.025471509 -0.0030780046 -0.028020207
0000a0 2a 4a 48 3d 91 bb 22 bb b0 e1 03 bd 6f 67 fb 3d
       0.048898853 -0.0024831037 -0.032197654 0.12275588
0000b0 bb c5 0e bd 40 84 45 3d 92 db 83 bc e2 bb 94 bd
       -0.03485654 0.048221827 -0.01609591 -0.07262398
0000c0 8b 18 19 3e a9 51 57 bd 5b 9f 1e 3e 33 e5 25 3e
       0.14950769 -0.05256811 0.15490477 0.16200714
0000d0 e5 36 9e 3c df 9a cf 3d c6 8a 00 3d ae 31 c9 bb
       0.019313285 0.10136961 0.031382345 -0.0061399555
0000e0 d8 bd 68 3e 72 95 88 bd cf d9 85 3d d3 50 10 3c
       0.2272867 -0.066691294 0.06535684 0.0088083325
0000f0 e1 a1 d1 3c 51 ed 31 bb 07 04 71 bc 1a ad a1 3d
       0.025589885 -0.0027149508 -0.014710433 0.07894345
000100 f1 0f 9b 3d 5d 97 1d bd 52 e0 bf 3d 05 e0 e3 bd
       0.075714 -0.03847443 0.093689576 -0.11126713
000110 4d 50 35 3d 49 09 e9 bb ef 18 87 bd 4c 28 16 bc
       0.044266034 -0.0071117026 -0.065965526 -0.009164881
000120 bb 1a dd bb c3 8f be 3a 25 6c ba 3d 92 63 93 3b
       -0.0067475713 0.0014538694 0.09102658 0.0044979537
000130 f2 15 3f bd 11 9d cc 3d 44 18 6e 3e e4 d9 01 3e
       -0.046651788 0.099908955 0.23251444 0.12680775
000140 29 b5 b0 3d 28 ab a1 3d de 70 09 3e cf 7e 07 3e
       0.086283036 0.078939736 0.13421962 0.13231967
000150 8a d2 ed 3d d2 0d c8 bc 9e 1d ed bd 87 c9 74 3d
       0.11612423 -0.024420653 -0.11577915 0.059762504
000160 4a 4c c7 3d 84 95 af 3d 8b 9d ae 3d 6a 35 64 3d
       0.09731348 0.0857344 0.08526143 0.055715002
000170 71 24 30 3e b5 38 1c bd e7 0c b3 3d f5 b6 af 3d
       0.17201401 -0.038140018 0.08742695 0.08579818
000180 a2 be c5 3c 8d 4f 48 3e 30 5d d3 bd 97 bf 59 3e
       0.024138752 0.19561596 -0.103205085 0.21264492
000190 7c 12 0e 3d f6 54 df 3c 96 cb cc 3d 32 19 d7 3d
       0.034685597 0.027262192 0.099997684 0.105028525
0001a0 1b 91 24 3d 64 d1 40 bd fe 83 81 3d c7 b1 94 bc
       0.040177446 -0.04707469 0.06324004 -0.018151177
0001b0 ee 4c 94 bb a5 9c 85 3d 25 d6 30 3e 76 b4 2d bc
       -0.0045257723 0.06524018 0.1726919 -0.010602107
0001c0 cb 42 4f 3b ee 57 ad 3d 94 84 7b 3d 3b 76 11 bc
       0.0031625505 0.08464037 0.061405733 -0.008878286
0001d0 45 e7 df bc fc 56 f1 3d 14 73 a1 bd 49 51 16 3e
       -0.027331958 0.11784169 -0.078832775 0.14679445
0001e0 f5 b8 1d be bd 79 7d bc 12 66 bd bd fa ca 4d 3e
       -0.15402587 -0.015470919 -0.09247984 0.2009696
0001f0 54 11 87 3c 1f 8a 6c 3e 4f 8c 13 3d 00 f7 db bc
       0.016487755 0.23099564 0.03602248 -0.026851177
000200 dc cc c3 3d db 16 e3 bd 13 69 96 3c 14 30 d4 3d
       0.09560558 -0.11088344 0.01836065 0.10360733
000210 ea b3 b3 bc 82 8f 88 3d b9 ed e5 3b 84 1a 08 3d
       -0.021936376 0.06667997 0.007016864 0.033228412
000220 39 f1 b2 bd 77 4f 7d 3d fd 14 a5 bc c0 d5 66 bd
       -0.08737416 0.06184336 -0.02015161 -0.05635619
000230 1f a9 cb 3d 14 6f 4e 3d 6e 96 60 bd 56 8c 1a 3e
       0.09944367 0.0503989 -0.05483096 0.15092596
000240 fc 2f e0 3c 51 ab db 3c d3 ba 97 3c fb b7 96 3c
       0.02736663 0.026815088 0.018521702 0.018398276
000250 63 75 da bd 3f bb 17 bd 98 29 85 3c 52 39 49 3e
       -0.10666921 -0.037043806 0.016255185 0.19650772
000260 c0 43 ee bd e7 44 18 3e e3 e8 53 3e 17 b8 e8 3c
       -0.11634016 0.14870034 0.20694308 0.028408093
000270 0e 3b 2b 3d 96 d8 17 3e 0a 3e 68 bc b3 52 0a bc
       0.041804366 0.14828715 -0.0141749475 -0.008442569
000280 33 9f 16 3d 9b ed df bd e6 75 4d bd 0d 87 e7 bd
       0.036772918 -0.109339915 -0.050161265 -0.11305056
000290 28 24 1d bd 91 cf 15 3c c3 a2 1d be bc 19 92 bd
       -0.03836456 0.009143726 -0.1539412 -0.07133815
0002a0 52 95 2f bd 81 10 9e bc 9a 7e b6 3d 4d 94 d3 3c
       -0.042867012 -0.019294979 0.08910866 0.025827551
0002b0 9b 0e d5 3d 34 7f 8d 3d 8c 6e c6 3d 77 ac 13 bc
       0.104031764 0.06909028 0.09689054 -0.009013287
0002c0 56 a8 11 be ae 9a 1c bd f3 28 8a bd c6 84 b4 3d
       -0.14224371 -0.03823345 -0.06746092 0.08814387
0002d0 d9 57 80 3d 1d b0 1d bd 6f 68 1a 3b 13 15 0a 3e
       0.062667556 -0.038498033 0.0023560782 0.13484602
0002e0 a6 f8 5b 3d ae 50 2f 3e a2 e5 e5 3c 03 e3 51 3d
       0.053703927 0.1712062 0.028063599 0.051241886
0002f0 e3 2d 55 3e ba 33 4c 3d 60 86 0a bd 87 94 cd bd
       0.20818286 0.049854018 -0.033819556 -0.10038095
000300 a2 02 ce 3c 22 9c ea bb 2d 64 95 bc 9c 05 25 3d
       0.02514774 -0.0071597258 -0.018236244 0.040288553
000310 55 04 8e 3d 76 dc db bc 9b a2 9e 3d 5a f4 1f 3e
       0.0693442 -0.026838522 0.07745858 0.15620556
000320 f8 64 db bc d0 32 fb bc 7c 0b 37 be d6 05 60 3d
       -0.026781544 -0.030663878 -0.17875475 0.054693066
000330 70 08 a3 bd c8 80 85 bd 71 ea 29 3d 07 42 c5 bc
       -0.07960594 -0.06518704 0.041483346 -0.024079336
000340 60 c9 d6 3d af e0 a9 bc 8f 66 98 3c 09 54 2a 3e
       0.10487628 -0.02073702 0.018603591 0.1663362
000350 9e b4 f5 3b bf a8 89 bd 22 c4 2f 3d bf 8d 96 3d
       0.007498338 -0.06721639 0.042911656 0.07351255
000360 ac af cc bc 07 7d 2b 3e c1 50 5c 3d a5 05 0f 3d
       -0.02498611 0.16746913 0.05378795 0.034917492
000370 6f 07 9f bc 67 ef 39 3e 6f 86 f6 3d 8b 09 a2 3d
       -0.019412724 0.18157731 0.1203736 0.079119764
000380 a6 84 65 bc b8 1b 5d bd 48 53 4a 3d c4 81 fa 3d
       -0.014008677 -0.053981513 0.04939583 0.12231782
000390 01 6d d0 3d 8c ec d9 3d 3d d2 81 3d 6a 1f f3 3c
       0.10177041 0.10640821 0.06338928 0.029678065
0003a0 e6 f7 8a bd 23 cf 9d bd 3f db d5 3d 4a 3c 9a bc
       -0.06785564 -0.07705524 0.104422085 -0.018827576
0003b0 07 26 7d bd 40 a9 b4 3d d5 fb 22 bd 4c b7 6e 3b
       -0.061803844 0.088213444 -0.039790947 0.0036425171
0003c0 47 81 49 bd 0c 37 cf 3d 27 53 70 3c c3 cd 41 bd
       -0.049195554 0.10117921 0.014668263 -0.04731537
0003d0 81 1a 11 bd 7f 7b 22 3d 35 43 e3 bc e4 b3 07 3e
       -0.035425667 0.039668556 -0.027742008 0.13252217
0003e0 a2 90 a7 3d 5d 43 31 3d 8b f9 a8 3d 75 2a 5a 3d
       0.081818834 0.043277133 0.082507215 0.053263146
0003f0 c3 c6 2e 3e 1f 35 41 bd 3b 22 97 bd 68 0e 23 3e
       0.17068009 -0.0471698 -0.07379576 0.15923464

a2c_network.actor_mlp0.2.weight f4 [128, 256]
000000 ee 04 fc 3d 55 5c 12 ba 38 58 11 3e 27 cd 49 3d
       0.12305628 -0.00055832166 0.14193809 0.049267914
000010 e6 99 43 3d b5 df 4a bc 0c f8 0f be 59 2c 5b 3d
       0.04775419 -0.0123824375 -0.14059466 0.05350909
000020 38 44 51 bd cf e2 d5 3c 96 a1 3a be c8 50 b1 3d
       -0.05109045 0.026109127 -0.18225703 0.08657986
000030 92 04 24 bd 87 62 01 be b6 2c 24 be 6a 6c f2 3c
       -0.04004342 -0.12635241 -0.16032681 0.029592711
000040 75 6c 03 3d 0b 2d e4 bc 6d 8b 19 3e 09 75 b1 3d
       0.032085855 -0.02785351 0.14994593 0.08664901
000050 b4 31 06 3d 1c 64 71 3d 56 a5 ce bc b8 73 ae 3b
       0.032762244 0.058933362 -0.025225323 0.0053238533
000060 f7 2c f9 3d 7f f4 c2 bc f4 d3 62 bd 0a 6b 48 3d
       0.121667795 -0.023798225 -0.055377916 0.048930205
000070 87 f0 60 be 95 e0 ed bc 8a 21 94 bc fb c3 e5 bd
       -0.21966754 -0.029037753 -0.018082399 -0.11219021
000080 2e 22 29 bd 95 b8 6f be f7 f9 c1 3b 58 29 b5 bd
       -0.041292362 -0.23410256 0.0059196907 -0.08845776
000090 82 93 3d 3d 56 0b 0e 3e ed 0f 02 3c 74 77 0d bd
       0.046283253 0.13871512 0.007938367 -0.034537748
0000a0 f0 05 12 bd 4b 98 01 bd d6 1d 76 bd 6c 70 5c 3d
       -0.035650194 -0.03163938 -0.060087048 0.05381815
0000b0 aa db e2 bd ad 03 c4 bd ac e3 b0 bd cb 87 36 3d
       -0.11077054 -0.095710136 -0.08637175 0.044563096
0000c0 1d 5d 95 bd 7e 04 7a 3d df 4d 6c be de d0 af bb
       -0.072931506 0.06103944 -0.2307658 -0.005365475
0000d0 08 51 04 bd 83 b2 b3 bd a1 3a 18 3d 3b bf 14 bc
       -0.03230384 -0.08774283 0.037165288 -0.009078796
0000e0 7c 45 2b bd b4 fb a4 bd 12 8b 23 bd 72 aa ca bb
       -0.041814312 -0.08055821 -0.03992755 -0.0061848694
0000f0 57 90 0c 3d 3a a2 3e bd fc ae dc bc e4 9e c9 bd
       0.03431734 -0.04654143 -0.026938908 -0.09844759
000100 c7 79 b0 39 1d eb ef 3d 89 0b b5 3d 40 f1 54 bd
       0.00033660067 0.11714766 0.08840091 -0.051987886
000110 1e 34 5f 3d f6 3b d3 3d 1e 27 6c 3d 28 93 00 3e
       0.054493062 0.10314171 0.057654493 0.12556136
000120 79 a0 d7 3d f9 bb 11 bd 8c bd e8 bc 46 0d 9c bd
       0.105286546 -0.035579655 -0.028410695 -0.07619719
000130 2f 04 c7 3c 31 06 04 3d 41 48 2e be a0 65 90 bd
       0.024293987 0.032232467 -0.1701975 -0.070506334
000140 62 21 98 bd ac c3 80 3d 33 56 6a 3c d8 eb ed 3c
       -0.07428242 0.062873214 0.014302778 0.029043123
000150 b8 6e eb 3b d1 d7 9a 3d 54 8b 59 3d 2f 37 c4 bd
       0.0071848296 0.07560695 0.05311139 -0.09580838
000160 5e 4b fd 3c 0c 22 47 be 59 c5 f3 bd b6 69 9f bd
       0.030919727 -0.19446582 -0.119028755 -0.07783835
000170 39 8e 9c be 73 64 56 3d 6c 62 bd bc 05 8e ca bb
       -0.30577257 0.05234189 -0.02311822 -0.006181481
000180 b0 7d cf bc cf a7 48 3d c7 31 dc bd 90 7a b7 3c
       -0.025328487 0.04898816 -0.10751682 0.02239731
000190 89 5f 18 bc 78 0e 4a 3c 01 3a 21 3d 72 63 f3 bd
       -0.009300121 0.012332551 0.039361957 -0.11884202
0001a0 91 57 99 bd 4d 07 92 3d 7a 5b f9 bd 5a cf 38 bd
       -0.07487405 0.07130299 -0.12175651 -0.04511962
0001b0 90 bf 6a bd 96 86 36 be f3 12 9f 3b 4c bf 42 3d
       -0.057311594 -0.17824778 0.004854554 0.047545716
0001c0 07 55 4e ba ec 7d 1f bd 6a cd b9 bd e7 1a 99 3d
       -0.00078709464 -0.038938448 -0.09072383 0.07475834
0001d0 c3 2e 8e 3c 0b a9 76 be c4 00 92 3b 7c 0f 11 3d
       0.017356282 -0.24087922 0.0044556577 0.035415158
0001e0 e5 b9 a5 bc 4b 07 07 bc fb 1f d0 3c 9f a4 42 bd
       -0.020230243 -0.008241485 0.025405874 -0.047520276
0001f0 54 ae f3 bd 5c 57 00 bd 52 7a 16 bd c3 0b 8b 3d
       -0.11898485 -0.031333312 -0.036737747 0.06789353
000200 4b c1 84 3d d1 96 8c 3b 01 80 12 39 7d 50 e3 bd
       0.0648218 0.0042904397 0.0001397133 -0.11099336
000210 35 82 ae 3c 1e 17 e6 3d 5c d1 97 3d c5 44 20 bd
       0.021302322 0.11234878 0.07412979 -0.039128084
000220 e0 b2 bc 3d 6c 0b c3 bc 7f 99 08 be a3 3a 8a 3d
       0.09213805 -0.023809157 -0.13339804 0.06749465
000230 66 0c b7 3c ba f7 64 bc c1 37 a3 3c 0e 66 44 be
       0.02234478 -0.013975078 0.019924046 -0.19179556
000240 d5 fc c1 bd 78 1f 9a bc 24 3b c1 3d dd b2 7f 3d
       -0.09472052 -0.018813834 0.09435108 0.062426437
000250 7c 9e 6a 3d 7e a9 a2 3d d5 ec 1a 3d b6 36 9a bd
       0.05728005 0.07942484 0.037823517 -0.075299665
000260 59 3d 38 3d 7f e0 12 be 99 26 08 be ee 24 03 bc
       0.04498038 -0.14343451 -0.13295974 -0.00800441
000270 72 27 27 bd b5 f7 75 3d 9d cb 21 be cb a7 79 3b
       -0.040809102 0.060050685 -0.15800329 0.0038094397
000280 f0 5f 8a bd 80 ed 4b 3d 8b 80 be bc 38 f2 ea 3c
       -0.0675658 0.049787045 -0.023254653 0.028679952
000290 50 6f 47 3d 16 48 a7 bd 45 1a fc 3c d0 d5 1f 3e
       0.04869014 -0.08168046 0.030774245 0.15608907
0002a0 ed 0b b3 bc 6e 7c a1 bd 62 01 cf bd b8 7c 5c bd
       -0.021856273 -0.07885061 -0.101076856 -0.05382988
0002b0 48 9c bf bd 77 e1 48 bd ec 20 09 bd 5f c6 60 bd
       -0.0935598 -0.049043145 -0.033478662 -0.05487668
0002c0 ee c0 ef 3a 7f 3a 19 bd ce 30 1c 3e 53 24 c5 bd
       0.001829175 -0.0374093 0.15252993 -0.09626069
0002d0 32 1b 0f 3d 88 d3 67 3d 47 44 5c 3c 22 f2 84 bd
       0.034938045 0.056598216 0.013444013 -0.06491496
0002e0 22 85 aa bc b1 cb 06 3c c0 f2 6f bd 5a f2 cd 3d
       -0.020815436 0.008227275 -0.058581114 0.100559905
0002f0 c8 2e 92 bd 00 57 9a bd dc fb 17 be 1a c3 5c 3d
       -0.07137829 -0.07536125 -0.1484217 0.053897
000300 70 09 c6 bb 24 20 e5 3d dc 84 39 bd 1d 99 97 bd
       -0.0060436055 0.11187771 -0.04529272 -0.07402251
000310 79 60 1f bd c9 62 2e 3e 36 3b 2b bd f5 82 1b 3c
       -0.038910363 0.17029871 -0.041804515 0.009491672
000320 cb b7 7b bc 21 ea 88 3d 84 2c ac bc 0f c6 16 be
       -0.015363644 0.066852815 -0.02101732 -0.14723991
000330 58 a6 26 bc 76 7e 03 bd cc c1 65 bc 54 1c cb 3d
       -0.010171495 -0.032103024 -0.014023256 0.099175125
000340 83 40 ec bd 1a 28 9d 3d 77 03 5a 3c 14 8c 29 be
       -0.11535742 0.076736644 0.01330649 -0.16557342
000350 87 fe 55 bc 5d 87 39 3d 1c 16 58 be 23 03 bb bd
       -0.013061172 0.045295108 -0.21102184 -0.09131458
000360 e1 ce 90 3d 10 12 0f 3e cf 0b 12 3c 4a ca 0b 3d
       0.07070709 0.13971734 0.008913948 0.034128465
000370 10 64 a6 bd cb 3f 9a bc dd a0 a3 bd 71 00 02 bc
       -0.08124554 -0.018829247 -0.079896666 -0.007934676
000380 83 a1 18 3d d6 fa 66 3d bc a7 ff bd 41 96 13 be
       0.037263405 0.05639156 -0.12483165 -0.14412786
000390 08 9e 04 3c 1d 9f f4 bb ba 25 4d be 53 17 e6 3d
       0.008094318 -0.007465257 -0.20033923 0.112349175
0003a0 2f 19 e1 bc bd cf 0d 3e 28 74 73 bc 6d fe 15 be
       -0.027477829 0.13848777 -0.014859237 -0.14647837
0003b0 b4 53 14 3c f8 b1 02 bd 0a 4a b2 3d 8d ac b8 3d
       0.0090531595 -0.031908005 0.08705528 0.090172864
0003c0 dc e6 df bd d6 18 5c 3b d2 3f 9a bc c1 c9 dd 3d
       -0.10932705 0.003358414 -0.01882926 0.10829497
0003d0 ae 0a 35 bd fa 11 2d bc f3 93 f1 3b a6 cf 2c 3d
       -0.044199638 -0.010563368 0.0073723732 0.042190216
0003e0 e8 41 c8 bd 70 07 d0 bd bf 49 eb bb 95 1d 0d 3d
       -0.097781956 -0.101576686 -0.007180422 0.03445204
0003f0 ef 83 06 bd ac ef fe 3b d6 79 1c 3d 30 ce 19 be
       -0.032840665 0.007780036 0.03820213 -0.1502006

a2c_network.actor_mlp0.2.bias f4 [128]
000000 7c f0 41 be 8a 59 94 bd 37 2d 44 be 25 29 09 be
       -0.18939394 -0.07243641 -0.19157873 -0.13394602
000010 d7 1d bd bd d7 94 89 bc 91 c6 42 be 30 79 08 bd
       -0.09234207 -0.016794605 -0.1902106 -0.0333187
000020 a0 57 3f be 91 92 fe 3a 2b 99 cf 3d eb 2e e2 3d
       -0.1868577 0.0019422342 0.10136636 0.11044105
000030 f1 eb 08 be 92 a9 bf 3d 0d b2 09 be 53 d2 9b bd
       -0.13371255 0.09358515 -0.13446827 -0.076084755
000040 5d a2 e2 bb bb 0c a5 bd 69 52 3d 3e 63 e6 f2 3c
       -0.006916328 -0.08059069 0.18488468 0.029650873
000050 6c 1d 34 3e f4 c2 17 bd 77 f8 95 bd bb a4 2d be
       0.17589349 -0.037051156 -0.073227815 -0.16957371
000060 51 a7 04 be c7 ae 03 be 24 a6 d5 bd 38 1b 35 be
       -0.12954451 -0.12859641 -0.104320794 -0.17686164
000070 fc 38 31 be ae 76 4e 3d 1e 60 ce bd 5b b1 c6 bd
       -0.17306894 0.05040615 -0.10076927 -0.097017966
000080 0f fa dd ba 2a 34 a3 bd 5b 73 33 3d b2 59 c3 bd
       -0.0016935485 -0.07968934 0.043811183 -0.095385924
000090 0f 35 34 be 69 bb ee bd d0 dd 8e 3c f0 48 9c 3c
       -0.17598365 -0.116568394 0.017439753 0.019077748
0000a0 6f 23 7d 3e 90 1e 9e 3d c9 0d 0c be b8 d4 3b bc
       0.24720548 0.07720673 -0.13677134 -0.01146429
0000b0 fe 79 b8 bd ac 17 a4 3c b0 45 11 3d b8 5a bc bd
       -0.09007643 0.020030819 0.03546685 -0.09196991
0000c0 e5 bb af 3c b4 ed d8 bd dc ff b3 bd 4d db 4d be
       0.0214519 -0.10592213 -0.08789036 -0.20103188
0000d0 7e 72 af bd b5 fc b9 bb ab 3c 16 3d 1b 32 d1 3c
       -0.085667595 -0.005675877 0.03667895 0.025536587
0000e0 21 67 88 3d d7 82 31 be 3a 59 ef bd 1b a4 4f 3d
       0.06660295 -0.17335068 -0.116869405 0.050693613
0000f0 a5 67 cc bd 49 2c ae bd 57 88 d2 bd 3a a8 f0 bd
       -0.09980706 -0.085045405 -0.10279911 -0.11750837
000100 b2 ff b1 3b d7 37 0e be 02 52 2a bd d1 75 b4 3a
       0.0054320926 -0.13888489 -0.041582115 0.0013768022
000110 c4 5d 05 bd d6 22 22 3d 2f 7f 8e be e9 82 e3 bd
       -0.032560125 0.039584003 -0.27831408 -0.111089535
000120 79 08 5d bd df d3 62 be 63 da 99 bc 20 b9 c6 bd
       -0.05396316 -0.22151135 -0.018780893 -0.097032785
000130 2b c1 61 be ee 6c e7 bd ce d9 39 bd 19 fa e4 bd
       -0.22046344 -0.113000736 -0.04537373 -0.11180515
000140 d4 da 52 bc d3 80 7a 3b 24 74 5a be 0d d1 5c bd
       -0.0128695555 0.0038223758 -0.21333367 -0.053910304
000150 09 7e dc bd d4 51 fa ba 36 dc 8c bb 42 ab 87 3d
       -0.10766227 -0.0019097873 -0.004298712 0.06624462
000160 5f 8b 54 bd d3 83 c1 bd f1 56 07 be 81 3c 4f be
       -0.051890727 -0.094489716 -0.1321676 -0.20237924
000170 8a 23 21 bd 93 73 40 bd 66 38 c2 bc 24 71 8c 3a
       -0.039340533 -0.04698522 -0.023708533 0.0010714871
000180 aa 31 e9 bd cb ba 82 be 1d 3a 09 bc f7 3d ae bc
       -0.11386426 -0.25533137 -0.008375672 -0.021269782
000190 08 d7 cb bd e7 d8 88 3d b2 4b 3a be f0 d8 8e bc
       -0.09953123 0.06681996 -0.18192938 -0.017437428
0001a0 83 f9 9b bd 15 e1 da 3d 29 70 73 3d d7 49 f0 bd
       -0.0761595 0.10687462 0.059433136 -0.11732834
0001b0 d1 e8 c1 bd 4a 22 98 be bd 29 e7 bd 14 b8 83 bd
       -0.09468234 -0.2971366 -0.11287258 -0.064315945
0001c0 ef f6 97 bd 89 7b d5 bd 09 23 d8 3d 4c 74 02 be
       -0.07420146 -0.10423953 0.105535574 -0.12739676
0001d0 53 a3 dc bb 26 87 be bd 21 fe b7 3c 6e c4 e3 3d
       -0.006733337 -0.09303121 0.022460045 0.1112145
0001e0 bd 6d b2 bb 64 0b 3c bd f0 e6 eb bd 7b 24 53 be
       -0.0054452107 -0.0459093 -0.11518657 -0.20619385
0001f0 01 6a 39 be 6e ff 85 3c 42 17 0f bd c8 68 8e bc
       -0.18106844 0.01635715 -0.03493429 -0.017383948

a2c_network.actor_mlp0.4.weight f4 [64, 128]
000000 c9 2b af bc ce 54 0e 3d 0f 50 0b 3d 6c 30 33 bd
       -0.021383183 0.034748845 0.034011897 -0.04374735
000010 93 2e 11 3e 6e 89 24 3e d8 6d 0f bd a2 ec 06 be
       0.14177923 0.1606805 -0.035016865 -0.13176206
000020 51 40 34 be fe 96 33 3d 2c 89 69 bd cd 80 a6 bd
       -0.1760266 0.04384517 -0.057015583 -0.081300355
000030 1c cc 2a 3d 01 2c ae bd 91 ae 26 bd 9a 4c 54 3c
       0.04169856 -0.08504487 -0.040693823 0.012957716
000040 92 e8 b3 39 a5 c2 5e 3d 5a 56 52 bd da 52 3e 3d
       0.0003431482 0.054384846 -0.051351883 0.046465732
000050 fa 28 54 bd e6 be 7a 3b 8c 8d c7 bd 40 53 7a 3d
       -0.05179689 0.0038260757 -0.09743795 0.06111455
000060 81 da 48 3d 5a 7a 44 be e2 d8 0d 3e 97 04 bf bd
       0.049036507 -0.19187298 0.13852265 -0.09327047
000070 9f 35 de bc 24 26 eb 3c a1 c2 f1 3d 64 28 f2 bc
       -0.027125178 0.02870471 0.11804701 -0.029560275
000080 1d fe 4c be f7 d2 0e bd b4 47 67 be 85 25 c5 bd
       -0.20018812 -0.03486916 -0.22585946 -0.09626297
000090 e6 4d d0 bd 27 4b e5 3c 42 c9 1e 3e bc 00 d2 bd
       -0.10171108 0.027989937 0.15506461 -0.10254046
0000a0 c0 12 95 bd ce 97 e5 bd f2 1e a0 bd 40 b0 35 3c
       -0.07278967 -0.11210595 -0.07818402 0.011089385
0000b0 b7 10 8f bc 29 4d 98 bc 96 76 9b bd b9 28 a1 3d
       -0.017464025 -0.01859148 -0.07590978 0.07869095
0000c0 a8 5a d0 3c f9 f2 e3 bd 5c d5 3d 3e 14 0c 53 3c
       0.025433853 -0.11130328 0.18538421 0.012881298
0000d0 99 4e a8 bc c7 3f 1b bd 22 1e ad bd 94 4b df 3c
       -0.02054529 -0.03790262 -0.08453013 0.027257718
0000e0 d6 4e b6 bd 11 5f 92 3d 40 2c d1 3a 3c 1a 76 3d
       -0.089017555 0.07147039 0.0015958622 0.060083613
0000f0 84 5b be 3d fe 5d 9c 3c 5d 76 d7 bc 8e e9 fb bc
       0.09294799 0.019087788 -0.026301557 -0.030751016
000100 0d 70 c6 3c 6d 77 ea bc 28 b6 e6 bc 95 a8 30 bd
       0.024223352 -0.0286214 -0.02816303 -0.043129522
000110 b2 b6 25 be 03 56 66 bd e5 e5 bc bd e4 c5 81 3d
       -0.16182974 -0.05623437 -0.092235364 0.06336573
000120 12 5b fc 3c b2 52 11 bd db 98 9d bd ff d6 75 be
       0.030805144 -0.035479255 -0.076951705 -0.24007796
000130 5c 77 f2 3b 79 7f bd bc 22 2b f0 3c b5 77 17 be
       0.0073994827 -0.023132073 0.029317442 -0.14791758
000140 46 0d 2a 3e 2f 73 56 3b 1d 32 90 3c 8b ef 69 3d
       0.16606626 0.0032722463 0.01760202 0.05711321
000150 e8 9d 91 3d 0c 56 08 be c1 b8 02 3e ac 06 3d 3d
       0.07110196 -0.13314074 0.1276579 0.04614894
000160 96 f1 2c be e2 35 02 3d f5 51 1c 3c b9 a4 3f 3d
       -0.16889033 0.031789668 0.009541024 0.04678795
000170 17 3b b9 bd d7 87 ba bd 85 33 06 bd 65 59 25 bd
       -0.090444736 -0.09107941 -0.032763977 -0.040368456
000180 63 97 7c bd 00 60 64 bd c6 07 c6 bd 27 bc 57 3d
       -0.06166781 -0.055755615 -0.096694514 0.05266967
000190 d5 14 cb bd 36 0c 3a bd 22 63 ab 3d dc b4 af 3d
       -0.09916083 -0.0454218 0.083685175 0.08579418
0001a0 51 26 52 3d dc 10 f3 3d bc f8 6e bc 4a 56 f0 bc
       0.051306073 0.1186845 -0.01458567 -0.02933802
0001b0 ea ba 0c be b7 5c 93 bd 23 37 84 bd c0 ed 3c bd
       -0.13743177 -0.07195418 -0.06455829 -0.046125174
0001c0 81 8c 64 bd ad 52 dc 3d 19 c3 b3 bd 47 51 0f bd
       -0.055798057 0.10757957 -0.08777446 -0.03498962
0001d0 57 ab 4b bd 84 d0 39 bd 5b 0c b4 3c b4 0d a5 bd
       -0.04972395 -0.04536487 0.021978548 -0.08059254
0001e0 69 08 ea bd 71 dc 4f 3e 71 77 34 3e 9c c3 e0 bc
       -0.11427385 0.20298935 0.17623688 -0.027437024
0001f0 33 eb f1 bd 08 8f e1 3d 17 c5 80 3c eb 0f 83 bd
       -0.11812439 0.11013609 0.01571898 -0.063995205
000200 39 c0 1e 3e 24 7a c4 bd 8c 10 b6 bd 0f 8b 0f 3e
       0.15503015 -0.09593609 -0.08889875 0.1401789
000210 36 c7 ed bc 86 83 c9 bd 42 53 9a 3c 08 e8 5b 3e
       -0.029025655 -0.09839539 0.018838529 0.21475232
000220 3e a3 76 bd 7d 02 79 3d 63 aa 18 3d 89 d1 8b 3c
       -0.060214274 0.06079339 0.03727187 0.017067688
000230 da 26 bf b8 b5 25 75 bd 5d b4 2c be 6d 10 9c 3c
       -9.1148264e-05 -0.059850413 -0.16865678 0.019050801
000240 de 31 af bd 59 6a 64 3d 99 bf 95 be db 0c ea bd
       -0.08554433 0.055765484 -0.2924774 -0.11428233
000250 c0 c4 71 bd b9 04 10 be ca 2c 0b 3d ec 2c 1f bd
       -0.059025526 -0.14064302 0.03397826 -0.0388612
000260 7f 1b e2 3d 62 12 37 bd 54 77 cd 3e 05 d9 bf 3d
       0.11040401 -0.044695266 0.40130103 0.09367565
000270 d6 03 46 3d 9c a2 c9 3d 7b 7f 64 be 3e 90 c6 3c
       0.048343502 0.098454684 -0.22314255 0.024238702
000280 d7 e8 93 bd 4f cb 09 be f7 b7 0e be 5a 5b 9b bd
       -0.07222145 -0.13456462 -0.13937365 -0.07585783
000290 f5 dc 33 3d 76 76 b7 bd 1a 1d 89 3d d5 3a 3b 3d
       0.043911893 -0.089581415 0.06695004 0.045710403
0002a0 2d 6a 92 3d d7 81 af bc 63 ec 03 be 39 63 d5 bd
       0.07149158 -0.021424217 -0.12883143 -0.10419316
0002b0 d9 c4 46 3e 09 cf 1e be 64 bd 2c 3e 39 c9 c5 3c
       0.19411029 -0.15508665 0.16869122 0.024143802
0002c0 8d be 6a bd 9f 6a 0d bd 7a 06 30 3c 8f 8e f9 3c
       -0.05731063 -0.03452551 0.010743732 0.030463485
0002d0 c7 b4 56 3e b3 83 f7 3d c5 c3 12 be b6 ee b3 bb
       0.20967399 0.120856665 -0.14332493 -0.005491103
0002e0 db fa bd 3b 1f c7 a8 3e 21 93 09 bd 73 83 83 bd
       0.0057977266 0.32964417 -0.03358758 -0.06421556
0002f0 72 a7 82 3d e5 4c 4d bd ef e0 5c bc 9f ca 8d 3e
       0.06379594 -0.05012216 -0.013481363 0.2769365
000300 80 a4 91 be 3e bf 10 3e 1e ff 85 bb a2 63 45 3d
       -0.28445816 0.14135453 -0.00408925 0.04819072
000310 c1 42 87 3d 10 5a 11 bd 44 88 5d 3e 6f 76 13 3d
       0.06604529 -0.03548628 0.21634012 0.03600162
000320 fa cd 45 be a5 af 68 bb f0 f3 62 3c 4c 5e da 3c
       -0.19316855 -0.0035505083 0.013852105 0.026656292
000330 8d 9f 2f 3e 9b e3 cc 3d 4f cc f9 3d ba a4 5c 3d
       0.17150708 0.1000435 0.12197172 0.053868033
000340 fa 55 6a be 68 9d 27 be 8c e1 b1 3d 36 89 23 bd
       -0.2288436 -0.1636864 0.08685598 -0.039925776
000350 2b de 23 3e 62 3e 96 be b3 49 4f be 2f f0 a9 3d
       0.16002719 -0.2934447 -0.20242958 0.082977645
000360 66 be 5b 3d 9d c0 0d 3e a6 af 7d bd 98 a3 1a bd
       0.053648375 0.13843007 -0.06193509 -0.03775367
000370 46 c7 1c 3e 92 fc e4 ba 85 ed 30 bc 83 64 7a 3c
       0.15310392 -0.0017470291 -0.010798817 0.015282753
000380 d1 bf 58 bd 20 de b5 3d 91 94 8c bd af da 02 3d
       -0.052917305 0.088802576 -0.06864274 0.031946834
000390 38 79 0c 3c d2 16 89 be 9b 94 24 3d df c4 15 bd
       0.008573823 -0.26775223 0.040180784 -0.036564704
0003a0 23 6f 3b be 18 eb 7b bc 71 c8 96 bd d9 05 36 be
       -0.18304114 -0.015375875 -0.0736245 -0.17775668
0003b0 85 55 0b 3d 31 2e 86 3d 7e 85 f5 3d bf c5 4d bd
       0.034017105 0.06551779 0.11988352 -0.050237413
0003c0 e5 20 99 3b a9 b0 23 3e 08 7d 96 be 37 3a 8f bd
       0.004673111 0.15985359 -0.29392266 -0.069935255
0003d0 f8 9b 90 bc d8 67 af 3d 40 7b dd bd a8 9a e2 bd
       -0.017652497 0.085647285 -0.10814524 -0.110646546
0003e0 60 1d 33 3d d8 0b 80 be 82 f3 20 be c6 9e 0d 3e
       0.043729186 -0.25009036 -0.15717891 0.13830099
0003f0 31 2b 58 3d 98 c7 3f 3e b6 b3 07 bd 7c d6 c9 bd
       0.052775566 0.18728483 -0.03313037 -0.09855363

a2c_network.actor_mlp0.4.bias f4 [64]
000000 a8 1e 8d 3d 70 5a 3a be 03 a6 69 be 4f 59 e1 bd
       0.06890613 -0.18198562 -0.22817235 -0.110033624
000010 49 36 ef bd 7e db 3e 3d 7f 30 00 bd 69 ba 34 be
       -0.11680276 0.046596043 -0.03129625 -0.17649235
000020 fc c0 a2 3d 55 3d 0b be 9c 4e 04 be c1 c9 9d bb
       0.07946965 -0.13597615 -0.12920612 -0.0048153107
000030 0d cb b5 bc 69 02 01 be f7 57 cd bd 65 5c d1 bd
       -0.022191549 -0.12598576 -0.100265436 -0.10222701
000040 f5 5a 0d 3e 9e 98 22 be fb 9d 2f be d2 e3 8a bd
       0.13804229 -0.15878531 -0.17150109 -0.067817345
000050 18 f1 35 3d 7f aa 0d be e2 f7 92 bc 61 3d 48 bd
       0.044419378 -0.1383457 -0.017940465 -0.04888666
000060 e2 fa cf bd 9f ec 1c be 91 1c 33 be 60 56 63 3d
       -0.10155274 -0.15324639 -0.17491366 0.055502295
000070 e2 83 f5 3d 78 27 1e be e0 ba 20 be c7 b9 de bd
       0.11988045 -0.15444744 -0.15696287 -0.10875278
000080 3a 38 55 be 76 41 5b bd 06 52 9f bd 21 b8 86 bd
       -0.2082223 -0.053529225 -0.077793166 -0.065780886
000090 b0 14 9e 3e ce b1 05 be 0a b7 17 be db fd bb bd
       0.30875158 -0.13056108 -0.14815918 -0.091792785
0000a0 d5 25 d0 3d 8c d9 3b be 22 84 3c be d4 92 bb bd
       0.10163466 -0.18344706 -0.1840978 -0.091588646
0000b0 5d f4 9c bd e5 3e a3 3c c7 98 e5 3c 11 8b d2 bd
       -0.07663796 0.019927451 0.028026951 -0.10280431
0000c0 bc ef db bd d7 0c 80 bd 3f 04 5e be 0c 8f d4 bd
       -0.10739085 -0.06252449 -0.21681307 -0.103788465
0000d0 16 28 8a 3d 0f 96 48 be f5 6a 9b bd 93 8a 0d be
       0.06745927 -0.19588493 -0.0758876 -0.13822393
0000e0 b1 50 db bd 23 51 94 3c f1 de 3b 3b dc a5 69 3d
       -0.1070875 0.018105095 0.002866682 0.05704294
0000f0 1a 2c 31 be b8 fb ad 3d 06 d2 7f be 32 4c 6d be
       -0.1730198 0.08495277 -0.24982461 -0.23173597

a2c_network.value0.weight f4 [1, 64]
000000 c0 0d 8c 3d 15 5d 8b bb a0 25 44 ba db 32 1c 3b
       0.0683856 -0.0042530396 -0.0007482413 0.0023834023
000010 37 6b c4 3b 57 23 dd 3d ad 32 ec 3c be 97 97 ba
       0.0059942263 0.10797756 0.028832758 -0.0011565608
000020 18 5b 0f 3c 71 b5 2f bc 2a c4 12 bb 42 3a f1 3c
       0.008749746 -0.010724411 -0.0022394755 0.029446725
000030 4a 25 bd 3c 5d 94 39 3a ad 10 a8 3c 54 a9 27 bc
       0.02308907 0.0007079298 0.020515764 -0.010233242
000040 95 57 0f 3f fe 11 34 3c 7f f9 07 bc 9f 9b 0d bc
       0.55993015 0.010990618 -0.008299231 -0.00864306
000050 c2 c9 16 3b e4 1d 85 ba e6 32 43 3c 99 17 a0 bb
       0.002300844 -0.0010156003 0.011913991 -0.0048856256
000060 f2 9e ef bc d8 62 9b bc d0 07 39 3d 87 b2 0b 3d
       -0.029250596 -0.01896803 0.045173466 0.034105804
000070 3e 07 89 3d 78 7d 90 38 fc b8 65 ba 1c d9 e2 3b
       0.066908345 6.8898255e-05 -0.00087632216 0.006922854
000080 53 70 cb 3b 84 fc 05 bc 8a 29 92 bb 3d 1d fd bb
       0.0062084584 -0.00817788 -0.0044605182 -0.0077244327
000090 fd a7 b2 3e e9 63 25 bb 4a 07 aa bc 82 2c ae bc
       0.3489379 -0.0025236553 -0.020755429 -0.021261457
0000a0 45 c0 80 3e 87 d4 32 bb c8 77 80 3c e7 39 92 bc
       0.2514669 -0.002728732 0.015682116 -0.017849876
0000b0 fb b0 87 3c 84 0d 95 3c 1e 75 98 bb f1 f5 47 3c
       0.016563883 0.018194921 -0.0046526333 0.012204633
0000c0 c5 88 de ba b4 29 1d 3b 06 ca 03 bc 9b 0b 0c 3d
       -0.0016978016 0.0023981156 -0.008043772 0.034190755
0000d0 6a 53 a5 ba 33 b7 ee 3c 12 96 ff 3b 2c 04 c9 3c
       -0.001261336 0.02914009 0.007799872 0.024538122
0000e0 a6 5a 6f 3a 83 0c 6a bb e4 30 9e 3e 0a 1f d8 3c
       0.0009130634 -0.0035713024 0.30896676 0.026381988
0000f0 38 aa 8d bb 67 44 d5 3d 15 33 d2 39 60 c3 4f bb
       -0.00432327 0.10413437 0.0004009238 -0.0031702146

a2c_network.mu0.weight f4 [12, 64]
000000 1e 2c f9 bc 85 07 da 3c 8b ba 54 3d 06 82 46 bd
       -0.030416545 0.026614914 0.051935714 -0.048463844
000010 06 bf de 3c eb 41 bd bc bf 96 44 bc 79 43 5c bd
       0.027190696 -0.023102721 -0.011998831 -0.053775284
000020 41 5d af 3d 65 50 86 bd 16 b4 d2 3d ca a3 9a bc
       0.08562709 -0.06558303 0.10288255 -0.018876929
000030 97 dd 8b bd 77 e5 f8 bd 74 ef 65 bd 20 86 79 3d
       -0.06829374 -0.12153142 -0.056136563 0.060918927
000040 5f 5e 2c 3d 5a 07 62 3d 16 88 26 be b2 18 18 3d
       0.042082187 0.055182792 -0.1626285 0.037132926
000050 1b 18 f9 bc 1c a2 af 3b a6 fd d7 bd 2d ea af 3c
       -0.030407002 0.005359901 -0.105464265 0.021473968
000060 80 a9 36 bd ec 4e 9e bd af 46 9e 3c 9a ed ee bc
       -0.04459524 -0.07729897 0.019320814 -0.029166032
000070 7d 55 3a 3c 45 27 c7 3a 03 78 1c 3e 1f f4 9c 3c
       0.011372921 0.0015194198 0.15280156 0.019159375
000080 e2 40 a8 3d 18 cb 13 3d 99 04 3d 3c e7 bf 3c bd
       0.082155004 0.036082357 0.011536741 -0.04608145
000090 c2 27 44 bc e5 48 4d bd c8 a2 af 3c 8a 47 ad 3d
       -0.01197237 -0.050118346 0.021439925 0.084609106
0000a0 25 ea 33 3c 15 92 10 bd c8 4d 24 3e 08 eb 88 bc
       0.010981117 -0.035295565 0.16045296 -0.016713634
0000b0 01 ba 5d 3d f7 0c 97 bc 9a 66 a6 3d 77 3a 2f bd
       0.054132465 -0.0184388 0.081250384 -0.042780366
0000c0 7d b9 3f bd ab c3 b6 3c 1a 60 9e 3c 3b c7 51 3c
       -0.046807755 0.022310099 0.019332934 0.012803848
0000d0 5c df e6 3c e5 81 6c bc 18 73 4b 3d b1 9b e5 bd
       0.028182678 -0.014435266 0.04967031 -0.112113364
0000e0 75 97 40 3d f0 80 c6 3c 0f e3 ac bd ce ab 3f bd
       0.04701944 0.024231404 -0.084417455 -0.046794705
0000f0 0c d5 0e bd 8f b0 4c 3d 44 78 25 bd ec e0 06 bd
       -0.034871146 0.049973067 -0.040397897 -0.032929346
000100 44 a1 fa bc 67 c1 ee bb 51 c6 a3 3c 87 c8 06 3d
       -0.030594476 -0.007286239 0.019992026 0.03290608
000110 ec 2a cb 3d f9 6f 23 3c a7 56 c1 bd 47 09 fb ba
       0.09920296 0.009975427 -0.09440356 -0.0019152545
000120 bb 87 4f 3d 75 b9 29 3b 7b 09 c1 bd 3d 1a 74 bc
       0.050666552 0.0025897895 -0.094256364 -0.014898834
000130 37 99 67 bd 85 40 4a 3d 7b 3e 70 3d 2a 47 c6 3d
       -0.0565426 0.049377937 0.058653336 0.09681542
000140 43 21 a5 3b c3 6d 13 bd e2 af 16 3e f9 bc d1 3c
       0.0050393655 -0.03599335 0.14715531 0.025602804
000150 8a 85 d8 3d 31 39 54 bd b2 c4 26 bd 2c 78 c8 3c
       0.105723456 -0.051812354 -0.040714927 0.024471365
000160 27 d5 c2 bd 99 04 59 bd 73 45 42 be a7 dc fd bc
       -0.09513312 -0.0529829 -0.18971805 -0.030989004
000170 89 69 51 bc a3 53 5a bd 72 66 94 bc 14 e3 4e 3c
       -0.012781509 -0.05330242 -0.018115256 0.012627382
000180 83 17 8c 3c 21 9f 4f 3d a7 5a 9c 3d 73 32 28 bc
       0.017101055 0.050688867 0.07634478 -0.010265934
000190 d7 e3 09 bc f3 85 3b be b0 45 27 bc 83 6d 69 bd
       -0.008416138 -0.18312816 -0.010209486 -0.056989204
0001a0 f0 76 12 3d 42 65 02 3e 6b 5c a6 3d ff b0 ea 3c
       0.03575796 0.1273394 0.08123096 0.028648851
0001b0 54 37 47 3d 4e 22 c4 3d 18 ae 3c bc 20 95 ec bc
       0.04863675 0.095768556 -0.011516117 -0.028879702
0001c0 de 79 1b be 4e f4 4a bd 3e 6d 48 bd a4 ca 2a bc
       -0.15183207 -0.049549393 -0.048932306 -0.01042429
0001d0 e0 72 40 bc 30 e7 21 bc 79 fd af 3d 89 79 27 bd
       -0.011746138 -0.00988178 0.08593268 -0.04088739
0001e0 50 47 17 be f2 c7 01 3b f7 de c6 bc 11 24 b9 bd
       -0.14773297 0.0019803015 -0.02427624 -0.09040082
0001f0 25 6e e6 3c d9 dd 21 3d 17 df 1f be 91 62 8d bd
       0.028128693 0.03951821 -0.15612446 -0.06903566
000200 5a e2 94 bc c2 96 75 bc cc 09 5a 3e 14 09 b4 bb
       -0.01817434 -0.014989557 0.212928 -0.0054942463
000210 73 4e 69 bd 89 eb 6c 3c 7e b0 85 bc b4 37 e9 3c
       -0.05695958 0.014460453 -0.01631951 0.028468944
000220 ad 34 0d bd 13 02 5b bd 54 2e 08 bc 3f 7f 7d bd
       -0.034474064 -0.053468775 -0.008311827 -0.06188893
000230 0e ac f5 3a 1b c0 fd 3b d0 bc bd bc 4d 02 8a 3c
       0.0018743293 0.007743848 -0.023161322 0.0168468
000240 36 10 f2 3c 67 d3 d8 3c 77 09 6a bd 9e 4d aa bd
       0.029548746 0.026467992 -0.057137933 -0.083155856
000250 b6 1d 9b 3b 6f 32 9b 3d 1f 23 d6 3d 9d d5 b1 bc
       0.0047337664 0.07577979 0.104559176 -0.021708304
000260 05 db 15 3d 2e 89 5b bd cf 58 50 3d 53 cb bf bc
       0.036585826 -0.05359762 0.050865944 -0.023412382
000270 0c 78 aa 3c 80 6e 75 3d e7 ce 73 bd 6f 7f 37 3c
       0.020809196 0.059919834 -0.05952349 0.011199816
000280 ff 7a a8 3d 3c e9 fe 3a 11 e0 9e 3d 5f 68 5a bd
       0.08226585 0.0019448171 0.07757581 -0.053322192
000290 57 3f d7 3c e0 da 98 bd 68 68 bd 3d ef d0 bb 3d
       0.02627532 -0.07463622 0.092484295 0.0917071
0002a0 54 9b ad 3c 6f 22 16 be a7 fa 05 be 83 4e cc 3c
       0.02119223 -0.14661573 -0.13083898 0.024939781
0002b0 57 ad cf 3d 1f 62 96 bc 8c 8d 90 bc 61 5c 8a 3c
       0.10140484 -0.018357335 -0.01764562 0.016889753
0002c0 6f 32 3e bd 0e c2 8b bd 91 9e 2b bb 83 51 71 bc
       -0.046434816 -0.06824122 -0.0026187042 -0.014728907
0002d0 7c e7 29 3c 3b f6 4d bd 21 4f 36 bb de 34 69 b9
       0.010370132 -0.05028365 -0.002781816 -0.00022240306
0002e0 aa 8e 31 3c 77 c0 f5 bc 2e a4 91 3b d5 a2 bb bb
       0.010837236 -0.029999001 0.0044446206 -0.005726198
0002f0 44 79 23 3e 83 71 02 3b 84 61 43 3c e5 2c 0e 3d
       0.15964228 0.0019904084 0.011925105 0.034710784
000300 23 b5 bc 3d f5 be a2 3d c8 55 46 bd 55 26 e5 3b
       0.092142366 0.079465784 -0.04842165 0.006993095
000310 58 d8 9e bd de e6 85 bd 71 38 31 be 2e 6b 4c be
       -0.07756108 -0.06538175 -0.17306687 -0.19962761
000320 92 e5 06 3c b2 12 ec 3c c5 35 13 3e 65 04 a5 3d
       0.008233445 0.028817508 0.1437598 0.08057479
000330 d5 a7 87 3d ed e1 ab 3d 15 a4 82 3c 11 f8 d8 bd
       0.06623808 0.08392701 0.015947381 -0.1059419
000340 0f 86 fa bd ca 27 23 3b 75 4e 00 bd ae ed 55 be
       -0.12232601 0.0024895542 -0.031324822 -0.20891449
000350 62 dd 42 bc 71 06 16 3c a2 df c9 3c 2b 83 cd 3b
       -0.011893602 0.009156809 0.02464277 0.00627174
000360 03 03 07 3e 84 b9 90 be 16 1f 62 3d 6c b5 95 3c
       0.13184743 -0.28266537 0.055205427 0.018274985
000370 13 18 eb bd 40 79 8d 3d 55 e4 d2 3c 7c 88 3d 3d
       -0.11479201 0.06907892 0.025743643 0.04627274
000380 bb 53 d2 bc 85 84 d9 3a 89 81 c9 bd 1f fa 49 3c
       -0.025674691 0.001659528 -0.0983916 0.0123277
000390 cc 4f 4c bd 68 59 c2 3d d2 ba 66 3e 07 31 17 3e
       -0.049880788 0.09489709 0.22532204 0.14764796
0003a0 f6 f0 92 3d f8 63 69 3a bd 9c 19 3d d2 a1 d9 bd
       0.07174866 0.0008903141 0.037502993 -0.10626568
0003b0 91 2b 84 3b 51 16 56 be 6d 6c f9 3d 26 a3 bd bc
       0.004033514 -0.2090695 0.12178884 -0.023149084
0003c0 d8 a1 df bd 34 4a b4 bc 99 cb 49 bd 9e fc 2c 3c
       -0.10919541 -0.022008039 -0.04926643 0.0105582755
0003d0 31 57 0b bd 88 be 1e bd 28 4f 07 be b7 2d a6 3d
       -0.0340187 -0.038755924 -0.1321379 0.08114188
0003e0 39 e2 4d bd ec b1 9b 3d 70 6f 84 3c 6b 67 e3 bd
       -0.05026457 0.07602295 0.016166419 -0.1110371
0003f0 49 2c 03 bc 00 a6 81 3d 1a c8 e4 bc 4d d2 64 3d
       -0.008006164 0.0633049 -0.027927447 0.05586462

a2c_network.mu0.bias f4 [12]
000000 a3 43 1f 3c 8d 0c c2 bc 37 e5 5c bd 51 94 5a 3d
       0.009720716 -0.023687625 -0.053929534 0.0533641
000010 11 b9 b8 3d 03 2b 3c bd 23 86 9c bc d3 e7 88 3b
       0.090196736 -0.045939457 -0.01910693 0.004178026
000020 5c 88 44 bd 40 e8 5c 3c 20 3a 48 bd 3e a4 83 bd
       -0.047981605 0.013483107 -0.048883557 -0.06427811

a2c_network.adapt_weight0.weight f4 [1, 12]
000000 26 48 87 be 7e 82 32 3e 37 a5 b2 bc b3 46 a6 bd
       -0.26422232 0.17432591 -0.021807296 -0.081189536
000010 93 11 fc 3d 87 8a fa bd a9 8c 69 bb 22 38 8e 3e
       0.123080395 -0.12233453 -0.0035636819 0.277772
000020 f5 be fc 3d 92 79 75 be 98 d4 7f 3c 8b c0 fa bc
       0.1234111 -0.23972157 0.015614651 -0.03060939

exp_avg f4 [12]
000000 90 70 d4 3c 80 55 a8 3b fb fe c0 bb 66 39 09 3c
       0.02593258 0.0051371455 -0.005889771 0.008375501
000010 19 a6 23 bc d2 e2 4e bc e4 a7 a1 3c af 80 83 bb
       -0.009988331 -0.01262732 0.019733377 -0.004013143
000020 5f 5f aa bb 93 cf 4f 3c 06 cd 27 3c 35 c3 6d bc
       -0.0051993574 0.012683767 0.0102417525 -0.014511873

exp_avg_sq f4 [12]
000000 17 5d 33 3c 7d 06 2a 3c c2 a8 18 3c bf 37 1b 3c
       0.010947487 0.0103775235 0.009317579 0.00947374
000010 53 19 c0 3c a3 69 13 3c 40 74 36 3c 2d 5c 87 3c
       0.023449576 0.008997354 0.011136115 0.016523445
000020 02 6a f6 3b 3b 16 f0 3c 24 c6 ff 3b 05 5c 03 3c
       0.0075199613 0.029307475 0.0078056026 0.008017545
