isaacgymenvs/isaacgymenvs/checkpoints/last_FactoryTaskNutBoltPickGPT_ep_1024.pth (torch, 652354 bytes, 37 tensors)

value_mean_std.running_mean f8 [1]
0	0x40fd7fa61a129d71	120826.3813654089

value_mean_std.running_var f8 [1]
0	0x421b02c11a64539f	29002581657.08166

value_mean_std.count f8 []
0	0x417e000010000000	31457281.0

running_mean_std.running_mean f8 [41]
0	0x3f9d14c0b33f2c94	0.028399477901797157
1	0xbfd064ddd1a14cf1	-0.25615640136420753
2	0x3fdec2d8fda33a93	0.48064255494402025
3	0xbfa4bd9ff5749844	-0.04050922271044091
4	0x3fef4d4641431aee	0.9781829142237635
5	0xbf8e12243a62bc28	-0.014683039695539149
6	0x3f8379b448b70a4a	0.009509476155362812
7	0xbfa2fa4662553607	-0.037065696242830674
8	0xbfa91375b3f43a04	-0.04897659131721713
9	0xbfa159a77ecff020	-0.033887132864009795
10	0x3faf662c4f0955e4	0.06132639374542828
11	0xbfacba35cfc61c6d	-0.056108171093961136
12	0x3fb5d50380194173	0.0852815807095391
13	0xbf1037bc67ebf32f	-6.186568678496756e-05
14	0xbf232a33a26e1de3	-0.00014621620468012385
15	0x3fdba5d4e3a47252	0.4319965575284971
16	0x0000000000000000	0.0
17	0x0000000000000000	0.0
18	0x0000000000000000	0.0
19	0x3fefffeeccccdf35	0.9999917984014021
20	0x3f744695340909e1	0.0049501255276162845
21	0xbfd25bb796969a16	-0.2868479700649983
22	0x3fda89becb73c52f	0.41465730541593165
23	0x3f7ea824263b9205	0.007484570701965958
24	0xbf7c0bd2fc67bfb6	-0.006847213901423224
25	0x3f91fd626e9367a6	0.01756814765835881
26	0x3fef88e7cba5d1ed	0.9854620912070097
27	0x0000000000000000	0.0
28	0x0000000000000000	0.0
29	0x0000000000000000	0.0
30	0x0000000000000000	0.0
31	0x0000000000000000	0.0
32	0x0000000000000000	0.0
33	0x0000000000000000	0.0
34	0x0000000000000000	0.0
35	0x0000000000000000	0.0
36	0x0000000000000000	0.0
37	0x0000000000000000	0.0
38	0x0000000000000000	0.0
39	0x0000000000000000	0.0
40	0x0000000000000000	0.0

running_mean_std.running_var f8 [41]
0	0x3f765e77aea26681	0.0054611849865523485
1	0x3f7ad14cf77ef2d5	0.006547260905730841
2	0x3f7e3ec8b9476b25	0.007384094311840871
3	0x3f9d84cb8d76ce4b	0.02882688570907836
4	0x3f46f1781c16868b	0.0007001720879779722
5	0x3f6c6d806995b5b7	0.0034701831870538008
6	0x3f8132937626b863	0.00839724735564235
7	0x3f99adb26cbb9eeb	0.025076663862733033
8	0x3fa42b74798b479a	0.039394035183831735
9	0x3fadbabf96115fe1	0.058065402096587844
10	0x3fc0b8efb5eb6cb4	0.13064381010813053
11	0x3fc01b7b8dad1747	0.12583870332508182
12	0x3fc7535dd4b34d91	0.18223164449464638
13	0x3f6b837a7b15d2e4	0.0033585922434958716
14	0x3f6b6633b026f5ac	0.0033446321042151696
15	0x3ebaf1dd28b110a2	1.606034092175648e-06
16	0x3e711110fedcbaaa	6.357828371821822e-08
17	0x3e711110fedcbaaa	6.357828371821822e-08
18	0x3e711110fedcbaaa	6.357828371821822e-08
19	0x3ee17765861db1ac	8.328625145736405e-06
20	0x3f725ea20aa6ca35	0.004484780287770597
21	0x3f747707dff91d23	0.00499632907992201
22	0x3f74d789e94f6c43	0.00508836623790915
23	0x3f6f0abea7b11bb6	0.003789303181779026
24	0x3f68de221d52625e	0.0030356088924004395
25	0x3f8a91bbc647e5e1	0.01297327708106172
26	0x3f820684b0b8f09f	0.008801495211735065
27	0x3e711110fedcbaaa	6.357828371821822e-08
28	0x3e711110fedcbaaa	6.357828371821822e-08
29	0x3e711110fedcbaaa	6.357828371821822e-08
30	0x3e711110fedcbaaa	6.357828371821822e-08
31	0x3e711110fedcbaaa	6.357828371821822e-08
32	0x3e711110fedcbaaa	6.357828371821822e-08
33	0x3e711110fedcbaaa	6.357828371821822e-08
34	0x3e711110fedcbaaa	6.357828371821822e-08
35	0x3e711110fedcbaaa	6.357828371821822e-08
36	0x3e711110fedcbaaa	6.357828371821822e-08
37	0x3e711110fedcbaaa	6.357828371821822e-08
38	0x3e711110fedcbaaa	6.357828371821822e-08
39	0x3e711110fedcbaaa	6.357828371821822e-08
40	0x3e711110fedcbaaa	6.357828371821822e-08

running_mean_std.count f8 []
0	0x416e000020000000	15728641.0

a2c_network.sigma0 f4 [12]
0	0xbf58e105	-0.8471835
1	0xbf38ef6e	-0.7224034
2	0xbfdc231c	-1.7198215
3	0xbf3fe28f	-0.74955076
4	0xbf18d00d	-0.5969246
5	0xbefb171b	-0.49041066
6	0xbefa5fa5	-0.48901096
7	0xbeeb4857	-0.45953628
8	0xbea45472	-0.32095677
9	0xbe99bc23	-0.3002635
10	0xbe948b4b	-0.29012522
11	0xbebae9aa	-0.36506397

a2c_network.actor_mlp0.0.weight f4 [256, 41]
0	0x3dac274e	0.08405934
1	0x3ea58581	0.32328418
2	0xbdc19577	-0.09452336
3	0xbe233a42	-0.15940192
4	0x3db382b9	0.08765168
5	0x3e5779e1	0.21042587
6	0x3e053beb	0.13011138
7	0xbc886e38	-0.016654119
8	0xbacb1bf8	-0.0015496006
9	0xbdc7b7ee	-0.09751879
10	0xbd4a5de2	-0.04940594
11	0x3e15d35c	0.14631408
12	0x3d9e01c1	0.07715178
13	0x3d7b8a04	0.06141092
14	0xbd855165	-0.065096654
15	0x3e8170eb	0.25281462
16	0x3dfa4ffd	0.12222288
17	0xbde340e0	-0.11096358
18	0x3c211bc6	0.009833282
19	0x3e1867d6	0.1488336
20	0xbc42d775	-0.011892189
21	0xbe3a1278	-0.18171108
22	0x3e180405	0.14845283
23	0x3cb0a671	0.02156374
24	0xbca7addc	-0.020468645
25	0xbe4a0f00	-0.19732285
26	0xbe652dfd	-0.22380824
27	0xbdbec409	-0.093147345
28	0x3e0fd734	0.14046937
29	0x3d552d39	0.05204508
30	0x3e19e28f	0.15027831
31	0xbe03fad3	-0.1288865
32	0xbe1e9f6d	-0.15490504
33	0xbdfa3bf8	-0.122184694
34	0xbdd727ce	-0.10505639
35	0x3d818cb3	0.06325664
36	0x3d650e86	0.055922054
37	0x3e04e20f	0.1297686
38	0xbda52ced	-0.080652095
39	0xbdda0a95	-0.106465496
40	0x3da9b3c1	0.082862385
41	0x3dc9d64c	0.09855327
42	0x3d2b4a7e	0.04181909
43	0xbe41dce6	-0.18931922
44	0x3df4b37b	0.11948296
45	0xbea05b7a	-0.3131979
46	0xbda189c2	-0.07887603
47	0x3d028f4c	0.03187494
48	0x3d3cfe2b	0.04614083
49	0xbd3533a9	-0.04423872
50	0xbd3b2b8f	-0.045695838
51	0xbddb0474	-0.10694209
52	0xbe076669	-0.1322266
53	0xbcee1f23	-0.029067582
54	0x3cdac585	0.026705513
55	0xbd67326c	-0.05644457
56	0xbec18e93	-0.37804088
57	0xbe1abd57	-0.1511129
58	0xbdb72a41	-0.08943606
59	0x3d1fcbdd	0.03901278
60	0xbeb04185	-0.34424987
61	0xbdac427b	-0.08411118
62	0xbdc26a0d	-0.09492884
63	0xbe9cc896	-0.30621785
64	0xbf10b109	-0.56520134
65	0xbe25cf55	-0.16192372
66	0xbe82934a	-0.25502998
67	0xbe624020	-0.22094774
68	0x3e1fdc01	0.15611269
69	0x3cf1a45a	0.029497314
70	0x3d452041	0.048126463
71	0xbe15281c	-0.14566082
72	0xbdd210a9	-0.10257084
73	0xbd54ec7d	-0.051983345
74	0x3cc80eb0	0.024421066
75	0xbe0cb7fe	-0.13742062
76	0xbd89cfe6	-0.067291066
77	0xbdbf7b00	-0.09349632
78	0x39e2e925	0.00043279785
79	0xbd6e07a5	-0.05811276
80	0xbc314f84	-0.010822181
81	0xbdd8bc57	-0.10582798
82	0xbdd79a52	-0.10527481
83	0xbd74c8e2	-0.05976189
84	0xbe836468	-0.2566254
85	0xbe0d17c9	-0.13778605
86	0x3d8b75a6	0.06809549
87	0xbcf9ed2e	-0.030508604
88	0x3e207602	0.15670016
89	0x3dd608d7	0.10450905
90	0xbdfdf4c9	-0.12400205
91	0x3de15218	0.11001986
92	0x3d540fee	0.051773004
93	0xbddf77b1	-0.10911501
94	0xbe036b26	-0.12833843
95	0xbe1ab0d4	-0.15106517
96	0xbc02ce21	-0.007983715
97	0xbcfa2999	-0.030537413
98	0x3d790b94	0.060802057
99	0xbe033df9	-0.1281661
100	0x3ded761f	0.115947954
101	0xbde1c965	-0.11024741
102	0x3aba7f51	0.0014228617
103	0x3d608539	0.05481455
104	0x3e3f21df	0.18665265
105	0x3e404cfe	0.1877937
106	0x3e83a59f	0.25712296
107	0xbdc7c04d	-0.09753475
108	0xbccc5d33	-0.024946785
109	0xbd8992ba	-0.06717439
110	0xbc8c333b	-0.017114272
111	0xbdef6664	-0.11689451
112	0x3e11aa91	0.14225222
113	0xbdeabfe4	-0.114623815
114	0x3daaf0e2	0.08346726
115	0x3d60cfc5	0.054885644
116	0x3d4fdece	0.050749592
117	0xbdacec21	-0.084434755
118	0x3e115c7d	0.14195438
119	0x3d0c9257	0.034319248
120	0x3ca49435	0.020090202
121	0xbe0cee96	-0.13762888
122	0x3d86444b	0.065559946
123	0xbe133355	-0.1437505
124	0xbe225a15	-0.15854676
125	0x3ed9f71a	0.42571336
126	0xbb510e03	-0.003189922
127	0xbe09a627	-0.13442288
128	0xbd50d1fc	-0.050981507
129	0xbd7f29da	-0.062295772
130	0x3dc2b756	0.09507625
131	0xba0d42ef	-0.0005388697
132	0xbdf6ea6a	-0.1205643
133	0xbd7b66d7	-0.061377373
134	0xbe27f964	-0.16403729
135	0x3d912d77	0.0708875
136	0x3d94d73c	0.07267615
137	0xbd7e0c74	-0.062023595
138	0x3e653bc1	0.22386076
139	0x3da53a8d	0.08067808
140	0x3ce7fd05	0.028318891
141	0xbd63cefe	-0.055617325
142	0x3e89b79f	0.26897904
143	0x3dff34fd	0.124612786
144	0x3e215484	0.15754896
145	0xbe27ba9b	-0.16379778
146	0xbe12b08f	-0.14325164
147	0x3e102107	0.14075099
148	0xbd0543e6	-0.032535456
149	0xbde72904	-0.1128712
150	0x3dcc7248	0.09982735
151	0x3e096fd5	0.13421567
152	0xbc7d4f40	-0.015460789
153	0xbd0f395d	-0.034966815
154	0x3b155a26	0.0022789328
155	0xbc18c74d	-0.009324861
156	0x3d19c9c4	0.037545934
157	0x3d334313	0.04376514
158	0xbe11400c	-0.14184588
159	0xbd6c11a5	-0.057634015
160	0x3e06accb	0.13151853
161	0x3d79318c	0.060838267
162	0xbbfe8839	-0.007767704
163	0xbdc0d5f1	-0.09415806
164	0xbe4f2050	-0.2022717
165	0xbdceebc7	-0.10103565
166	0x3e047952	0.12936905
167	0x3dd86770	0.10566604
168	0x3e70fa42	0.23532966
169	0x3d91e63f	0.07123994
170	0xbe338e25	-0.17534693
171	0xbdf05f24	-0.11736897
172	0xbdfb9e42	-0.12286045
173	0x3e573bc6	0.21018896
174	0x3cbc8244	0.023011334
175	0x3cfe0d9e	0.031012353
176	0x3c3ae546	0.011407202
177	0x3ca3d209	0.019997614
178	0xbda1c2c3	-0.07898476
179	0x3e2f7566	0.17134628
180	0xbd916eff	-0.07101249
181	0xbd003c73	-0.03130765
182	0xbe1f174d	-0.15536232
183	0x3e25eee3	0.1620441
184	0x3e7b572a	0.24544969
185	0x3e0e3116	0.13885912
186	0xbeb5266a	-0.3538087
187	0xbe936107	-0.28784963
188	0xbdcea5cd	-0.10090218
189	0x3e272051	0.16320921
190	0x3e7aa01c	0.2447514
191	0x3e069335	0.13142093
192	0x3da78e7b	0.08181473
193	0x3d21e664	0.03952636
194	0xbac874d3	-0.0015293605
195	0xbdf33e42	-0.11877109
196	0xbe090444	-0.13380533
197	0xbe159530	-0.14607692
198	0x3d82ee92	0.0639316
199	0xbd9d0879	-0.07667632
200	0xbd00bd23	-0.031430375
201	0xbdb81263	-0.08987882
202	0xbce921e2	-0.02845854
203	0xbde11e06	-0.10992055
204	0xbdd0fdb2	-0.102046385
205	0x3db1956b	0.08671077
206	0xbd9c9f8c	-0.07647619
207	0x3dde0ceb	0.10842308
208	0xbd1229a6	-0.03568425
209	0xbe043c4d	-0.12913628
210	0xbe1873d8	-0.14887941
211	0xbd8387a7	-0.06422358
212	0x38ee6e75	0.000113692986
213	0xbdbf91db	-0.093539916
214	0x3e2095c3	0.1568213
215	0xbd34150e	-0.04396539
216	0xbd445fc9	-0.04794291
217	0xbcc3287e	-0.02382302
218	0x3d6fe74b	0.058570188
219	0xbdaea8ef	-0.08528315
220	0xbdbe6ff5	-0.09298698
221	0xbd9734eb	-0.0738314
222	0x3d6d5e50	0.05795127
223	0x3e162f5f	0.14666508
224	0xbe68c1d3	-0.22730188
225	0xbd8f7054	-0.07003847
226	0xbccf936e	-0.025338855
227	0xbf5c7f8b	-0.86132115
228	0x3ea9dec7	0.33177778
229	0xbeb779b8	-0.35835052
230	0x3ced15dd	0.02894109
231	0xbd7555a1	-0.059896115
232	0x3e173d3c	0.14769453
233	0xbd16e3a6	-0.036838196
234	0xbe036608	-0.1283189
235	0x3d0fd238	0.03511259
236	0x3db0b0c4	0.08627465
237	0xbe1f2bf5	-0.15544112
238	0xbd1132dc	-0.035448894
239	0xbdbfbb6f	-0.09361922
240	0xbc5fcc45	-0.0136595415
241	0xbd9d6e75	-0.07687084
242	0xbd82bde7	-0.06383877
243	0xbd4b1316	-0.04957875
244	0xbe17f976	-0.14841256
245	0x3e033797	0.12814175
246	0x3e66d330	0.22541499
247	0xbe3275b7	-0.17427717
248	0xbe8d7c56	-0.27633923
249	0x3d2b4f4d	0.041823674
250	0xbdbb53bb	-0.0914683
251	0xbdc58047	-0.096436076
252	0x3dc0aa5a	0.09407492
253	0xbc3a2d96	-0.011363408
254	0xbd51ebc2	-0.051250227
255	0x3c142dc1	0.009044112

a2c_network.actor_mlp0.0.bias f4 [256]
0	0x3e748266	0.23877868
1	0xbebb0a36	-0.36531228
2	0x3c8dec68	0.017324641
3	0x3e3c497d	0.18387409
4	0x3d8ee860	0.06977916
5	0xbe5c7943	-0.21530633
6	0xbd7838ac	-0.06060092
7	0xbe48645b	-0.19569533
8	0xbb2e6d92	-0.0026615602
9	0x3e833dd3	0.25633106
10	0x3d1fb132	0.038987346
11	0xbdccc2c4	-0.09998086
12	0xbcd23d75	-0.02566407
13	0x3d343e5d	0.044004787
14	0x3e216c1e	0.157639
15	0x3e668b63	0.2251411
16	0x3b81f512	0.0039659822
17	0x3e1a36a9	0.15059914
18	0x3da545c4	0.08069947
19	0xbe210d23	-0.15727668
20	0xbd4f7f25	-0.050658364
21	0x3e0963b3	0.13416938
22	0xbce775bf	-0.028254388
23	0x3e96cb27	0.29451868
24	0xbd8a71ef	-0.06760012
25	0x3d0d876e	0.034552984
26	0x3b96e99a	0.004605484
27	0x3df15e4c	0.11785564
28	0xbe3aa173	-0.1822565
29	0xbd5ba903	-0.05362798
30	0xbd7eb16e	-0.06218093
31	0x3eaaa2ca	0.33327323
32	0x3e0c2274	0.13685018
33	0x3e812e14	0.25230467
34	0x3dce90b5	0.100861944
35	0x3e15c133	0.14624481
36	0x3e539534	0.20662385
37	0x3e26ae0e	0.16277334
38	0xbe5cfbb0	-0.21580386
39	0x3ea9daa9	0.33174637
40	0x3dbc8378	0.09204763
41	0xbd2e87b3	-0.04260988
42	0xbc7f4620	-0.015580684
43	0x3e6ce6e4	0.23134953
44	0x3d61df7c	0.055144772
45	0x3e2f1e66	0.1710144
46	0xbe388b00	-0.18021774
47	0xbe096e3c	-0.13420957
48	0x3e57a506	0.21059045
49	0x3c82ad52	0.015951786
50	0xbbc73393	-0.006079146
51	0xbc6e9d2a	-0.014563838
52	0x3e9eae60	0.30992413
53	0x3de1fecd	0.110349275
54	0x3eb9a59c	0.36259162
55	0xbd957225	-0.07297162
56	0x3eae8180	0.34083176
57	0x3e13c541	0.14430715
58	0x3e15493b	0.14578716
59	0x3e32e6ff	0.1747093
60	0x3d51fefe	0.05126857
61	0x3e1becd9	0.15227069
62	0xbe44ae8b	-0.19207208
63	0x3e4ccda2	0.20000318
64	0x3c4c3a9e	0.012465147
65	0xbc89e7d1	-0.016834171
66	0x3e543836	0.20724568
67	0xbe290772	-0.16506746
68	0xbb938be0	-0.0045027584
69	0xbe29a474	-0.1656664
70	0xbe09bf2f	-0.13451837
71	0x3e52870b	0.20559327
72	0xbdd4935c	-0.10379669
73	0xbdfbaf59	-0.12289304
74	0xbd23373f	-0.03984761
75	0xbca99428	-0.02070053
76	0xbe2abaa0	-0.16672754
77	0x3dd42ab5	0.10359708
78	0x3dd38aec	0.103292316
79	0x3dda08be	0.10646199
80	0x3d5db129	0.05412403
81	0x3e19f636	0.15035328
82	0x3ea4cf8e	0.32189602
83	0x3d9dbe89	0.07702357
84	0x3ddacbe6	0.10683422
85	0x3d8cea9e	0.06880687
86	0x3d8b042e	0.067879066
87	0xbd28576a	-0.04109899
88	0x3e96a2c2	0.2942105
89	0x3e76bc89	0.24095358
90	0xbeb6f214	-0.35731566
91	0xbe1cb32c	-0.15302724
92	0x3e4c1b89	0.19932379
93	0x3d16d17c	0.036820874
94	0xbdeb6141	-0.11493159
95	0xbd0d2e41	-0.03446794
96	0x3eb265dd	0.3484334
97	0x3ea19251	0.31556943
98	0x3e0cdb69	0.13755573
99	0x3eb780ca	0.35840446
100	0xbd363553	-0.044484448
101	0x3e9d3c6d	0.30710164
102	0x3e3074a9	0.17232002
103	0x3e78101a	0.24224892
104	0x3e3894f2	0.18025568
105	0xbdd905fd	-0.10596845
106	0x3d938a5b	0.072041236
107	0x3e88dd0d	0.26731148
108	0xbe41c53f	-0.189229
109	0x3dbf8a38	0.09352535
110	0x3eb19f2d	0.34691754
111	0xbe4c851a	-0.19972649
112	0x3dfbf2ff	0.12302207
113	0x3e611438	0.21980369
114	0x3df4b956	0.119494125
115	0xbdc48ae3	-0.09596803
116	0xbdac4401	-0.08411408
117	0xbe0a8016	-0.13525423
118	0xbe9cc6d2	-0.30620438
119	0x3e0ccf97	0.13751064
120	0x3ca20b7e	0.01978087
121	0xbe1fedea	-0.15618101
122	0xbe90ee46	-0.28306788
123	0xbe4c23c4	-0.19935519
124	0xbd7db284	-0.061937824
125	0xbe3e441f	-0.18580674
126	0x3e00e897	0.12588726
127	0x3eac92aa	0.33705646
128	0x3e8d2b7e	0.27572244
129	0xbe4dc132	-0.2009323
130	0x3e3c70ce	0.18402407
131	0xbe113ab7	-0.14182554
132	0xbe961add	-0.2931737
133	0x3e90da4f	0.28291556
134	0x3c3ee8b4	0.01165216
135	0x3b97b0f3	0.0046292483
136	0xbe8a8b5e	-0.27059454
137	0xbded739f	-0.115943186
138	0x3d9bbab6	0.07603972
139	0xbdbb5e37	-0.091488294
140	0x3de83ae6	0.11339359
141	0x3e81ec36	0.25375527
142	0xbcf7c2cf	-0.03024426
143	0x3df8b564	0.121439725
144	0x3e50fb39	0.20408334
145	0x3b295802	0.002583981
146	0x3dcc4a46	0.09975104
147	0x3d12e027	0.0358583
148	0xbd77dc30	-0.06051272
149	0xbcedb1e4	-0.029015489
150	0x3e30e1e0	0.17273664
151	0x3dc7ee3f	0.09762239
152	0xbd98a128	-0.07452613
153	0xbdd8cdf1	-0.10586155
154	0xbd2fd275	-0.042925317
155	0xbe148a6b	-0.14505927
156	0x3e9b8a1d	0.3037881
157	0x3ea7e47b	0.32791504
158	0xbcf5d6cd	-0.030009652
159	0x3d5e1fa9	0.054229412
160	0xbe2e952e	-0.17049095
161	0x3dfd71ad	0.123751976
162	0x3d4ff911	0.050774638
163	0xbcc9c80e	-0.024631526
164	0xbe4a396b	-0.19748466
165	0x3c6ac998	0.01433029
166	0xbe2a1e0f	-0.16613029
167	0x3e2e122e	0.16999123
168	0xbe63f8b8	-0.22262847
169	0xbd2be79a	-0.04196892
170	0xbd341f36	-0.043975078
171	0x3e5d7521	0.21626712
172	0x3df0d1a0	0.11758733
173	0x3db73cf7	0.08947175
174	0xbd93a75f	-0.07209658
175	0xbe48602a	-0.19567934
176	0xbe68cfb9	-0.2273549
177	0xbe9dea49	-0.30842808
178	0xbe046ba0	-0.1293168
179	0xbdc8d01b	-0.09805318
180	0x3e8aad6a	0.2708543
181	0x3bc93403	0.0061402335
182	0xbe5ae8d0	-0.21377873
183	0x3d23d8ff	0.040001865
184	0x3da588db	0.08082744
185	0x3d2c7715	0.042105753
186	0x3e0f373f	0.13985918
187	0xbd5b3bd8	-0.05352387
188	0x3e8b124e	0.27162403
189	0xbc91f806	-0.017818462
190	0xbbd3b4fd	-0.0064607845
191	0xbd793ed9	-0.06085095
192	0x3e5e9d0a	0.21739593
193	0x3e9056b0	0.28191137
194	0xbe053dd2	-0.13011864
195	0x3e1612a9	0.14655556
196	0xbddd84a6	-0.10816316
197	0x3b9fe146	0.0048791496
198	0x3d1f9159	0.038956974
199	0x3d088d3e	0.033337824
200	0xbe4f7e92	-0.20263126
201	0x3d9e621b	0.07733556
202	0xbc42524e	-0.011860443
203	0x3e8f7bca	0.2802413
204	0x3e788f28	0.2427336
205	0x3eae2452	0.34012085
206	0x3ea61f92	0.3244596
207	0xbd903cba	-0.07042833
208	0x3dbc45a9	0.09192974
209	0xbddd1f54	-0.10796991
210	0xbcc5c2ff	-0.024140833
211	0x3e8d616a	0.27613384
212	0x3e44a19b	0.19202273
213	0xbdc85429	-0.09781677
214	0x3dd0938f	0.101843946
215	0xbd51ba32	-0.05120296
216	0xbd8d8531	-0.0691017
217	0x3e1c2f12	0.15252331
218	0x3df51a21	0.11967874
219	0x3e131343	0.14362817
220	0xbe3deaee	-0.1854665
221	0x3e3942dc	0.18091911
222	0x3bf14e26	0.0073640523
223	0x3ea4ecb4	0.3221184
224	0x3dd3173f	0.10307168
225	0xbe1f1f4d	-0.15539284
226	0x3e61318a	0.21991554
227	0x3e4f84c3	0.20265488
228	0x3da34841	0.07972766
229	0xba13d220	-0.0005638916
230	0x3c669d27	0.014075554
231	0x3df63bed	0.12023149
232	0x3e105fcb	0.14099042
233	0xbe0cb3b5	-0.13740428
234	0xbdf0984a	-0.11747797
235	0x3ec0e1f7	0.37672397
236	0x3d1a84b2	0.037724204
237	0xbd830e85	-0.06399254
238	0x3ce2f015	0.02770237
239	0xbd5e1a88	-0.05422452
240	0x3d03fce5	0.0322236
241	0xbe34d4a5	-0.17659242
242	0xbe0e2ad1	-0.1388352
243	0x3ed826b8	0.4221704
244	0xbd95b258	-0.07309407
245	0x3c59a36d	0.013283593
246	0xbd7aa684	-0.061193958
247	0x3e80941c	0.25112998
248	0xbdb3ecc9	-0.087853976
249	0xbcccb7e3	-0.024990028
250	0xbdaed306	-0.08536343
251	0x3dad1a86	0.084523246
252	0xbdd14d2d	-0.10219798
253	0x3e7cbdc9	0.24681772
254	0xbcfbb175	-0.030724267
255	0x3e55f46e	0.20894024

a2c_network.actor_mlp0.2.weight f4 [128, 256]
0	0xbe333c49	-0.17503466
1	0xbd77a179	-0.060456727
2	0x3dd19139	0.10232777
3	0xbeaf1d50	-0.3420205
4	0xbde84b52	-0.11342491
5	0xbde927f7	-0.11384576
6	0x3e555e53	0.20836763
7	0x3e08df29	0.13366379
8	0x3e999809	0.29998806
9	0xbdb0692d	-0.08613811
10	0xbe7d6d03	-0.24748616
11	0xbd30ad05	-0.043133754
12	0x3e3c6a39	0.18399896
13	0xbe2b717c	-0.1674251
14	0xbcb22d81	-0.021750214
15	0xbe2e6bab	-0.1703326
16	0xbdcd2344	-0.10016492
17	0xbe66c9d1	-0.22537924
18	0xbe8a9fd2	-0.27075058
19	0x3d1fd5b7	0.039022174
20	0x3e363247	0.17792617
21	0xbe16c4bc	-0.14723486
22	0x3d92913e	0.07156609
23	0xbe9fd5af	-0.31217715
24	0xbd2189f2	-0.039438196
25	0xbe0cf33e	-0.13764665
26	0xbe5ae1c6	-0.21375188
27	0xbe2bea3e	-0.16788575
28	0xbe594b36	-0.21220097
29	0x3db263fe	0.08710478
30	0x3d73441c	0.059391126
31	0xbb1255bf	-0.002232894
32	0xbcf242e3	-0.02957291
33	0xbdfaa6dd	-0.12238858
34	0x3da81f62	0.08209111
35	0x3b273be9	0.0025517887
36	0xbdcbd1c6	-0.099521205
37	0xbe19eae7	-0.15031014
38	0x3e921ef9	0.28539255
39	0xbe54ee33	-0.20793991
40	0xbc9faa00	-0.019490242
41	0xbe30d87b	-0.17270081
42	0xbdf63493	-0.120217465
43	0xbdae6df4	-0.08517066
44	0xbe035277	-0.12824427
45	0xbe68718a	-0.22699562
46	0xbe017e51	-0.12645842
47	0x3dc9eafd	0.098592736
48	0xbe4f001d	-0.20214887
49	0x3eaa2afe	0.33235925
50	0x3e4d1ec3	0.20031266
51	0x3de60a40	0.11232424
52	0xbe762962	-0.24039224
53	0x3e039b67	0.1285225
54	0xbc04907f	-0.008091091
55	0xbc839a38	-0.016064748
56	0xbeaf3065	-0.3421661
57	0xbe1f6689	-0.15566458
58	0xbd57aed9	-0.052656982
59	0xbe8696a9	-0.2628682
60	0x3da77c0f	0.08177959
61	0xbd969b18	-0.073538005
62	0x3d1f1767	0.038840678
63	0xbd34ea53	-0.04416878
64	0xbe2a726b	-0.1664521
65	0x3ce43917	0.027859254
66	0xbe1bb0c6	-0.15204152
67	0xbd749deb	-0.059720915
68	0x3e3cb746	0.18429288
69	0x3dea14fa	0.11429782
70	0x3db9cb79	0.090720125
71	0x3cd6b558	0.026209518
72	0x3cce8ad9	0.025212692
73	0xbd56e2b8	-0.05246231
74	0xbc7867f5	-0.015161504
75	0x3e9bb87b	0.30414185
76	0x3a86e054	0.0010290244
77	0xbe1e1992	-0.15439442
78	0x3c2a8cd5	0.010409554
79	0xbe56e16b	-0.20984428
80	0xbdf992f8	-0.12186235
81	0xbe1af418	-0.15132177
82	0xbe0e7ca5	-0.13914736
83	0x3d58374b	0.052787106
84	0x3cba6d4a	0.022757191
85	0x3ea3bdbd	0.31980696
86	0xbb1a3579	-0.0023530407
87	0xbe39e30f	-0.18153022
88	0x3d05db73	0.032679986
89	0xbd64c9b7	-0.055856433
90	0xbd17cb97	-0.037059393
91	0xbddea3a6	-0.10871057
92	0xbebf85ff	-0.37406918
93	0x3d8f78b1	0.07005442
94	0xbdeb8337	-0.114996366
95	0xbd7fe763	-0.062476527
96	0xbda52a09	-0.08064658
97	0xbe457840	-0.19284153
98	0xbde6448e	-0.112435445
99	0xbe63d463	-0.22248988
100	0x3e9b05a3	0.30277738
101	0xbe535e40	-0.20641422
102	0xbde9b45c	-0.11411354
103	0xbd444008	-0.047912627
104	0xbe05f138	-0.13080299
105	0xbdaab24d	-0.083347894
106	0xbe7548b8	-0.23953521
107	0xbe680728	-0.2265898
108	0x3d1ce46e	0.038303785
109	0xbdaa9aba	-0.08330293
110	0xbe612873	-0.21988086
111	0xbc50c17e	-0.012741445
112	0xbe51a43e	-0.2047281
113	0xbe761e95	-0.24035104
114	0xbe580dec	-0.21099061
115	0x3e4b618f	0.19861434
116	0xbd01ef5c	-0.03172241
117	0x3cfdd212	0.030983958
118	0x3d9e7a7f	0.07738208
119	0xbe668764	-0.22512585
120	0xbe3d4400	-0.18482971
121	0x3af1423c	0.001840658
122	0x3e025da4	0.12731034
123	0xbd6293fc	-0.05531691
124	0x3d48e0c8	0.049042493
125	0x3de70705	0.11280636
126	0xbe84304a	-0.25818092
127	0xbd9be666	-0.076123044
128	0xbee2a1ef	-0.4426417
129	0x3dba9f0d	0.09112368
130	0xbc43ce35	-0.011951019
131	0xbd936cf0	-0.071985126
132	0x3e17239a	0.14759675
133	0xbd7ba7b0	-0.061439216
134	0xbdd3e831	-0.10347021
135	0xbbc9f748	-0.0061635114
136	0xbc9f60e3	-0.019455379
137	0xbd64f9a7	-0.05590215
138	0xbe70bc03	-0.23509221
139	0x3ddb0d28	0.10695869
140	0xbdc513bc	-0.09622905
141	0xbea5b549	-0.32364872
142	0xbd9e812d	-0.07739482
143	0xbe54588f	-0.20736907
144	0xbc217445	-0.009854381
145	0x3dfed2a9	0.12442524
146	0xbd0be6e1	-0.03415573
147	0xbe8f20db	-0.27954754
148	0x3ddf76aa	0.10911305
149	0xbe8254f0	-0.25455427
150	0x3d04bad3	0.032404732
151	0xbdf165b3	-0.11786976
152	0xbdb45d89	-0.08806903
153	0xb9f32c5e	-0.00046381628
154	0xbd49ccf7	-0.049267735
155	0xbd41b141	-0.047288183
156	0xbe4d883e	-0.20071504
157	0xbdeaf65a	-0.11472769
158	0xbe90449e	-0.2817735
159	0xbd9fafc9	-0.077972
160	0x3e499a3b	0.1968774
161	0x3bdc8fc9	0.0067310077
162	0x3d43eabc	0.047831282
163	0x3e4d358b	0.20039956
164	0x3dddf550	0.10837805
165	0x3e05ac01	0.13053896
166	0x3d3c98bb	0.046044093
167	0xbdd9cfb5	-0.1063532
168	0x3e22e50a	0.15907684
169	0x3e15b9b4	0.14621621
170	0x3d283916	0.041070066
171	0xbe3363f3	-0.17518596
172	0xbe54909e	-0.20758292
173	0x398e6298	0.0002715781
174	0xbd8eca91	-0.0697223
175	0xbdb1185c	-0.08647224
176	0x3ef16064	0.47143853
177	0xbd352a29	-0.04422966
178	0x3d199d13	0.037503313
179	0x3d86683b	0.06562849
180	0xbeaed296	-0.3414504
181	0xbbdc568c	-0.0067241844
182	0x3d75a3f2	0.059970804
183	0xbc4785fe	-0.012177942
184	0xbdc62f8c	-0.096770376
185	0xbc6c0e7f	-0.014407753
186	0xbe180355	-0.14845021
187	0xbe812e14	-0.25230467
188	0x3cded33b	0.027200332
189	0x3dc36d97	0.09542387
190	0x3b612d09	0.0034359118
191	0xbdd40061	-0.10351635
192	0xbe118d36	-0.14214024
193	0xbe2b2aab	-0.16715495
194	0x3ec27246	0.3797781
195	0xbbbc235d	-0.0057415203
196	0xbe08e0d4	-0.13367015
197	0xb9754b73	-0.00023393128
198	0xbeaa5f2f	-0.33275744
199	0x3e11ba9a	0.14231339
200	0xbcba7852	-0.022762451
201	0xbd4e29ec	-0.05033295
202	0xbe547910	-0.20749307
203	0xbe874443	-0.26419267
204	0xbe1f68b3	-0.15567283
205	0xbe9af6e4	-0.30266488
206	0x3c3987a6	0.011323845
207	0x3e04c2b9	0.12964906
208	0xbd2d6c9c	-0.042339906
209	0xbdf8f882	-0.12156774
210	0xbe04c5e1	-0.1296611
211	0xbe981969	-0.29706886
212	0xbe77a027	-0.24182187
213	0x3e402df6	0.18767533
214	0xbb7bb0be	-0.0038404907
215	0x3e40ffc5	0.18847568
216	0xbe236fc5	-0.15960605
217	0xbdea145a	-0.11429663
218	0xbe3c1ab0	-0.18369555
219	0xbdd5864d	-0.104260065
220	0x3eb77ea3	0.35838804
221	0xbe6e9069	-0.23297276
222	0xbdfd1931	-0.123583205
223	0xbe1e8bb1	-0.15482976
224	0xbc969012	-0.018379245
225	0xbd2f9a53	-0.042871784
226	0xbe255ef9	-0.1614951
227	0xbe5c5c7a	-0.21519652
228	0x3e31f6c6	0.17379293
229	0xbe84961e	-0.2589578
230	0xbccf0390	-0.025270253
231	0xbea16598	-0.31522822
232	0xbeb1a699	-0.34697416
233	0xbcd4ed58	-0.02599208
234	0x3d93497c	0.071917504
235	0xbe497103	-0.19672017
236	0x3dd786a3	0.10523727
237	0xbd1cd134	-0.03828545
238	0x3bc8427a	0.0061114402
239	0x3c92ec5d	0.017934972
240	0x3db8a9ad	0.09016738
241	0x3d619948	0.05507782
242	0xbd912cf6	-0.07088654
243	0xbe238bcf	-0.15971301
244	0x3d8ea4ba	0.06965013
245	0x3de2acff	0.11068153
246	0xbd4f5349	-0.050616536
247	0xbe1e27bb	-0.15444843
248	0xbd7a72de	-0.061144702
249	0x3e1ad422	0.15119985
250	0x3e2fc8b8	0.17166412
251	0x3d370781	0.04468489
252	0xbdf1d1da	-0.11807604
253	0xbe290c77	-0.16508661
254	0xbb05516c	-0.002034272
255	0xbda43f23	-0.08019855

a2c_network.actor_mlp0.2.bias f4 [128]
0	0xbe58d6b3	-0.21175651
1	0xbd99d072	-0.07510461
2	0xbe8680fd	-0.26270285
3	0xbd78d3b8	-0.060748786
4	0xbe8c26e3	-0.27373418
5	0xbe8921a4	-0.26783478
6	0x3e50c683	0.20388226
7	0xbeb2afbe	-0.34899706
8	0xbe714823	-0.23562674
9	0xbe8ebde4	-0.2787925
10	0xbd047285	-0.032335777
11	0x3d48cedc	0.0490254
12	0xbd3ad741	-0.04561544
13	0xbd2180f3	-0.039429616
14	0xbe418be0	-0.18901014
15	0xbe044745	-0.12917812
16	0xbde47506	-0.11155133
17	0xbdb1a5a1	-0.08674169
18	0x3d95358a	0.072856024
19	0xbea03242	-0.31288344
20	0xbe0ee27f	-0.13953589
21	0xbe90d4d0	-0.28287363
22	0xbe9128b8	-0.28351378
23	0xbe2367c9	-0.1595756
24	0xbe270b67	-0.16312943
25	0xbdb8f91f	-0.09031891
26	0xbe0bdcc1	-0.1365843
27	0xbe684c4c	-0.22685355
28	0xbdc8fe84	-0.0981417
29	0x3d1f9043	0.038955938
30	0xbc9326f9	-0.01796292
31	0x3d826afa	0.063680604
32	0xbe364a45	-0.17801769
33	0xbd44cf1b	-0.048049074
34	0xbe3c9c5c	-0.18419021
35	0xbe32dfd8	-0.17468202
36	0xbe80a8e0	-0.2512884
37	0xbe338891	-0.17532565
38	0x3ce9d5dc	0.028544359
39	0xbcc74da1	-0.024329009
40	0x3ccfecab	0.025381407
41	0xbc9e59cc	-0.019329928
42	0xbe786600	-0.2425766
43	0xbd88e4e1	-0.0668428
44	0xbdec3f11	-0.115354665
45	0x3ca2d5d4	0.019877352
46	0xbcf385aa	-0.029726822
47	0xbe77c549	-0.24196352
48	0xbdfe6dcb	-0.12423285
49	0xbe5e70ad	-0.2172267
50	0xbd5e3717	-0.054251757
51	0xbda0413f	-0.07824945
52	0x3dd65534	0.1046547
53	0xbe032024	-0.1280523
54	0xbc2e9151	-0.010654763
55	0xbe3e513a	-0.18585673
56	0xbe5e8705	-0.21731193
57	0x3e3a93e9	0.18220486
58	0xbdeeccc3	-0.11660149
59	0xbd06252b	-0.03275029
60	0x3e038d1e	0.128468
61	0x3d88a198	0.066714466
62	0xbe563e2d	-0.20922156
63	0x3da53571	0.08066834
64	0xbe800d36	-0.2501008
65	0xbeb36cd3	-0.35043964
66	0xbe1b0a97	-0.15140758
67	0x3d540389	0.051761184
68	0xbdb47e83	-0.08813193
69	0x3b3a21fe	0.0028401609
70	0xbe8fcbe2	-0.28085238
71	0x3dfd5452	0.123695984
72	0xbd0b42d0	-0.033999264
73	0xbe32e941	-0.17471792
74	0x3d4574c9	0.048207078
75	0xbcecb477	-0.028894646
76	0xbdaea1f0	-0.08526981
77	0x3d83ff5b	0.064451896
78	0x3d374603	0.044744503
79	0xbd21dba4	-0.039516106
80	0x3c072a38	0.008249812
81	0x3d97dc48	0.07415062
82	0xbe236e10	-0.15959954
83	0xbdb3765f	-0.08762812
84	0x3a152553	0.00056894607
85	0xbd96f512	-0.07370962
86	0xbd0e152a	-0.034688152
87	0x3d12b2ac	0.035814926
88	0xbdb24b71	-0.087057956
89	0xbdb5f045	-0.088837184
90	0xbe3d6890	-0.18496919
91	0xbe21ca34	-0.1579979
92	0xbdc2c610	-0.09510434
93	0xbc9fd38b	-0.019510051
94	0xbe1b118c	-0.15143412
95	0xbcfad5c5	-0.030619511
96	0xbde1e130	-0.11029279
97	0xbe3292fa	-0.1743888
98	0xbe380b05	-0.17972954
99	0xbe7b73cb	-0.2455589
100	0x3cdc57aa	0.02689727
101	0xbc81b7cb	-0.01583471
102	0xbe881ff3	-0.26586875
103	0x3c13b98e	0.009016408
104	0xbe72d94f	-0.23715709
105	0x3e1b60a5	0.15173586
106	0xbdbe62be	-0.09296177
107	0x3d6bf830	0.057609737
108	0xbbd80879	-0.006592807
109	0xbe7ffbd0	-0.24998403
110	0xbd931eef	-0.071836345
111	0xbe93bc12	-0.28854424
112	0x3dc6f146	0.09713988
113	0xbe4a6bed	-0.19767733
114	0x3c8c06e6	0.017093133
115	0xbe10f28a	-0.14155021
116	0xbe3965d4	-0.1810525
117	0xbdf99ede	-0.12188505
118	0x3db96c87	0.09053903
119	0x3e058532	0.13039091
120	0xbce79cea	-0.028273065
121	0xbde04186	-0.109499976
122	0xbd6d4e3b	-0.057935935
123	0xbe9ba35a	-0.30398065
124	0x3d05c4a6	0.03265824
125	0xbe2d8f99	-0.1694931
126	0xbd88a5b5	-0.06672231
127	0xbe6d2583	-0.23158841

a2c_network.actor_mlp0.4.weight f4 [64, 128]
0	0x3e790767	0.2431923
1	0xbdbfffa9	-0.09374935
2	0x3db9f325	0.09079579
3	0xbdae62a5	-0.08514909
4	0x3e0ad73b	0.13558666
5	0x3b988b31	0.004655265
6	0xbe04612d	-0.12927695
7	0xbdae1e7d	-0.08501909
8	0xbd1b980e	-0.037986808
9	0x3d1542a8	0.03644052
10	0x3dea7022	0.11447169
11	0x38d6a09c	0.00010234231
12	0xbd99f309	-0.075170584
13	0xbcdd2ea1	-0.026999773
14	0x3c860eea	0.016364533
15	0xbe332f8d	-0.17498608
16	0x3d05df1b	0.032683473
17	0x3c4453ec	0.011982899
18	0xbdca3075	-0.09872524
19	0x3d6bd672	0.057577558
20	0xbd15c347	-0.036563184
21	0x3aa3022f	0.0012436564
22	0x3dd40810	0.103531
23	0xbd87f599	-0.06638641
24	0x3df769fd	0.120807625
25	0xbe2d16af	-0.16903184
26	0x3de9cd41	0.11416102
27	0xbdd6f6cb	-0.10496291
28	0xbda54aeb	-0.0807093
29	0x3b839e11	0.0040166457
30	0x3b9fea70	0.004880242
31	0xbe357df1	-0.17723824
32	0xbdb66d54	-0.089075714
33	0xbdc0c27b	-0.09412094
34	0xbbc12337	-0.0058940905
35	0xbdf43884	-0.11924842
36	0x3c6cafd7	0.01444622
37	0xbd1b9e67	-0.03799286
38	0xbd577c23	-0.05260862
39	0xbdd285b2	-0.102794066
40	0x3d10a13e	0.035310023
41	0xbe4a9ba4	-0.19785935
42	0x3dcaf0e5	0.09909228
43	0xbd606abf	-0.0547893
44	0x3c809901	0.015697958
45	0xbda70106	-0.08154492
46	0xbd1afece	-0.037840657
47	0xbca19e9b	-0.01972895
48	0xbd4dbf24	-0.050231114
49	0xbe2e97fa	-0.17050162
50	0x3dcb007d	0.099122025
51	0xbd3884b1	-0.04504842
52	0xbdd3dd6e	-0.10344969
53	0xbe1b9fd2	-0.15197685
54	0x3da86a7b	0.082234345
55	0xbdcfc33f	-0.10144662
56	0x3db3ed07	0.08785444
57	0xbe1976cd	-0.14986725
58	0x3dc68eed	0.0969523
59	0x3e00aa09	0.12564863
60	0x3d9b4af6	0.07582657
61	0xbdefdcd3	-0.11712041
62	0xbc4213df	-0.011845558
63	0xbd5d8009	-0.054077182
64	0x3d7d28f1	0.061806623
65	0x3e135030	0.14386058
66	0x3e62208b	0.22082727
67	0xbd4b5d64	-0.04964961
68	0xbd944238	-0.07239193
69	0xbd9b4ca3	-0.07582977
70	0x3dd1b293	0.102391385
71	0xbdba1e4b	-0.09087809
72	0xbe6b3d0a	-0.22972503
73	0x3cb3281c	0.021869712
74	0xbdae961b	-0.08524724
75	0xbe07855f	-0.13234471
76	0x3dd7d76d	0.10539136
77	0xbea30e33	-0.3184677
78	0xbdfc69a7	-0.12324839
79	0xbe7a29d7	-0.24430023
80	0x3c772926	0.015085494
81	0x3d1ee55a	0.038792945
82	0x3e128371	0.14307953
83	0x3db13b2d	0.08653865
84	0x3cb6ae14	0.022299804
85	0xbdd27a05	-0.1027718
86	0x3dafe9df	0.08589529
87	0x3e5b7800	0.21432495
88	0xbd9cab2b	-0.07649835
89	0x3d2b4a79	0.04181907
90	0x3ce546c5	0.027987847
91	0xbdbd07d3	-0.09230008
92	0xbe466ba2	-0.19376996
93	0xbd2bbf13	-0.04193027
94	0x3dfb6f9c	0.12277147
95	0xbd73280b	-0.05936436
96	0x3c41e280	0.011833787
97	0x3b48c640	0.0030635744
98	0xbd846eea	-0.06466468
99	0xbd051683	-0.032492172
100	0xbe14c7f2	-0.14529398
101	0xbe1fa1a0	-0.15588999
102	0x3c46abc3	0.012125912
103	0x3d94a09c	0.07257196
104	0x3de7a6ff	0.11311149
105	0xbd8c1e3a	-0.06841703
106	0xbe3ae834	-0.18252641
107	0xbcf6bd89	-0.030119674
108	0xbe880deb	-0.2657312
109	0x3d3cffb0	0.04614228
110	0xbdd2e572	-0.102976695
111	0xbd909e51	-0.070614465
112	0xbcff4aa9	-0.03116353
113	0xbd1c3712	-0.038138457
114	0xbda77157	-0.08175915
115	0xbd676aea	-0.056498446
116	0xbe3292fb	-0.17438881
117	0x3d755189	0.05989221
118	0x3e05e44e	0.13075373
119	0xbdb2fb0b	-0.08739289
120	0xbdd3dc09	-0.10344703
121	0xbdf39a8f	-0.11894714
122	0x3d0318a0	0.032005906
123	0x3e359e44	0.17736155
124	0xbd954408	-0.072883666
125	0x3e9cbb18	0.3061149
126	0x3d115aeb	0.035487097
127	0x3e48f3a3	0.1962419
128	0x3e11a7cb	0.14224164
129	0x3e072410	0.1319735
130	0x3d316960	0.043313384
131	0x3e85a761	0.26104262
132	0x3dd4a4df	0.10383009
133	0x3e0df290	0.13862062
134	0xbdaa874c	-0.08326587
135	0x3d05384e	0.0325244
136	0xbd932f20	-0.07186723
137	0x3e8c3f9d	0.27392283
138	0x3e85a0e9	0.26099327
139	0xbdc2fe12	-0.09521116
140	0x3cf53d6f	0.02993652
141	0x3d90fa8b	0.07079037
142	0xbe408e50	-0.18804288
143	0xbca40645	-0.02002252
144	0x3d63b22f	0.05558985
145	0x3e174412	0.1477206
146	0xbebc1717	-0.36736366
147	0xbb2aa356	-0.0026037297
148	0xbe8b805f	-0.27246377
149	0xbe30a441	-0.17250158
150	0xbe0cec64	-0.13762051
151	0x3d4c8736	0.049933635
152	0xbc15c199	-0.009140396
153	0xbe612a27	-0.21988736
154	0x3e975d7d	0.29563513
155	0x3df6e35f	0.12055086
156	0x3af25a96	0.0018490131
157	0x3e5e8efb	0.2173423
158	0xbda332f4	-0.07968703
159	0xbb955061	-0.004556701
160	0x3d912030	0.070862174
161	0xbe35ac4e	-0.1774151
162	0x3e122d69	0.14275135
163	0xbd9306a7	-0.07179003
164	0xbd46e108	-0.04855445
165	0x3e061538	0.13094032
166	0x3db8e235	0.090275206
167	0xbcede90c	-0.02904179
168	0x3cc8d123	0.024513787
169	0xbd2c4988	-0.042062312
170	0x3d9ba30e	0.075994596
171	0xbe2eb938	-0.17062843
172	0xbc8c9f74	-0.017165877
173	0xbe61970e	-0.22030279
174	0xbdb64dbc	-0.089015454
175	0xbcd8c5db	-0.026461532
176	0xbd76ebde	-0.060283534
177	0x3dc1c0f9	0.09460635
178	0x3e0872f9	0.13325109
179	0x3e054c60	0.13017416
180	0x3d8dc1ac	0.069217056
181	0xbdad34f6	-0.08457367
182	0xbb24cf0e	-0.0025147828
183	0x3e696f2a	0.22796312
184	0x3e5d0ea8	0.21587622
185	0x3da39cf2	0.07988919
186	0xbd89242d	-0.06696353
187	0xbde0e59a	-0.10981293
188	0xbdf5735f	-0.11984896
189	0xbe2b5076	-0.16729912
190	0xbd0d816e	-0.034547262
191	0xbe00bcf8	-0.12572086
192	0xbe25e1a5	-0.16199358
193	0x3e329691	0.17440249
194	0x3e2e3635	0.17012866
195	0xbe1ab8b7	-0.15109526
196	0x3dc3d4c0	0.09562063
197	0xbdf94556	-0.12171428
198	0x3df22179	0.11822791
199	0xbdc8c726	-0.098036095
200	0xbe3bacc7	-0.18327628
201	0xbe001a13	-0.12509947
202	0xbdc1cc3c	-0.09462783
203	0x3e189851	0.14901854
204	0xbc984d98	-0.018591687
205	0xbc974de8	-0.018469766
206	0xbe3c8942	-0.18411735
207	0x3d8039aa	0.062609985
208	0xbdeeb015	-0.11654679
209	0xbe8f0158	-0.27930713
210	0x3d419e57	0.047270145
211	0xbc678335	-0.014130403
212	0xbd4bccbb	-0.049755793
213	0xbdbf2781	-0.09333707
214	0xbdfc5ff5	-0.1232299
215	0x3e013242	0.12616828
216	0x3dd0ad83	0.10189345
217	0x3e8deeb3	0.27721176
218	0xbc9c53b8	-0.019082889
219	0xbdaae351	-0.083441384
220	0x3e15d928	0.1463362
221	0x3d9a9fa5	0.07549981
222	0x3d944b44	0.07240918
223	0xbd25d600	-0.04048729
224	0x3cbcce95	0.023047725
225	0xbeb06d35	-0.34458318
226	0xbd1529ab	-0.03641669
227	0xbcbd3659	-0.023097204
228	0xbe5723bd	-0.21009727
229	0xbe3fbb10	-0.18723702
230	0xbda6b0cc	-0.0813919
231	0x3d8bf157	0.06833141
232	0x3db718aa	0.08940251
233	0x3c6399f3	0.013891685
234	0xbe245c6d	-0.16050883
235	0xbe29114f	-0.16510509
236	0xbd0f6874	-0.035011724
237	0x3dcd85f3	0.100353144
238	0xbe143d12	-0.14476421
239	0x3e12581d	0.14291425
240	0xbd1a3816	-0.037651144
241	0xbc1f12f9	-0.009709113
242	0xbc7aa3f4	-0.0152978785
243	0xbe8a30b2	-0.26990277
244	0x3d69455a	0.056950904
245	0xbdef1647	-0.11674171
246	0x3e4e6dc4	0.2015906
247	0xbe39e087	-0.18152057
248	0xbd7aa344	-0.06119086
249	0xbc909fce	-0.017654326
250	0xbce7c1b2	-0.028290603
251	0x3dffb435	0.12485544
252	0x3d8cbf23	0.06872394
253	0x3e38e971	0.18057801
254	0xbed1a105	-0.4094316
255	0x3d8cd133	0.06875839

a2c_network.actor_mlp0.4.bias f4 [64]
0	0xbd028df2	-0.03187365
1	0xbe25f1e7	-0.1620556
2	0xbe3bb7ec	-0.1833188
3	0x3d086634	0.033300593
4	0xbe303e72	-0.17211321
5	0xbd71d674	-0.05904241
6	0x3bed5111	0.00724233
7	0xbdfa66e0	-0.12226653
8	0xbcda606f	-0.026657311
9	0xbd600c5b	-0.054699283
10	0xbe1452c7	-0.14484702
11	0xbdc9c811	-0.09852613
12	0xbd864fd7	-0.06558197
13	0xbe173954	-0.14767963
14	0x3e603610	0.21895623
15	0xbdbdd896	-0.09269826
16	0xbce702c3	-0.02819956
17	0xbe40c70e	-0.18825933
18	0xbd47c50b	-0.0487719
19	0xbd15e7f0	-0.036598146
20	0xbcdf01fe	-0.02722263
21	0xbd5511c5	-0.0520189
22	0xbcd97402	-0.026544575
23	0xbd52b570	-0.051442564
24	0xbe6fd048	-0.23419297
25	0xbd7815e0	-0.060567737
26	0xbc9bd28b	-0.019021293
27	0x3dc8a351	0.09796775
28	0x3c7f1a6c	0.015570264
29	0xbe8e8473	-0.27835426
30	0xbe410264	-0.18848568
31	0xbe273619	-0.1632923
32	0xbe572cda	-0.21013203
33	0xbe4b0e13	-0.19829588
34	0xbd3f2838	-0.046669215
35	0x3daace18	0.083400905
36	0x3d7c78d4	0.06163867
37	0xbd826a3c	-0.06367919
38	0xbda00924	-0.078142434
39	0xbdd9dd1a	-0.10637875
40	0x3c90d366	0.017678928
41	0xbe539fbe	-0.20666406
42	0xbe0ece23	-0.13945822
43	0xbe18ba2e	-0.14914772
44	0xbd930ada	-0.07179804
45	0x3de7dd6a	0.11321528
46	0x3c43c26d	0.01194821
47	0xbdb978c2	-0.09056236
48	0x3dddaa04	0.108234435
49	0xbc3eebdb	-0.011652912
50	0xbd424e54	-0.04743798
51	0xbe40387d	-0.18771549
52	0xbe786272	-0.24256304
53	0xbdd53580	-0.10410595
54	0xbe009146	-0.12555417
55	0xb9f1e2df	-0.00046136134
56	0xbe3502f7	-0.17676912
57	0xbad656e6	-0.0016352802
58	0xbd6021c2	-0.054719694
59	0xbd76f1dd	-0.060289253
60	0xbe363c3c	-0.17796415
61	0x3c64550e	0.013936294
62	0xbd2a507a	-0.041580655
63	0xbdb88ec9	-0.09011609

a2c_network.value0.weight f4 [1, 64]
0	0x3dbca64c	0.09211406
1	0xb98e37a6	-0.00027125812
2	0x3c072ff8	0.008251183
3	0xbb9c1cb2	-0.004764163
4	0xbcd17ceb	-0.02557226
5	0x3db101ae	0.086428985
6	0xbc1f97ed	-0.009740812
7	0xbcdf318d	-0.027245307
8	0x3d9c8174	0.07641879
9	0xbe47b3ba	-0.19502154
10	0xbd02bb39	-0.03191683
11	0x3b51e8e1	0.0032029676
12	0x3c9c2075	0.019058445
13	0x3b399b11	0.0028321187
14	0xbb822632	-0.0039718384
15	0xbc48003e	-0.012207089
16	0x3e80d40a	0.25161773
17	0xbd365323	-0.04451288
18	0xbc131a40	-0.008978426
19	0xbe2aaeed	-0.16668291
20	0x3dc8dbe8	0.09807569
21	0x3b657c8a	0.0035016858
22	0xbbd141d4	-0.006386021
23	0xbb5d4167	-0.0033760907
24	0xbd2af7a6	-0.041740082
25	0xbc79c47e	-0.015244601
26	0x3e18029e	0.14844748
27	0x3e7524db	0.2393984
28	0xbc9c3d1a	-0.019072104
29	0xbeaf8c15	-0.34286562
30	0xbd5ab1b4	-0.053392127
31	0x3a36b9be	0.0006970427
32	0xbd267fe6	-0.040649317
33	0xbb7747b5	-0.003773195
34	0x3e998023	0.29980573
35	0x3c8d1ff2	0.017227147
36	0x3d9134e4	0.07090166
37	0x3c424dbd	0.011859355
38	0xbbb41c58	-0.005496543
39	0xbc83aa36	-0.016072374
40	0x3d66d297	0.056353178
41	0xbe82a0bd	-0.2551326
42	0xba429a84	-0.00074235373
43	0xbccc0ef6	-0.024909478
44	0xbba0b7ec	-0.0049047377
45	0x3dbf7064	0.09347609
46	0xbc24387d	-0.0100232335
47	0x3cb75c23	0.022382801
48	0x3c83a125	0.01606805
49	0xbc3f3681	-0.01167071
50	0x3c2d4ace	0.010576917
51	0x3c5e2db1	0.013560698
52	0x3ee5f7ec	0.44915712
53	0xbe73e2d5	-0.23816998
54	0xbc004327	-0.00782851
55	0xbc0f3f18	-0.00874307
56	0xbc6d546e	-0.014485462
57	0x3e0f007c	0.13965029
58	0x3b836f74	0.004011089
59	0x3e192da1	0.14958812
60	0xbd21051c	-0.039311513
61	0x3e106538	0.14101112
62	0xbe7b4dc2	-0.24541381
63	0xbccf5ad3	-0.025311863

a2c_network.mu0.weight f4 [12, 64]
0	0x3c12d4fa	0.00896191
1	0x3bb6df5d	0.005580826
2	0x3dd24337	0.102667265
3	0xbde97993	-0.114001416
4	0x3d0080d2	0.031372853
5	0xbdabaf11	-0.08383001
6	0x3d897b40	0.06712961
7	0xbdfba23a	-0.12286802
8	0x3d6c6ef8	0.057723016
9	0xbd6b581c	-0.057457075
10	0x3e0f985d	0.14022966
11	0xbda4ac0f	-0.0804063
12	0x3bf1e622	0.0073821703
13	0xbe22dcb9	-0.15904512
14	0xbd96a213	-0.07355132
15	0x3de490ec	0.11160454
16	0x3ca68243	0.020325786
17	0x3d8fd725	0.070234574
18	0xbdda5e41	-0.10662509
19	0x3c4f3825	0.012647663
20	0xbdca70a9	-0.098847695
21	0xbdb7e04e	-0.089783296
22	0xbe4c212d	-0.1993453
23	0x3d8d03e0	0.06885505
24	0xbd7fc5a3	-0.06244434
25	0xbd08f834	-0.03343983
26	0xbdeb4150	-0.11487067
27	0x3d3bcba5	0.045848507
28	0xbdf3e988	-0.11909777
29	0x3da8bd54	0.082392365
30	0x3dd55792	0.10417093
31	0xbbbfd799	-0.0058545587
32	0x3d1afb79	0.03783748
33	0x3df6c54c	0.1204935
34	0x3d235a2e	0.039880924
35	0xbd8eadb0	-0.06966722
36	0xbe4b454d	-0.19850655
37	0xbd6fb57e	-0.058522694
38	0x3d6e1ff8	0.058135957
39	0x3c2a326b	0.010387997
40	0x3cba0dd3	0.02271167
41	0xbd775960	-0.06038797
42	0x3daf7043	0.08566334
43	0xbdc4f5fc	-0.0961723
44	0x3cf7ce8a	0.030249853
45	0xbe3095fa	-0.17244712
46	0xbd293f09	-0.04131988
47	0xbdc464fa	-0.09589572
48	0xbe1a3587	-0.15059482
49	0xbda91be3	-0.08257272
50	0xbca788ad	-0.020450914
51	0x39a2b0ae	0.00031030684
52	0x3d0bf940	0.03417325
53	0x3d9b68fe	0.07588385
54	0x3cc30a21	0.02380854
55	0xbd5b68a2	-0.053566583
56	0x3dd2e4c1	0.102975376
57	0x3dcc5717	0.099775486
58	0xbcd944f4	-0.026522137
59	0x3d8d55d9	0.0690114
60	0x3d931b06	0.07182889
61	0x3cee4cfe	0.029089447
62	0xbd552180	-0.0520339
63	0xbda8f09c	-0.082490176
64	0xbc591b75	-0.013251175
65	0x3c9d1c06	0.019178402
66	0x3dd57c24	0.104240686
67	0xbd68690f	-0.056740817
68	0xbd7394c9	-0.059468064
69	0xbc90f341	-0.017694118
70	0x3d0ae2db	0.033907752
71	0x3dab4630	0.083629966
72	0x3ce10f8e	0.027473237
73	0xbca321ff	-0.019913672
74	0xbd9c52fd	-0.07633016
75	0xbca0ba69	-0.019620137
76	0xbdb9e1bf	-0.09076261
77	0x3e02fa2c	0.12790745
78	0x3c65df7e	0.0140303355
79	0x3c7f823c	0.015595015
80	0x3d7ccc2a	0.061718144
81	0xbd4da77f	-0.050208565
82	0x3dc1d8f5	0.094652094
83	0xbd342e3c	-0.043989405
84	0x3c81de0d	0.015852952
85	0xbcef70e3	-0.029228633
86	0xbd40af9b	-0.04704247
87	0x3d8ef549	0.06980378
88	0xbc8314db	-0.016001156
89	0xbde617e7	-0.11235028
90	0xbdafdcf9	-0.08587069
91	0xbc51425f	-0.012772172
92	0xbdf72f87	-0.12069612
93	0xbd0578e9	-0.032586012
94	0x3c23f9e6	0.010008311
95	0x3de52142	0.11187984
96	0x3db9eaa1	0.09077955
97	0x3ddd74bd	0.10813282
98	0x3d621a88	0.055201083
99	0xbdc50b5a	-0.09621306
100	0xbe322461	-0.1739669
101	0xbe21567e	-0.1575565
102	0xbdae8faa	-0.085234955
103	0xbe1c2b17	-0.15250812
104	0x3be2623e	0.006908684
105	0x39e0b27b	0.00042857588
106	0x3d74def7	0.05978295
107	0xbc852aac	-0.0162557
108	0x3c42fc46	0.011900967
109	0x3e15824c	0.14600486
110	0xbda688c2	-0.08131553
111	0xbe1ad308	-0.15119565
112	0xbdeb2c25	-0.11483029
113	0xbd6ff3c3	-0.05858208
114	0x3de018c9	0.109422274
115	0xbdd1b46e	-0.10239492
116	0x3d79ebf4	0.061016038
117	0x3e2d2823	0.16909842
118	0x3e28829f	0.16456078
119	0xbce8f5dc	-0.028437547
120	0xbe108581	-0.14113428
121	0xbcd3af4a	-0.02584042
122	0x3d4a69c9	0.04941729
123	0xbd254e1d	-0.040357698
124	0x3d9a7377	0.075415544
125	0x3de074c7	0.109597735
126	0x3c2af69f	0.010434776
127	0xbd7fff74	-0.06249948
128	0xbcc34bb9	-0.023839818
129	0x3cf2d08c	0.029640459
130	0x3d9356e4	0.071943074
131	0xbd589c8a	-0.052883662
132	0xbd908e65	-0.070584096
133	0x3d0b848f	0.034061965
134	0xbc05283b	-0.0081272675
135	0x3c133743	0.008985343
136	0xbd9b3110	-0.07577717
137	0x3d88bfeb	0.066772304
138	0xbd22e618	-0.039770216
139	0xbb61aec3	-0.0034436441
140	0xbc4eacd3	-0.012614447
141	0x3c498839	0.012300544
142	0x3d4db701	0.050223354
143	0x38ddab16	0.000105699684
144	0x352ed884	6.5135123e-07
145	0x3d2ef437	0.04271337
146	0xbcdc4354	-0.026887573
147	0xbd3723dc	-0.044711933
148	0x3c6180c9	0.013763615
149	0x3ade2971	0.0016949606
150	0x3d63af67	0.0555872
151	0x3cb88a99	0.022527026
152	0xbc88f6c3	-0.016719228
153	0xbd2939ad	-0.04131477
154	0xbc0cb366	-0.008587694
155	0x3c89889d	0.016788775
156	0x3b90cbc3	0.0044188215
157	0x3d139952	0.03603489
158	0x3d25f4d7	0.0405167
159	0xbc159768	-0.009130336
160	0x3c9697b3	0.018382883
161	0xbc911106	-0.017708313
162	0x3d2a8fbf	0.041640993
163	0xbe2f7538	-0.17134559
164	0x3cd5eb40	0.026113153
165	0x3c91db97	0.017804904
166	0xbc5b639c	-0.013390448
167	0x3d35bec2	0.044371374
168	0x3b6bb719	0.003596729
169	0xbd740490	-0.059574664
170	0xbd80d18d	-0.06289969
171	0x3d670d27	0.056409027
172	0x3d1bc9a1	0.038034085
173	0xbd845f32	-0.064634696
174	0xbca1fa9f	-0.019772826
175	0x3d0f0205	0.034914035
176	0xbdb7d23c	-0.08975646
177	0xbcd4ceea	-0.02597757
178	0xbb924a79	-0.0044644442
179	0xbd85e3ac	-0.065375656
180	0x3d90bb7e	0.07067011
181	0x3d380fdd	0.044937003
182	0xbd2bf0bd	-0.041977633
183	0x3c76926e	0.01504956
184	0xbc0311f9	-0.0079998905
185	0xbd606326	-0.054782055
186	0xbd41f98f	-0.04735714
187	0x3d3c3ab4	0.04595442
188	0x3c6ec97c	0.014574405
189	0x3cf7dddb	0.030257156
190	0xbb1ba14d	-0.0023747266
191	0x3abed623	0.0014559667
192	0x3dac27db	0.08406039
193	0xbd89ef8b	-0.06735142
194	0xbc4278dc	-0.011869635
195	0x3d78eb2c	0.060771152
196	0xbb8e3fe9	-0.004341115
197	0xbd1786db	-0.036993843
198	0x3cc2cbc9	0.023778813
199	0xbe048599	-0.12941588
200	0x3deacb26	0.11464529
201	0x3d0d3531	0.034474555
202	0x3d6f5cc7	0.05843809
203	0x3d18ac09	0.03727344
204	0xbd3d3ce5	-0.04620065
205	0x3c36fb16	0.011168262
206	0x3e0b511b	0.13605158
207	0xbda8a75d	-0.08235047
208	0x3cb8e43d	0.02256977
209	0x3a59fe93	0.00083158276
210	0x3e1a0290	0.1504004
211	0xbc233f3c	-0.009963807
212	0x3ce3747d	0.027765507
213	0xbca27ff5	-0.019836405
214	0x3d96dd94	0.073664814
215	0x3d4148a5	0.04718842
216	0x3e02aade	0.12760493
217	0xbd696440	-0.05698037
218	0xbd60e420	-0.054905057
219	0x3da81a9b	0.082081996
220	0x3d521d4b	0.051297467
221	0xbd038b0d	-0.03211503
222	0xbce65616	-0.02811722
223	0x3cc6b5ff	0.024256704
224	0xbd580684	-0.05274059
225	0xbc1b1601	-0.009465695
226	0x3dd20116	0.102541134
227	0xbd6f7fde	-0.058471553
228	0xbd675cfd	-0.056485165
229	0x3d33dfb5	0.043914516
230	0x3c71f61e	0.014768152
231	0x3d8c7ca6	0.06859712
232	0x3d7d30df	0.061814185
233	0x3d39b13f	0.04533505
234	0x3e25fad8	0.1620897
235	0xbdf91a71	-0.121632464
236	0xbd2460cc	-0.040131375
237	0xbd16d4c1	-0.03682399
238	0xbd142fd6	-0.036178432
239	0x3e10d5b4	0.14144021
240	0xbd304fe5	-0.043044943
241	0xbcd99c4a	-0.026563782
242	0xbd964075	-0.07336513
243	0xbd958e6c	-0.073025554
244	0x3cb64acf	0.022252468
245	0x3de19ad6	0.11015861
246	0xbd97c32c	-0.07410273
247	0x3d8bf5e2	0.06834008
248	0xbdc44c2a	-0.0958484
249	0x3d8c1174	0.068392664
250	0xbd0d7250	-0.034532845
251	0x3b183a99	0.0023228286
252	0xbdbac8e6	-0.091203496
253	0x3de2aed5	0.11068503
254	0x3e02f2e3	0.12787966
255	0x3d98cd18	0.074609935

a2c_network.mu0.bias f4 [12]
0	0xbca04909	-0.019566076
1	0xbc9679f2	-0.018368695
2	0xbd2980e9	-0.041382704
3	0x3d953abc	0.07286593
4	0xbdeb1a73	-0.11479654
5	0x3e2b3b92	0.16721943
6	0xbd3e9d7c	-0.046536908
7	0xbd80cc0f	-0.06288921
8	0xbd8f9410	-0.070106626
9	0x3de8e0d3	0.11371007
10	0xbc94dab9	-0.018170701
11	0xbd4b9e9f	-0.04971182

a2c_network.adapt_weight0.weight f4 [1, 12]
0	0xbe874826	-0.26422232
1	0x3e32827e	0.17432591
2	0xbcb2a537	-0.021807296
3	0xbda646b3	-0.081189536
4	0x3dfc1193	0.123080395
5	0xbdfa8a87	-0.12233453
6	0xbb698ca9	-0.0035636819
7	0x3e8e3822	0.277772
8	0x3dfcbef5	0.1234111
9	0xbe757992	-0.23972157
10	0x3c7fd498	0.015614651
11	0xbcfac08b	-0.03060939

exp_avg f4 [12]
0	0x3ccd1f0d	0.02503922
1	0xbb63f628	-0.0034784172
2	0x3b71cc7f	0.003689557
3	0x3c5966aa	0.013269106
4	0xbc7d0b01	-0.015444518
5	0x3b6b2e33	0.0035885691
6	0xbcc6b101	-0.024254324
7	0x3b9c958a	0.0047785686
8	0x3b73a096	0.0037174574
9	0x3bd998b1	0.0066405167
10	0xbcbffd86	-0.02343632
11	0xbb278846	-0.0025563403

exp_avg_sq f4 [12]
0	0x3c2a9834	0.010412265
1	0x3c348afb	0.011019464
2	0x3bfaca1d	0.0076534883
3	0x3c01a0a7	0.007911838
4	0x3beab50e	0.0071626967
5	0x3bdaf954	0.0066825543
6	0x3c5bea16	0.01342251
7	0x3c38eecb	0.011287401
8	0x3c02cb6b	0.007983069
9	0x3c18e4c2	0.009331884
10	0x3c25ceb2	0.010120081
11	0x3c25877f	0.010103106
