outputs/train/2024-07-05_11-40-58/runs/FactoryTaskNutBoltPickGPT-2024-07-05_11-40-59/nn/FactoryTaskNutBoltPickGPT.pth (torch, 651626 bytes, 37 tensors)

value_mean_std.running_mean f8 [1]
11820.05675317779
00000000: 4729 b043 0716 c740

value_mean_std.running_var f8 [1]
565521775.4237301
00000000: ca3c b6b7 96da c041

value_mean_std.count f8 []
14069761.0
00000000: 0000 0020 00d6 6a41

running_mean_std.running_mean f8 [41]
0.02600864585240649 -0.2641709169495037 0.4668010299935394 0.009001217651639849 0.981044253648986 -0.01995411982756008 0.03304369606655043 -0.055325982590992195
-0.07006116781354416 -0.0714189517114796 0.035064601778429794 -0.1218526629167563 -0.009176356220925606 0.00020438600811950784 -5.381255598441538e-05 0.43199217895788267
0.0 0.0 0.0 0.9999816628028306 -0.0018577244925669098 -0.2951833826767337 0.39984114028982 0.0012753086444723034
-0.0060026965500142755 -1.8205673455163753e-05 0.984840285092572 0.0 0.0 0.0 0.0 0.0
0.0 0.0 0.0 0.0 0.0 0.0 0.0 0.0
0.0
00000000: 44b7 65ad 02a2 9a3f 8c8e 3622 2de8 d0bf
00000010: 6fed 636d 11e0 dd3f faf6 80fb 3a6f 823f
00000020: 673c 2beb b664 ef3f 73c0 5150 da6e 94bf
00000030: 8ebc e373 1aeb a03f 60db b1eb af53 acbf
00000040: b48e 7a58 87ef b1bf 3058 ea2d 8348 b2bf
00000050: e86f c5cb fcf3 a13f 6571 2872 bc31 bfbf
00000060: bf2d ecae 0dcb 82bf 47d8 f670 0eca 2a3f
00000070: 2fa2 3358 9936 0cbf e41e 3086 c2a5 db3f
00000080: 0000 0000 0000 0000 0000 0000 0000 0000
00000090: 0000 0000 0000 0000 bacf 4a8b d9ff ef3f
000000a0: 8405 327c dc6f 5ebf 92d4 bad7 48e4 d2bf
000000b0: cef7 484b ff96 d93f 5a6f e63a 08e5 543f
000000c0: 7406 ec95 4896 78bf 54b4 7c5a 0c17 f3be
000000d0: 7130 08c6 cf83 ef3f 0000 0000 0000 0000
000000e0: 0000 0000 0000 0000 0000 0000 0000 0000
000000f0: 0000 0000 0000 0000 0000 0000 0000 0000
00000100: 0000 0000 0000 0000 0000 0000 0000 0000
00000110: 0000 0000 0000 0000 0000 0000 0000 0000
00000120: 0000 0000 0000 0000 0000 0000 0000 0000
00000130: 0000 0000 0000 0000 0000 0000 0000 0000
00000140: 0000 0000 0000 0000

running_mean_std.running_var f8 [41]
0.004721052021339731 0.005827129722805133 0.006080485127780103 0.027008033633388516 0.00044365122847411505 0.002455067223725395 0.006221883137237425 0.013213964920318117
0.02296047383567662 0.038634058774684774 0.10187636546629375 0.06838621841759764 0.1736470009406422 0.003356537869317951 0.003341404340815342 3.5907486794806207e-06
1.4214881531044944e-07 1.4214881531044944e-07 1.4214881531044944e-07 1.8621018244465387e-05 0.0035694243887790128 0.003880449635351529 0.0021610907343878336 0.004213792083072829
0.0039020515391449944 0.012504575205567999 0.00957518560905171 1.4214881531044944e-07 1.4214881531044944e-07 1.4214881531044944e-07 1.4214881531044944e-07 1.4214881531044944e-07
1.4214881531044944e-07 1.4214881531044944e-07 1.4214881531044944e-07 1.4214881531044944e-07 1.4214881531044944e-07 1.4214881531044944e-07 1.4214881531044944e-07 1.4214881531044944e-07
1.4214881531044944e-07
00000000: 57c6 8cc0 6156 733f bd88 6c39 30de 773f
00000010: 5136 48cc d9e7 783f 961a bd74 fea7 9b3f
00000020: cc67 6284 3b13 3d3f 6aa6 ee2d a61c 643f
00000030: 3de5 8009 1e7c 793f bd4f 7759 ec0f 8b3f
00000040: d04a e650 f382 973f 06e5 e5e5 d7c7 a33f
00000050: 50bf e9c9 9114 ba3f 21c7 995b c281 b13f
00000060: 4355 0b9f 103a c63f 9156 0c8c 2b7f 6b3f
00000070: 447c bacb 6e5f 6b3f c51e 77f6 121f ce3e
00000080: efe6 d433 3214 833e efe6 d433 3214 833e
00000090: efe6 d433 3214 833e 9508 4ba1 8a86 f33e
000000a0: a5c0 7d20 a03d 6d3f 3f2e e288 e4c9 6f3f
000000b0: c26d e4c0 22b4 613f 8ae7 0533 7b42 713f
000000c0: bc13 eff7 31f7 6f3f 315f 77ac ff9b 893f
000000d0: 4f20 5aa8 279c 833f efe6 d433 3214 833e
000000e0: efe6 d433 3214 833e efe6 d433 3214 833e
000000f0: efe6 d433 3214 833e efe6 d433 3214 833e
00000100: efe6 d433 3214 833e efe6 d433 3214 833e
00000110: efe6 d433 3214 833e efe6 d433 3214 833e
00000120: efe6 d433 3214 833e efe6 d433 3214 833e
00000130: efe6 d433 3214 833e efe6 d433 3214 833e
00000140: efe6 d433 3214 833e

running_mean_std.count f8 []
7034881.0
00000000: 0000 0040 00d6 5a41

a2c_network.sigma0 f4 [12]
-0.5201649 -0.5941932 -1.1350454 -0.5265614 -0.6821319 -0.6536809 -0.57295775 -0.3792249
-0.48738298 -0.5128249 -0.7184827 -0.5558652
00000000: 8729 05bf 0c1d 18bf 2b49 91bf bacc 06bf
00000010: 32a0 2ebf a257 27bf 5cad 12bf c429 c2be
00000020: 438a f9be 7e48 03bf 7bee 37bf 2f4d 0ebf

a2c_network.actor_mlp0.0.weight f4 [256, 41]
-0.014749635 0.33002293 0.04935298 0.027869014 0.10253596 0.06845335 0.08200544 -0.06920436
-0.15880331 -0.028061364 -0.1789303 0.26120123 0.019864589 0.05627598 0.059019275 0.13426822
0.12222288 -0.11096358 0.009833282 0.03016803 0.006030537 -0.12144486 0.05434396 -0.14389308
0.07917985 -0.17519712 -0.039169475 -0.093147345 0.14046937 0.05204508 0.15027831 -0.1288865
-0.15490504 -0.122184694 -0.10505639 0.06325664 0.055922054 0.1297686 -0.080652095 -0.106465496
0.082862385 -0.0012099206 0.11711556 -0.18836688 0.012826924 -0.11107997 0.05344385 0.10459639
0.029676616 -0.0051992503 0.12338989 0.10551802 -0.09188225 -0.044968978 0.08960003 -0.0036164876
-0.22063245 -0.1511129 -0.08943606 0.03901278 -0.18677661 -0.10251541 -0.04907959 0.03611045
-0.2949075 -0.44481033 -0.14440668 -0.43333808 0.15611269 0.029497314 0.048126463 -0.14566082
-0.10257084 -0.051983345 0.024421066 -0.13742062 -0.067291066 -0.09349632 0.00043279785 -0.05811276
-0.010822181 -0.10582798 -0.14738998 -0.048406765 -0.12606113 -0.14852424 -0.00030180305 -0.05993205
0.09907972 0.040458694 -0.2363382 0.084887475 -0.09982424 -0.111175895 -0.1174758 -0.09673111
0.017384999 0.039412722 0.060802057 -0.1281661 0.115947954 -0.040378466 -0.017036436 0.030195843
0.1557295 0.24650691 0.3822641 -0.18069008 0.18655041 -0.06717439 -0.017114272 -0.11689451
0.14225222 -0.114623815 0.08346726 0.054885644 0.050749592 -0.084434755 0.14195438 0.034319248
0.020090202 -0.13762888 0.065559946 -0.08136453 -0.18997832 0.33032444 0.004368366 -0.103073016
-0.025380196 0.0058004954 0.16563453 -0.0042695487 -0.06175321 -0.0016635087 -0.07675017 0.10912941
0.10981945 -0.0953107 0.17818913 0.08067808 0.028318891 -0.055617325 0.22336677 0.15175804
0.11077599 -0.19100636 -0.03873161 0.14826491 -0.03180293 -0.13361108 0.09982735 0.13421567
-0.015460789 -0.034966815 0.0022789328 -0.009324861 0.037545934 0.04376514 -0.14184588 -0.057634015
0.13151853 0.060838267 -0.007767704 -0.09415806 -0.15522002 -0.121966615 0.1385905 0.122025356
0.101422794 0.037436634 -0.21047635 -0.15434486 -0.0734362 0.15431766 0.033413295 -0.022320796
0.004166879 -0.076334044 -0.045425124 0.16873327 -0.07101249 -0.03130765 -0.15536232 0.15953206
0.20389938 0.17363538 -0.22880399 -0.19006053 -0.15889497 0.23116852 0.09724227 0.13142093
0.08181473 0.03952636 -0.0015293605 -0.11877109 -0.13380533 -0.14607692 0.0639316 -0.07667632
-0.031430375 -0.08987882 -0.02845854 -0.10992055 -0.102046385 0.09423686 -0.07434711 0.16523065
-0.08472897 -0.11502383 -0.042980637 -0.1185155 0.0061774612 -0.08260619 0.17406064 -0.07220944
0.038295895 0.03292676 0.11735401 -0.052400038 0.062113162 -0.0738314 0.05795127 0.14666508
-0.07190429 -0.027150868 -0.06330181 -0.7151777 0.113593735 -0.43407208 0.06908487 -0.024397839
0.14769453 -0.036838196 -0.1283189 0.03511259 0.08627465 -0.15544112 -0.035448894 -0.09361922
-0.0136595415 -0.07687084 -0.06383877 -0.04957875 -0.14841256 0.12814175 0.2969128 -0.17551623
-0.18241207 -0.031573508 -0.13306989 -0.15394454 0.062001307 -0.0012739964 -0.12191022 -0.016299013
00000000: 74a8 71bc c4f8 a83e 5a26 4a3d 8f4d e43c
00000010: 60fe d13d 4531 8c3d 78f2 a73d 04bb 8dbd
00000020: 569d 22be f2e0 e5bc 8139 37be 2bbc 853e
00000030: 10bb a23c a481 663d 32be 713d 9c7d 093e
00000040: fd4f fa3d e040 e3bd c61b 213c f222 f73c
00000050: d09b c53b 15b8 f8bd c697 5e3d b558 13be
00000060: 0c29 a23d e066 33be 2c70 20bd 09c4 bebd
00000070: 34d7 0f3e 392d 553d 8fe2 193e d3fa 03be
00000080: 6d9f 1ebe f83b fabd ce27 d7bd b38c 813d
00000090: 860e 653d 0fe2 043e ed2c a5bd 950a dabd
000000a0: c1b3 a93d 3396 9eba 48da ef3d 3fe3 40be
000000b0: 0528 523c e57d e3bd f0e7 5a3d a236 d63d
000000c0: 601c f33c 795e aabb d7b3 fc3d d519 d83d
000000d0: c32c bcbd 6431 38bd 3880 b73d 9802 6dbb
000000e0: 79ed 61be 57bd 1abe 412a b7bd ddcb 1f3d
000000f0: 5e42 3fbe 99f3 d1bd ae07 49bd 8de8 133d
00000100: 1efe 96be 2ebe e3be 58df 13be 7dde ddbe
00000110: 01dc 1f3e 5aa4 f13c 4120 453d 1c28 15be
00000120: a910 d2bd 7dec 54bd b00e c83c feb7 0cbe
00000130: e6cf 89bd 007b bfbd 25e9 e239 a507 6ebd
00000140: 844f 31bc 57bc d8bd 66ed 16be 2c46 46bd
00000150: 2b16 01be bd16 18be 523b 9eb9 4f7b 75bd
00000160: 4fea ca3d 04b8 253d a402 72be 7cd9 ad3d
00000170: a770 ccbd 30b0 e3bd 2797 f0bd f61a c6bd
00000180: fc6a 8e3c 3c6f 213d 940b 793d f93d 03be
00000190: 1f76 ed3d e463 25bd ff8f 8bbc 465d f73c
000001a0: 8e77 1f3e 4f6c 7c3e 1fb8 c33e d206 39be
000001b0: 1207 3f3e ba92 89bd 3b33 8cbc 6466 efbd
000001c0: 91aa 113e e4bf eabd e2f0 aa3d c5cf 603d
000001d0: cede 4f3d 21ec acbd 7d5c 113e 5792 0c3d
000001e0: 3594 a43c 96ee 0cbe 4b44 863d 72a2 a6bd
000001f0: ad89 42be 4920 a93e 8324 8f3b f217 d3bd
00000200: 21ea cfbc 1512 be3b 199c 293e 92e7 8bbb
00000210: eff0 7cbd 170a daba 312f 9dbd 3d7f df3d
00000220: 05e9 e03d 4232 c3bd 3677 363e 8d3a a53d
00000230: 05fd e73c fece 63bd 42ba 643e 7666 1b3e
00000240: 86de e23d 2c97 43be 09a5 1ebd c2d2 173e
00000250: ca43 02bd 58d1 08be 4872 cc3d d56f 093e
00000260: 404f 7dbc 5d39 0fbd 265a 153b 4dc7 18bc
00000270: c4c9 193d 1343 333d 0c40 11be a511 6cbd
00000280: cbac 063e 8c31 793d 3988 febb f1d5 c0bd
00000290: fff1 1ebe a2c9 f9bd abea 0d3e 6ee8 f93d
000002a0: c1b6 cf3d 2857 193d 1d87 57be 940c 1ebe
000002b0: b865 96bd 7305 1e3e 61dc 083d 1ada b6bc
000002c0: 518a 883b 0655 9cbd b20f 3abd 6ac8 2c3e
000002d0: ff6e 91bd 733c 00bd 4d17 1fbe 5f5c 233e
000002e0: 00cb 503e 79cd 313e 984b 6abe 3a9f 42be
000002f0: 5db5 22be 71b7 6c3e f526 c73d 3593 063e
00000300: 7b8e a73d 64e6 213d d374 c8ba 423e f3bd
00000310: 4404 09be 3095 15be 92ee 823d 7908 9dbd
00000320: 23bd 00bd 6312 b8bd e221 e9bc 061e e1bd
00000330: b2fd d0bd 41ff c03d 4c43 98bd 3932 293e
00000340: 6286 adbd 9d91 ebbd 770c 30bd 41b8 f2bd
00000350: 4d6c ca3b 6f2d a9bd f43c 323e 8be2 93bd
00000360: 28dc 1c3d 36de 063d 4d57 f03d 6ca1 56bd
00000370: 5f6a 7e3d eb34 97bd 505e 6d3d 5f2f 163e
00000380: 8e42 93bd 7f6b debc 61a4 81bd e315 37bf
00000390: d5a3 e83d b23e debe 5e7c 8d3d fadd c7bc
000003a0: 3c3d 173e a6e3 16bd 0866 03be 38d2 0f3d
000003b0: c4b0 b03d f52b 1fbe dc32 11bd 6fbb bfbd
000003c0: 45cc 5fbc 756e 9dbd e7bd 82bd 1613 4bbd
000003d0: 76f9 17be 9737 033e f404 983e 87ba 33be
000003e0: 3bca 3abe 3953 01bd 7943 08be a3a3 1dbe
000003f0: 15f5 7d3d 3afc a6ba 11ac f9bd 8285 85bc

a2c_network.actor_mlp0.0.bias f4 [256]
0.11993895 -0.20723015 0.08767691 0.13806067 0.067419365 -0.05820831 -0.04137539 -0.09058032
0.03273335 0.22455563 0.13573742 0.024068303 -0.011118981 0.102491274 0.08421628 0.11853104
0.0065544215 0.17632776 0.011160884 -0.058805414 -0.07570603 0.109714866 0.014459927 0.09849154
-0.08759021 0.12039558 0.047797777 0.025975313 -0.060136132 -0.022547368 0.037591107 0.27262068
0.13227016 0.29146203 0.094587915 0.1879781 0.18486995 0.07335689 -0.19948873 0.1678231
0.13396546 -0.10158733 0.16593601 0.13729341 0.046409365 0.028859662 -0.03528879 -0.10827185
0.17022532 -0.02416845 0.084263176 -0.034737732 0.21641237 0.074568376 0.23062837 -0.02877132
0.22306667 0.033139523 0.03691282 0.19136189 0.0861367 0.13107166 -0.12592517 0.030030454
0.09910873 0.039352603 0.18868464 -0.27073857 0.086487666 -0.08020905 -0.13110209 0.098972656
-0.06626923 -0.04335138 0.07431311 0.018833525 -0.13466166 -0.04946741 0.13905214 0.061500654
0.00954911 0.101980284 0.2906567 0.17427586 0.22360356 -0.0015632045 0.013288226 0.05005897
0.2101264 0.21878213 -0.055106256 -0.090554 0.10617564 0.009764026 0.019058423 -0.011695115
0.26217958 0.22009459 -0.053496517 0.32103342 0.097252026 0.09026337 0.04027373 0.1947405
0.24636987 -0.11792412 0.039974667 0.16195713 -0.017666519 0.0816867 0.19763209 -0.042381104
0.0938148 0.18047222 0.09477858 -0.030325633 -0.19268061 -0.11715263 -0.1788726 0.19227782
0.10228234 -0.09351414 -0.25241417 -0.080105364 -0.1001328 -0.13206725 0.08345686 0.1681248
0.18702237 -0.07897495 0.20031063 -0.07099229 -0.08648115 0.24420366 -0.06377796 0.010388531
-0.22660753 -0.026574146 0.026552 -0.149938 -0.005848851 0.18063939 -0.12580648 0.1278876
0.1639101 0.0160081 0.081372924 0.0077460264 -0.049336653 -0.0033950997 -0.1560813 0.17263435
0.00016567939 0.01713947 0.022864444 -0.13819085 0.1302506 0.22453281 -0.06008567 0.062205896
-0.121880434 0.019868257 -0.024434822 -0.046727397 -0.20306602 0.04434233 -0.15909755 0.019317202
-0.119239084 -0.066122755 -0.03814463 0.15647636 0.0586407 0.05597116 -0.058433924 -0.04657696
-0.18738563 -0.27345762 -0.06901659 -0.105896175 0.16698648 -0.052665714 -0.14962131 0.13288535
0.10799032 0.088009186 0.10357962 0.0043932716 0.063815325 -0.05060152 0.043084353 0.013307614
0.03933977 0.015096343 -0.074171245 0.18293111 0.013221866 0.021191634 0.050837487 0.0281532
-0.040362183 0.08831416 -0.08321847 0.22188589 0.116559945 0.213535 0.07327818 -0.04856582
0.04426682 -0.10225351 -0.04267662 0.31149897 0.10033139 -0.09041479 0.03966922 -0.06586141
-0.0015091999 0.10041827 0.053356774 0.13732624 -0.16022603 0.07888844 0.11306923 0.15815711
0.07264913 -0.18994677 0.025253842 0.16145566 0.1247358 0.09406705 -0.020103894 0.12648404
0.11721374 -0.10324896 -0.06723994 0.20032069 0.11429607 0.10054466 0.06601616 0.016319908
0.006716247 -0.05762703 -0.060540646 0.23869358 -0.10625182 0.059990495 -0.08685921 0.193505
-0.03812606 -0.058525357 -0.083999604 0.054605816 -0.09686999 0.058707613 -0.14316827 0.19708931
00000000: 8da2 f53d 2434 54be f48f b33d c75f 0d3e
00000010: 2a13 8a3d d66b 6ebd 3e79 29bd 2d82 b9bd
00000020: 6813 063d e9f1 653e c0fe 0a3e e42a c53c
00000030: 632c 36bc f2e6 d13d 9679 ac3d 67c0 f23d
00000040: 79c6 d63b 448f 343e 24dc 363c f2dd 70bd
00000050: c30b 9bbd 30b2 e03d 54e9 6c3c efb5 c93d
00000060: 7f62 b3bd f591 f63d 9ac7 433d 2eca d43c
00000070: 4e51 76bd 42b5 b8bc 22f9 193d f094 8b3e
00000080: d471 073e 833a 953e 4fb7 c13d 557d 403e
00000090: 8c4e 3d3e 233c 963d c646 4cbe d2d9 2b3e
000000a0: 3e2e 093e 050d d0bd 21eb 293e a596 0c3e
000000b0: bf17 3e3d 196b ec3c fa8a 10bd a2bd ddbd
000000c0: 8c4f 2e3e eafc c5bc 2c92 ac3d 2749 0ebd
000000d0: 349b 5d3e 4eb7 983d d829 6c3e d5b1 ebbc
000000e0: 976b 643e 4fbd 073d e631 173d 5ff4 433e
000000f0: 7068 b03d a637 063e 87f2 00be 6d02 f63c
00000100: 85f9 ca3d 3230 213d 8c36 413e 3f9e 8abe
00000110: 7220 b13d a444 a4bd a03f 06be 2db2 ca3d
00000120: 29b8 87bd 3791 31bd 7931 983d c448 9a3c
00000130: bfe4 09be 579e 4abd af63 0e3e 1ce8 7b3d
00000140: df73 1c3c 0adb d03d f4d0 943e 5f75 323e
00000150: 55f8 643e 70e4 ccba dcb6 593c a20a 4d3d
00000160: 602b 573e 6c08 603e 19b7 61bd 6074 b9bd
00000170: 9d72 d93d 4bf9 1f3c 6920 9c3c de9c 3fbc
00000180: 673c 863e 7a60 613e 2a1f 5bbd 7e5e a43e
00000190: 122c c73d 00dc b83d 11f6 243d 0e6a 473e
000001a0: 6248 7c3e 3382 f1bd 7abc 233d 17d8 253e
000001b0: 60b9 90bc 5b4b a73d 1160 4a3e cf97 2dbd
000001c0: f921 c03d b6cd 383e 461b c23d 766d f8bc
000001d0: 114e 45be b8ed efbd 612a 37be 7ae4 443e
000001e0: 6779 d13d 5784 bfbd 6e3c 81be 480e a4bd
000001f0: 6d12 cdbd a33c 07be 6eeb aa3d e828 2c3e
00000200: cb82 3f3e 9ebd a1bd 3b1e 4d3e 6864 91bd
00000210: 071d b1bd 8610 7a3e 059e 82bd a834 2a3c
00000220: ce0b 68be 06b2 d9bc 9483 d93c 5989 19be
00000230: b8a7 bfbb 88f9 383e 6ad3 00be f8f4 023e
00000240: 0dd8 273e 6b23 833c d9a6 a63d 61d2 fd3b
00000250: 3b15 4abd 5280 5ebb c7d3 1fbe 0fc7 303e
00000260: 39ba 2d39 1368 8c3c 374e bb3c e781 0dbe
00000270: 6a60 053e eeeb 653e 641c 76bd 9ccb 7e3d
00000280: 739c f9bd c1c2 a23c 892b c8bc 3a65 3fbd
00000290: 8af0 4fbe 4ea0 353d 78ea 22be 1c3f 9e3c
000002a0: 9f33 f4bd 5e6b 87bd 8b3d 1cbd 573b 203e
000002b0: 3b31 703d 0442 653d 6958 6fbd 7bc7 3ebd
000002c0: 05e2 3fbe a302 8cbe 9258 8dbd 18e0 d8bd
000002d0: 81fe 2a3e 01b8 57bd 5436 19be 1913 083e
000002e0: 072a dd3d 293e b43d 8d21 d43d 6ff5 8f3b
000002f0: 9cb1 823d 8a43 4fbd 3879 303d 2e08 5a3c
00000300: bd22 213d a756 773c 18e7 97bd 4b52 3b3e
00000310: 87a0 583c 149a ad3c f83a 503d 8aa1 e63c
00000320: d152 25bd 0ede b43d 726e aabd 0e36 633e
00000330: fbb6 ee3d eba8 5a3e df12 963d f4ec 46bd
00000340: 2051 353d 4a6a d1bd aecd 2ebd cb7c 9f3e
00000350: 8b7a cd3d 642b b9bd 317c 223d 59e2 86bd
00000360: 58d0 c5ba 18a8 cd3d a28c 5a3d 409f 0c3e
00000370: 4b12 24be 4390 a13d d790 e73d f0f3 213e
00000380: 11c9 943d 6881 42be 25e1 ce3c a254 253e
00000390: 7c75 ff3d 3aa6 c03d ecb0 a4bc 0885 013e
000003a0: c20d f03d 3174 d3bd 18b5 89bd de20 4d3e
000003b0: 0f14 ea3d 5cea cd3d 7b33 873d 54b1 853c
000003c0: f713 dc3b 520a 6cbd 78f9 77bd 176c 743e
000003d0: 8e9a d9bd 98b8 753d 3ee3 b1bd 2d26 463e
000003e0: 122a 1cbd 49b8 6fbd fc07 acbd 59aa 5f3d
000003f0: c663 c6bd 6577 703d b49a 12be c8d1 493e

a2c_network.actor_mlp0.2.weight f4 [128, 256]
-0.110857695 0.07231668 0.04978232 -0.18392642 -0.07204337 -0.0033570912 0.10818749 0.06294904
0.16761957 -0.11850911 -0.19207671 0.06336125 0.095291466 -0.057689775 -0.047611378 -0.1805198
-0.14872348 -0.058137976 -0.034081828 0.0935512 0.07503046 -0.11410422 -0.03552325 -0.1617715
0.011905807 -0.15459141 -0.08750092 -0.107115924 -0.14330545 0.06917432 0.03406279 -0.040816225
-0.059624087 -0.13317934 0.1263418 -0.011561181 -0.10055994 -0.024761543 0.18297032 -0.027862022
-0.016728014 -0.16492696 -0.12990496 -0.05692929 -0.09751421 0.0033973258 0.054015696 0.13916081
-0.06725546 0.15998976 0.038638767 0.11123712 -0.1451308 0.083610035 -0.019777328 0.047792204
-0.28172508 -0.028938984 -0.053604096 -0.117166944 0.091168016 0.041097667 -0.016998786 -0.018011868
-0.08114196 0.060298998 -0.12797973 0.04862696 0.1005762 0.0457081 0.11075925 0.03745796
0.029299334 -0.03726565 0.0012458859 0.258172 0.04654963 -0.07491364 -0.102124296 -0.17500089
-0.120067194 -0.08832334 -0.035392195 0.0066501037 -0.027876457 0.20544204 0.122666955 -0.09459983
-0.036453657 -0.032719497 -0.010168557 -0.0908476 -0.2960699 0.040068224 -0.042301398 0.078692146
-0.057118066 -0.10109096 -0.11562429 -0.14354166 0.03974868 -0.14793096 -0.09596548 -0.024548763
-0.15486783 -0.02144912 -0.060907092 -0.17121536 -0.012837706 -0.15701514 -0.11423389 0.017501822
-0.1313133 -0.061472118 -0.0735971 0.22545137 0.06629046 0.01718944 0.09600367 -0.17390536
-0.15357395 0.05712969 0.103021264 -0.13539124 0.07496698 0.006809558 -0.1837421 -0.08181394
-0.36321622 0.1091729 -0.049630247 0.063591756 0.12993848 -0.083776645 -0.12406388 0.060021013
0.081720546 0.04814703 -0.16967028 0.04163413 -0.02948379 -0.24886148 -0.0633046 -0.17680876
-0.08831167 0.11394532 -0.1190631 -0.21071504 0.059899457 -0.19362482 0.05547481 -0.061703257
0.014147187 -0.050711904 0.015030519 -0.077630825 -0.18090941 -0.075998746 -0.17960437 -0.024921976
0.15450111 0.047907256 0.0743217 0.14517044 0.11142274 0.0692439 0.086815655 0.041692913
0.020686615 0.16303793 0.010872913 -0.07609989 -0.16462678 0.14577867 -0.018553514 0.030989768
0.22909096 0.08724807 0.003969441 0.052217636 -0.34951553 0.019044075 -0.04657345 -0.08905751
-0.14205061 -0.033127557 -0.07569858 -0.1838277 0.07872452 0.06524097 0.0038240356 0.021555385
-0.13413446 -0.03611066 0.15929168 -0.028245006 0.0068271887 -0.032685384 -0.1545514 0.07329981
-0.008893136 -0.086024486 0.010521682 -0.20968454 -0.065435335 -0.13206081 0.03292638 0.16929395
-0.09370258 0.0018500804 0.014159129 -0.2878245 -0.118771955 0.18579808 0.07284504 0.12710807
-0.0076473686 -0.029803379 -0.14243539 -0.057214543 0.14914948 -0.077627786 -0.104239225 -0.014815501
0.014524764 0.084138736 -0.015491826 -0.078829765 0.00018345242 -0.20136279 -0.044861786 -0.23776834
-0.21545263 -0.019380037 -0.012244394 -0.18905915 0.018640656 -0.07142287 -0.08682514 0.037862513
0.06585591 0.14334443 -0.10626948 -0.15041877 0.054099735 0.10428624 -0.036796983 -0.099575534
-0.061624724 0.0786733 0.10413905 -0.004061551 0.013812409 -0.10140741 0.061906237 -0.04459401
00000000: 5c09 e3bd c41a 943d 8ce8 4b3d 3557 3cbe
00000010: 798b 93bd a502 5cbb 6791 dd3d 6deb 803d
00000020: 77a4 2b3e e7b4 f2bd c2af 44be 8bc3 813d
00000030: 2c28 c33d 1d4c 6cbd 2604 43bd 2fda 38be
00000040: f84a 18be 1622 6ebd 6399 0bbd c697 bf3d
00000050: 92a9 993d 79af e9bd d480 11bd 6ea7 25be
00000060: 9310 433c 364d 1ebe af33 b3bd 985f dbbd
00000070: aabe 12be 44ab 8d3d 6d85 0b3d ea2e 27bd
00000080: 6338 74bd 2a60 08be bf5f 013e 1c6b 3dbc
00000090: 5ff2 cdbd b8d8 cabc 925c 3b3e e53e e4bc
000000a0: 3009 89bc 9de2 28be ce05 05be b02e 69bd
000000b0: 88b5 c7bd aba5 5e3b 903f 5d3d 2c80 0e3e
000000c0: 3bbd 89bd 5bd4 233e af43 1e3d 4ad0 e33d
000000d0: 2b9d 14be bd3b ab3d 1004 a2bc c2c1 433d
000000e0: 453e 90be 7311 edbc f88f 5bbd 39f5 efbd
000000f0: 4cb6 ba3d 0756 283d 0a41 8bbc a08d 93bc
00000100: c22d a6bd 15fc 763d 1e0d 03be 102d 473d
00000110: e5fa cd3d 6b38 3b3d bfd5 e23d 856d 193d
00000120: 2805 f03c dea3 18bd fe4c a33a 1f2f 843e
00000130: d3aa 3e3d 536c 99bd 8b26 d1bd 6f33 33be
00000140: cae5 f5bd dee2 b4bd 68f7 10bd 1de9 d93b
00000150: 2b5d e4bc 665f 523e d038 fb3d 8ebd c1bd
00000160: 6e50 15bd e104 06bd 059a 26bc 4e0e babd
00000170: 7996 97be 941e 243d 3b44 2dbd 5929 a13d
00000180: a2f4 69bd c708 cfbd 6ecc ecbd 96fc 12be
00000190: 83cf 223d 377b 17be 8d89 c4bd 7d1a c9bc
000001a0: ac95 1ebe 11b6 afbc b779 79bd 1453 2fbe
000001b0: 3e55 52bc 94c8 20be 75f3 e9bd fb5f 8f3c
000001c0: fe76 06be 30ca 7bbd 14ba 96bd b9dc 663e
000001d0: 4bc3 873d ded0 8c3c 929d c43d 3f14 32be
000001e0: 7d42 1dbe d200 6a3d d0fc d23d 00a4 0abe
000001f0: 4a88 993d b622 df3b e426 3cbe 118e a7bd
00000200: 7af7 b9be 0b96 df3d 1649 4bbd 653c 823d
00000210: 980e 053e 1793 abbd 3415 febd 98d8 753d
00000220: 1a5d a73d d235 453d 0cbe 2dbe 8d88 2a3d
00000230: fd87 f1bc 8bd5 7ebe d8a5 81bd 5b0d 35be
00000240: c0dc b4bd 2a5c e93d 5bd7 f3bd afc5 57be
00000250: 2259 753d 9645 46be 8e39 633d 8ebc 7cbd
00000260: 9ac9 673c 49b7 4fbd 9142 763c e9fc 9ebd
00000270: 5140 39be 3ba5 9bbd 35ea 37be 2c29 ccbc
00000280: 8a35 1e3e 663a 443d fa35 983d 8fa7 143e
00000290: 9b31 e43d bfcf 8d3d 68cc b13d 30c6 2a3d
000002a0: fa76 a93c 6af3 263e 4d24 323c 42da 9bbd
000002b0: ec93 28be 0147 153e 8afd 97bc 41de fd3c
000002c0: d296 6a3e 1eaf b23d 1612 823b 29e2 553d
000002d0: b3f3 b2be 5202 9c3c cdc3 3ebd c963 b6bd
000002e0: b775 11be c3b0 07bd db07 9bbd 543d 3cbe
000002f0: 523a a13d 0f9d 853d ac9c 7a3b eb94 b03c
00000300: 8b5a 09be c5e8 13bd 5c1d 233e 1262 e7bc
00000310: 9cb6 df3b 1ce1 05bd b942 1ebe 361e 963d
00000320: 84b4 11bc 9b2d b0bd 2263 2c3c 8bb7 56be
00000330: f602 86bd f33a 07be d0dd 063d 655b 2d3e
00000340: 23e7 bfbd 667e f23a b1fb 673c bc5d 93be
00000350: b63e f3bd da41 3e3e c82f 953d 9e28 023e
00000360: c796 fabb 3726 f4bc 95da 11be cc59 6abd
00000370: a4ba 183e 51fb 9ebd 607b d5bd b7bc 72bc
00000380: 47f9 6d3c ee50 ac3d 6ed1 7dbc 8071 a1bd
00000390: 225d 4039 0c32 4ebe fec0 37bd 8b79 73be
000003a0: 9d9f 5cbe e2c2 9ebc b69c 48bc b998 41be
000003b0: 4ab4 983c 2746 92bd 61d1 b1bd b915 1b3d
000003c0: 77df 863d e2c8 123e d0a3 d9bd 6107 1abe
000003d0: af97 5d3d 0694 d53d 6fb8 16bd 42ee cbbd
000003e0: 356a 7cbd 781f a13d db46 d53d c216 85bb
000003f0: 714d 623c b0ae cfbd 6591 7d3d 35a8 36bd

a2c_network.actor_mlp0.2.bias f4 [128]
-0.14147152 0.0209018 -0.17516346 -0.036232524 -0.21224718 0.07097981 0.091891214 -0.23401242
-0.11595809 -0.15330905 9.5121955e-05 -0.023912847 -0.050971393 -0.03956556 -0.044011552 0.0412446
-0.014144105 -0.06514939 -0.033931207 -0.09486849 -0.077529326 0.028304728 -0.10650216 -0.05563594
-0.17389543 0.004424547 -0.16986963 -0.13030931 0.0076014213 0.033663392 -0.18023328 -0.02772818
-0.10413361 0.046132315 -0.17187762 -0.2506436 -0.12204201 -0.04487507 0.09796983 0.04670515
0.14101909 0.1042805 -0.13564265 0.16786179 0.04168039 0.215344 0.16067725 -0.14479603
-0.09166728 -0.13706428 -0.06777459 -0.09492491 -0.017090758 -0.0014072442 -0.008418944 -0.031594876
-0.0986824 0.11977287 -0.08603779 0.119483024 0.1138276 0.05118775 -0.1696148 0.03981796
-0.16579829 -0.16961634 -0.1149733 -0.023780338 -0.13856183 -0.12929998 -0.19751255 0.12513371
0.10771609 -0.12231132 0.026741823 -0.00066342216 -0.10124326 -0.0264523 0.0055402326 0.0896328
-0.07587971 0.17359705 -0.14240341 -0.12974715 -0.0064292974 -0.22839658 0.06994234 -0.060157094
0.05978277 0.022705989 -0.108289964 -0.16257922 -0.105200015 -0.065064386 -0.12001815 -0.023554016
-0.09494398 -0.1644754 -0.1982318 -0.24147728 0.041043237 -0.06942591 -0.07131254 -0.07051078
-0.1717781 0.10314743 0.10283638 0.004885542 0.0060095917 -0.05905895 -0.043815255 -0.0421472
0.12753731 -0.10737446 0.12972215 -0.10153158 -0.16320989 -0.11156555 0.024144722 0.023592778
-0.07171566 0.10046161 -0.11100832 -0.23303671 0.09098516 -0.026507242 -0.046569567 -0.08576692
00000000: e9dd 10be 403a ab3c 0d5e 33be 8e68 14bd
00000010: 5357 59be dd5d 913d 7631 bc3d f4a0 6fbe
00000020: 6f7b edbd 0cfd 1cbe 367c c738 e0e4 c3bc
00000030: 61c7 50bd 7f0f 22bd 7545 34bd 19f0 283d
00000040: adbc 67bc 0b6d 85bd 73fb 0abd 694a c2bd
00000050: b2c7 9ebd 51df e73c ce1d dabd 83e2 63bd
00000060: a511 32be cafb 903b 4ef2 2dbe ce6f 05be
00000070: 5815 f93b a0e2 093d 138f 38be 3526 e3bc
00000080: 0144 d5bd 3df5 3c3d b000 30be 5c54 80be
00000090: 29f1 f9bd ecce 37bd 68a4 c83d e64d 3f3d
000000a0: 4f67 103e 0491 d53d e8e5 0abe f6e3 2b3e
000000b0: 0eb9 2a3d 2383 5c3e 9488 243e 6945 14be
000000c0: 0ebc bbbd 945a 0cbe 67cd 8abd fe67 c2bd
000000d0: eb01 8cbc 4873 b8ba 9cef 09bc a169 01bd
000000e0: 001a cabd 7a4b f53d 9534 b0bd 84b3 f43d
000000f0: 721e e93d 3faa 513d 81af 2dbe 2818 233d
00000100: 07c7 29be e8af 2dbe 1f77 ebbd fcce c2bc
00000110: 27e3 0dbe 3767 04be bb40 4abe 0d23 003e
00000120: 419a dc3d 5b7e fabd ab11 db3c 82e9 2dba
00000130: a058 cfbd 7eb2 d8bc d78a b53b 6791 b73d
00000140: d266 9bbd 6dc3 313e 33d2 11be 70dc 04be
00000150: dbac d2bb cbe0 69be ee3d 8f3d 4967 76bd
00000160: c7de 743d e901 ba3c 21c7 ddbd 2b7b 26be
00000170: 1b73 d7bd 7a40 85bd 13cc f5bd 5af4 c0bc
00000180: fd71 c2bd 3d6c 28be 47fd 4abe d245 77be
00000190: f41c 283d 2c2f 8ebd 4f0c 92bd f567 90bd
000001a0: 99e6 2fbe f63e d33d e19b d23d e616 a03b
000001b0: 1cec c43b cce7 71bd a077 33bd 8ba2 2cbd
000001c0: 2499 023e 24e7 dbbd e2d5 043e caef cfbd
000001d0: 7e20 27be 7b7c e4bd 27cb c53c a445 c13c
000001e0: a9df 92bd d1be cd3d 5458 e3bd 2da1 6ebe
000001f0: 6d56 ba3d b725 d9bc bbbf 3ebd 91a6 afbd

a2c_network.actor_mlp0.4.weight f4 [64, 128]
0.16329235 -0.04266469 -0.109714575 -0.1265009 0.090298064 -0.025280368 -0.0354522 -0.052299943
-0.060413163 0.02043725 -0.040529884 -0.054391336 -0.069778785 -0.11726038 0.07254085 -0.1554472
0.011489499 0.072959065 -0.07882629 0.02032176 0.015043073 -0.09772494 -8.483111e-05 -0.13344693
0.07339718 -0.0772392 0.10410333 -0.03567904 -0.014329025 0.09398996 0.020960435 -0.07034184
-0.0006934009 0.042682707 -0.088019736 -0.12080652 -0.08741696 -0.09204092 -0.12777747 -0.07299624
-0.0208502 0.032428555 -0.08014486 0.035677597 -0.06467507 -0.02854223 -0.020854939 -0.028077966
0.0770853 0.0043965634 0.17933285 0.1453509 0.053147126 -0.18453498 0.017869536 0.03364533
-0.1388832 -0.12423913 0.03608663 0.0983529 0.019209834 -0.17748217 0.007454363 -0.19145712
-0.103060916 0.070249416 -0.079662204 -0.06895792 -0.08283467 -0.034605153 0.003838188 0.03982199
-0.016916366 0.026091617 -0.10358647 -0.14150654 0.10829488 -0.052362267 -0.027285598 -0.036623526
0.11632969 -0.047298107 0.067326225 0.041713715 -0.06984411 0.0041065067 0.09855391 0.047629606
0.025564164 0.08077776 -0.06371393 -0.04143747 -0.15860216 -0.066897534 0.10239923 -0.05289803
-0.04186644 -0.036067236 -0.1925632 -0.06895239 -0.021546954 0.024195569 -0.038721964 0.14228351
0.025016159 -0.0020469406 -0.10742607 0.08389771 -0.09252102 0.105331294 -0.045230184 0.058077253
-0.06408328 -0.09282793 -0.04195775 -0.09282631 -0.0719155 -0.048446815 -0.047932897 -0.03446904
-0.058193292 0.2300564 0.09401445 0.07331574 -0.038223587 0.024579626 -0.027782772 0.030863207
-0.018127035 -0.10291736 0.06415201 -0.03720922 0.112855755 -0.052256983 0.00039429008 0.15855676
-0.12048073 0.10640382 0.04420067 0.020161854 0.020083755 -0.05761924 -0.008087283 -0.1190466
0.02105101 0.05082854 -0.1371864 -0.021680143 -0.18986486 -0.1059759 -0.041014735 -0.077179536
-0.20092757 -0.1297875 0.27814567 -0.023938423 0.009020491 0.21901102 -0.009782425 0.050352998
-0.13654532 -0.061178736 -0.08254472 -0.12937324 -0.0037008885 0.07959128 -0.03762951 -0.01443116
0.12429362 -0.043704323 0.019005783 -0.11292794 -0.012608175 0.09059907 -0.030235542 0.06788903
-0.07997238 0.2050923 -0.0036446727 0.11780596 -0.002628409 -0.029486518 -0.068945125 0.13004297
0.14392291 -0.005962933 0.08883115 -0.07650065 0.011111269 0.063043 0.05669376 0.00347877
-0.17149362 0.07301241 0.04192934 -0.12555316 0.0058464166 0.01976638 0.060019057 -0.07094049
-0.118658595 0.0071366793 0.020467937 -0.054626882 -0.035373364 -0.053135414 -0.030876223 0.070651844
-0.10650765 -0.23856203 -0.012234948 -0.15691167 -0.062318385 -0.12229683 -0.15855008 -0.06245691
0.032729074 0.06302877 -0.17211458 -0.065347314 0.026387703 -0.06898121 0.004496104 -0.058256615
-0.0025052982 -0.06719299 -0.10870495 0.015049591 0.0025211342 -0.15351786 -0.010166059 0.048910215
-0.06608901 -0.1270766 -0.0155718755 -0.05818687 -0.04147854 -0.034932368 0.053971346 0.0040803063
0.02119836 -0.07034529 0.035534315 -0.08686441 -0.043330822 -0.11266943 -0.009110273 -0.09469034
-0.023723645 -0.0716536 -0.06622536 -0.058840763 -0.014590003 0.1313079 0.01416382 -0.023393154
00000000: 1c36 273e 2cc1 2ebd 09b2 e0bd 7489 01be
00000010: 31ee b83d c618 cfbc 5336 11bd 7738 56bd
00000020: cb73 77bd 056c a73c aa02 26bd 73c9 5ebd
00000030: 2ee8 8ebd 3626 f0bd 4c90 943d 8d2d 1fbe
00000040: 743e 3c3c 906b 953d ae6f a1bd d279 a63c
00000050: 3977 763c 0324 c8bd 5be7 b1b8 50a6 08be
00000060: 4351 963d 962f 9ebd 2034 d53d 2f24 12bd
00000070: 49c4 6abc cf7d c03d 38b5 ab3c 620f 90bd
00000080: 59c5 35ba 10d4 2e3d b143 b4bd 6969 f7bd
00000090: aa07 b3bd f37f bcbd 19d8 02be 0d7f 95bd
000000a0: 0ace aabc ced3 043d fd22 a4bd ac22 123d
000000b0: 5d74 84bd 65d1 e9bc fad7 aabc c303 e6bc
000000c0: e6de 9d3d 0c11 903b 08a3 373e ded6 143e
000000d0: cdb0 593d bdf6 3cbe 2263 923c b0cf 093d
000000e0: 6637 0ebe 1671 febd 93cf 133d 3f6d c93d
000000f0: f15d 9d3c e3bd 35be bb43 f43b 560d 44be
00000100: 9a11 d3bd edde 8f3d f025 a3bd cf39 8dbd
00000110: 39a5 a9bd 22be 0dbd 1c8a 7b3b 621c 233d
00000120: 3194 8abc 16be d53c 2525 d4bd 17e7 10be
00000130: b5c9 dd3d d179 56bd 0c86 dfbc 8d02 16bd
00000140: 433e ee3d a9bb 41bd 55e2 893d 00dc 2a3d
00000150: 6e0a 8fbd e08f 863b a2d6 c93d 4317 433d
00000160: f06b d13c cf6e a53d 737c 82bd 56ba 29bd
00000170: 9b68 22be 9301 89bd b0b6 d13d 9bab 58bd
00000180: 257c 2bbd 3dbb 13bd 4a2f 45be e936 8dbd
00000190: 3d83 b0bc c935 c63c ec9a 1ebd c5b2 113e
000001a0: b0ee cc3c f725 06bb 3302 dcbd 90d2 ab3d
000001b0: a97b bdbd efb7 d73d 4943 39bd 6ae2 6d3d
000001c0: 183e 83bd 921c bebd e4db 2bbd b81b bebd
000001d0: 6f48 93bd 2b70 46bd 4955 44bd 682f 0dbd
000001e0: 175c 6ebd e893 6b3e a68a c03d 9026 963d
000001f0: 5690 1cbd 365b c93c b298 e3bc d6d4 fc3c
00000200: 267f 94bc 56c6 d2bd 2162 833d b268 18bd
00000210: eb20 e73d 6b0b 56bd b8b8 ce39 b45c 223e
00000220: 9abe f6bd 3fea d93d c30b 353d 792a a53c
00000230: b086 a43c 2702 6cbd 8680 04bc b4ce f3bd
00000240: 2b73 ac3c 9631 503d 977a 0cbe 8e9a b1bc
00000250: ef6b 42be e509 d9bd 11ff 27bd 4e10 9ebd
00000260: f5bf 4dbe 04e7 04be 1c69 8e3e 831a c4bc
00000270: aeca 133c 6d44 603e 7746 20bc f23e 4e3d
00000280: 89d2 0bbe 8e96 7abd 350d a9bd 6b7a 04be
00000290: 9b8a 72bb c100 a33d 6721 1abd ac70 6cbc
000002a0: a78d fe3d 4e03 33bd 04b2 9b3c c446 e7bd
000002b0: 8592 4ebc 018c b93d 87b0 f7bc 6709 8b3d
000002c0: 8fc8 a3bd b703 523e 76db 6ebb 4044 f13d
000002d0: 6341 2cbb b68d f1bc 1a33 8dbd fc29 053e
000002e0: 8760 133e b564 c3bb 1bed b53d 5fac 9cbd
000002f0: 0a0c 363c b01c 813d b737 683d 13fc 633b
00000300: 069c 2fbe 8887 953d 1abe 2b3d 0291 00be
00000310: 4c93 bf3b 1aed a13c 8bd6 753d 3f49 91bd
00000320: 4703 f3bd ceda e93b 60ac a73c 70c0 5fbd
00000330: a9e3 10bd 85a4 59bd 22f0 fcbc eab1 903d
00000340: af20 dabd 9b49 74be 1775 48bc 74ad 20be
00000350: 9041 7fbd c376 fabd f45a 22be d1d2 7fbd
00000360: ec0e 063d 3a15 813d ce3e 30be d0d4 85bd
00000370: 062b d83c 0546 8dbd 0e54 933b 7d9e 6ebd
00000380: ee2f 24bb 7a9c 89bd b3a0 debd 8f92 763c
00000390: 9d39 253b c933 1dbe 8b8f 26bc 1456 483d
000003a0: ad59 87bd 5e20 02be 2e21 7fbc 5b55 6ebd
000003b0: 67e5 29bd 3e15 0fbd 0f11 5d3d 17b4 853b
000003c0: 2fa8 ad3c 3111 90bd 6e8c 113d f8e5 b1bd
000003d0: a97b 31bd 3bbf e6bd 4143 15bc 02ed c1bd
000003e0: 1758 c2bc 1fbf 92bd 29a1 87bd 0303 71bd
000003f0: e80a 6fbc 9475 063e 5e0f 683c 00a3 bfbc

a2c_network.actor_mlp0.4.bias f4 [64]
-0.0026885031 -0.12437421 -0.076114066 -0.009612481 -0.11401008 0.1549561 -0.03714637 -0.12093755
0.06242694 -0.09804908 -0.22833705 -0.042862847 -0.017835055 0.029294139 -0.03651411 -0.14277111
-0.041052666 -0.101170935 -0.12362824 -0.15298527 0.030519107 -0.014853203 -0.015283463 -0.045685038
-0.19925864 -0.11108306 0.07412853 0.094905406 0.06398444 -0.16510291 -0.09602941 -0.14469017
-0.1297919 -0.11329043 -0.136886 0.04647814 0.09135029 -0.032555416 -0.15162435 -0.094701365
0.13068275 -0.11778974 -0.15208592 -0.1407631 0.0156231625 0.054047685 0.03361348 -0.05017119
0.09642296 0.09853279 -0.16462982 -0.015182344 -0.030997308 -0.1446933 -0.06939305 -0.10910751
-0.1683674 0.05252582 0.052312125 0.052998573 -0.16086334 0.063112095 -0.17126572 -0.14309716
00000000: 9931 30bb e8b7 febd b1e1 9bbd ab7d 1dbc
00000010: 1e7e e9bd d0ac 1e3e cb26 18bd 1bae f7bd
00000020: 64b3 7f3d f5cd c8bd 30d1 69be f490 2fbd
00000030: d21a 92bc 43fa ef3c d28f 15bd 9732 12be
00000040: d726 28bd b532 cfbd cd30 fdbd 2ca8 1cbe
00000050: 3503 fa3c d95a 73bc 7d67 7abc 3c20 3bbd
00000060: 750a 4cbe 847f e3bd b3d0 973d c45d c23d
00000070: 460a 833d bd10 29be 11ab c4bd a929 14be
00000080: 2be8 04be d004 e8bd d82b 0cbe dd5f 3e3d
00000090: dc15 bb3d d458 05bd 6a43 1bbe caf2 c1bd
000000a0: b3d1 053e bf3b f1bd 69bc 1bbe 3424 10be
000000b0: 4bf8 7f3c 1b61 5d3d 4aae 093d 4e80 4dbd
000000c0: 6779 c53d 8fcb c93d b894 28be 5ebf 78bc
000000d0: 11ee fdbc 7b2a 14be f21d 8ebd c273 dfbd
000000e0: 8168 2cbe 5025 573d 3d45 563d 0815 593d
000000f0: 5cb9 24be ea40 813d 4860 2fbe 1088 12be

a2c_network.value0.weight f4 [1, 64]
0.11295717 -0.037904117 -0.01556754 -0.010099686 -0.010291963 0.33412308 -0.0045623435 -0.06989726
-0.00986516 -0.28167373 -0.12914623 0.0038501122 0.10514133 0.03302726 0.0030299448 -0.100984536
0.3026424 -0.33581105 -0.09119484 -0.23406117 0.07085783 -0.0107182 0.04940186 0.01944932
-0.109002054 -0.09702663 0.20717888 0.20767924 0.013664017 -0.15438461 -0.1760019 0.026471311
-0.31339267 -0.04681196 0.433837 -0.028630566 0.21908507 -0.07109736 -0.043259334 -0.23903315
0.22884311 -0.28376424 -0.022243118 -0.2689669 0.076847404 0.2727009 0.12985145 -0.039239682
0.13696237 0.18278447 -0.07945734 0.027335754 0.3699561 -0.24743496 0.011005941 -0.09263452
-0.13207129 0.11946242 0.20789485 0.15910925 -0.114908375 0.37173912 -0.061413597 -0.22164887
00000000: 1756 e73d 5941 1bbd ff0e 7fbc 2779 25bc
00000010: 9f9f 28bc 2e12 ab3e b67f 95bb 4b26 8fbd
00000020: 7ba1 21bc 8a37 90be e93e 04be 2a52 7c3b
00000030: 5654 d73d 9847 073d 0a92 463b fbd0 cebd
00000040: f2f3 9a3e 6def abbe 5cc4 babd bbad 6fbe
00000050: e91d 913d 649b 2fbc 9b59 4a3d 2e54 9f3c
00000060: 783c dfbd e6b5 c6bd b326 543e dea9 543e
00000070: 0bdf 5f3c 0017 1ebe d839 34be 5dda d83c
00000080: 0175 a0be e6bd 3fbd e21f de3e a68a eabc
00000090: d657 603e 7e9b 91bd b330 31bd 1bc5 74be
000000a0: d955 6a3e 8c49 91be 3337 b6bc 08b6 89be
000000b0: 2c62 9d3d 749f 8b3e c7f7 043e cab9 20bd
000000c0: dd3f 0c3e da2b 3b3e 88ba a2bd 3bef df3c
000000d0: e36a bd3e 975f 7dbe 4352 343c 2bb7 bdbd
000000e0: b23d 07be b7a8 f43d 63e2 543e 89ed 223e
000000f0: 1555 ebbd 9754 be3e d38c 7bbd ecf7 62be

a2c_network.mu0.weight f4 [12, 64]
0.02709676 0.06351897 0.08663921 -0.10577223 0.077498466 -0.08797011 0.040346168 -0.108995914
0.22944833 -0.014409592 0.17180698 -0.023801932 0.06137734 -0.09171928 -0.05093822 0.11436684
0.09719153 0.01588397 -0.09291859 -0.002952841 -0.051824506 -0.009540726 -0.07319879 -0.01800494
-0.08942672 -0.09759538 -0.067755 -0.030961698 -0.003353943 -0.057110194 0.053617418 0.031889588
0.035231326 0.10910597 0.008623282 -0.084439985 -0.08531011 -0.0650535 0.021153975 0.07926035
0.12931502 -0.005112462 0.07552692 -0.049998187 0.14776057 -0.16103055 0.08961734 -0.14846498
-0.08709262 0.018448593 0.0010136707 -0.01746061 -0.037188128 0.13105886 0.052157816 -0.16269867
0.06679666 0.020370726 -0.081518754 -0.026413057 0.03804762 0.04533036 -0.090577856 -0.01948589
-0.06093825 -0.03705098 0.04347438 0.04777706 0.10655547 -0.04016046 -0.012161196 0.042912427
0.09228463 0.00040264847 -0.068566285 0.046662726 -0.013645641 0.20201705 -0.05696907 0.08645111
0.04589354 -0.07065297 0.25039178 -0.012808809 0.052357744 -0.010128769 0.059892844 0.01784608
-0.03273435 -0.11324491 -0.11507489 -0.017106205 -0.055243995 0.006837712 -0.031671762 0.051503986
0.020164315 0.065057665 0.07565026 -0.024014069 -0.041514203 -0.069519274 -7.943783e-05 -0.124541
0.05739006 0.06434473 0.05902275 0.0029506907 -0.05996326 0.07339084 -0.09795241 -0.03337084
-0.05951791 -0.12812527 -0.018086705 -0.016569149 -0.031356618 -0.0133665055 0.17363912 -0.050249428
-0.1366419 0.031796772 0.03169198 -0.10557602 0.14257953 0.067762904 -0.06989526 -0.07922525
0.0034118313 0.054891493 0.10650434 -0.012475875 -0.07177235 0.01557862 -0.099047065 0.001386916
-0.022027029 -0.028288476 -0.044092987 0.006111794 -0.035047803 0.02006721 0.013030651 0.019189665
0.045870468 -0.025451953 -0.050891735 -0.058844335 -0.04359635 0.10221442 0.0916334 -0.06690391
-0.014704789 -0.033873305 0.04056817 -0.0058344235 0.04942488 0.079800844 -0.03433531 -0.05787417
-0.01064974 0.11741157 0.11709329 -0.14434168 0.026836338 -0.006330214 0.024667585 -0.018948566
0.049645733 -0.053249005 -0.033802815 0.06172462 -0.06955651 -0.027099766 -0.051873427 0.10883543
-0.059534065 0.00050598395 0.00021786703 -0.03392203 0.09353221 -0.038748987 -0.091696374 0.030285323
0.06420977 -0.04901626 -0.039397884 0.0178285 0.01818431 0.010135678 -0.010827891 -0.005350671
0.027688745 0.010269801 0.07490045 0.06652659 0.007838751 -0.017656514 0.008049614 -0.059740145
-0.04772539 -0.00039273265 0.022676906 0.084216945 -0.016651701 -0.01301508 0.07549118 -0.10537717
-0.08146183 0.031138163 0.06130247 -0.12743272 0.114618465 -0.022911236 0.06746519 0.048516966
0.06351365 -0.047009572 0.07040362 0.045625728 -0.08087015 0.029815555 1.5780728e-05 0.017886247
-0.02153142 -0.090923406 0.08656201 0.022247592 -0.124738045 0.09110908 0.1150837 0.04378552
0.058094777 0.042935926 0.09281607 0.053154934 0.05142357 -0.060125146 0.16395946 0.088576525
-0.069338314 0.0013271075 -0.029612402 -0.030027775 -0.041417968 0.024135236 -0.14072642 0.028575644
-0.08239175 0.08232386 0.007143674 -0.0659532 -0.053583197 0.033536233 0.0459561 0.06861152
00000000: 06fa dd3c 3c16 823d e66f b13d 1c9f d8bd
00000010: 84b7 9e3d ac29 b4bd 0642 253d 4039 dfbd
00000020: 81f4 6a3e 3616 6cbc 2bee 2f3e 45fc c2bc
00000030: ce66 7b3d 51d7 bbbd 98a4 50bd 2939 ea3d
00000040: 5a0c c73d 191f 823c 1a4c bebd 7484 41bb
00000050: ef45 54bd b550 1cbc 3fe9 95bd 197f 93bc
00000060: 5b25 b7bd 16e0 c7bd 22c3 8abd 63a3 fdbc
00000070: d3cd 5bbb 61ec 69bd f09d 5b3d a89e 023d
00000080: b94e 103d f372 df3d ab48 0d3c dfee acbd
00000090: 11b7 aebd c53a 85bd 1a4b ad3c 4053 a23d
000000a0: 286b 043e 7186 a7bb dcad 9a3d e6ca 4cbd
000000b0: 8c4e 173e 31e5 24be 4c89 b73d 3407 18be
000000c0: 9e5d b2bd 8121 973c 25dd 843a 8e09 8fbc
000000d0: 9452 18bd 4b34 063e 6fa3 553d 7b9a 26be
000000e0: b0cc 883d 82e0 a63c 4ef3 a6bd 3260 d8bc
000000f0: d2d7 1b3d 54ac 393d e280 b9bd e0a0 9fbc
00000100: 639a 79bd c5c2 17bd 3112 323d e1b1 433d
00000110: c139 da3d 4b7f 24bd c13f 47bc f1c4 2f3d
00000120: b9ff bc3d 901a d339 7b6c 8cbd 6a21 3f3d
00000130: f791 5fbc 8fdd 4e3e 6658 69bd 480d b13d
00000140: ddfa 3b3d 81b2 90bd 5a33 803e 0adc 51bc
00000150: 1375 563d 23f3 25bc 3352 753d f131 923c
00000160: 7414 06bd f3ec e7bd 62ac ebbd 5022 8cbc
00000170: 8747 62bd e30e e03b 40ba 01bd d8f5 523d
00000180: a22f a53c f43c 853d 86ee 9a3d 27b9 c4bc
00000190: cc0a 2abd 1f60 8ebd dc97 a6b8 5a0f ffbd
000001a0: d711 6b3d 2bc7 833d d7c1 713d 6060 413b
000001b0: 099c 75bd f04d 963d 469b c8bd ddaf 08bd
000001c0: 0dc9 73bd 4533 03be 922a 94bc 06bc 87bc
000001d0: cc6f 00bd 30ff 5abc 74ce 313e 58d2 4dbd
000001e0: dbeb 0bbe 553d 023d 73cf 013d 3e38 d8bd
000001f0: 5e00 123e 47c7 8a3d 3f25 8fbd d940 a2bd
00000200: 0899 5f3b e7d5 603d f31e da3d 9d67 4cbc
00000210: 62fd 92bd 783d 7f3c 30d9 cabd 2ec9 b53a
00000220: 0772 b4bc 3cbd e7bc d99a 34bd 7245 c83b
00000230: 498e 0fbd fd63 a43c 837e 553c a533 9d3c
00000240: ace2 3b3d 9d80 d0bc da73 50bd c206 71bd
00000250: 1692 32bd cb55 d13d 4baa bb3d eb04 89bd
00000260: 5bec 70bc bcbe 0abd cf2a 263d b12e bfbb
00000270: be71 4a3d a06e a33d 2fa3 0cbd 770d 6dbd
00000280: 3f7c 2ebc 7a75 f03d 9bce ef3d 4ece 13be
00000290: e1d7 db3c af6d cfbb ad13 ca3c 063a 9bbc
000002a0: 5359 4b3d a11b 5abd d274 0abd f5d2 7c3d
000002b0: a573 8ebd 5400 debc 3b79 54bd 1ce5 de3d
000002c0: fed9 73bd 02a4 043a 3c73 6439 d4f1 0abd
000002d0: d18d bf3d 42b7 1ebd 4fcb bbbd ed18 f83c
000002e0: 6980 833d 46c5 48bd ad5f 21bd 130d 923c
000002f0: 43f7 943c 1d10 263c 7767 31bc ae54 afbb
00000300: 82d3 e23c ab42 283c 6865 993d 183f 883d
00000310: 1b6e 003c 65a4 90bc 87e2 033c 15b2 74bd
00000320: b37b 43bd afe7 cdb9 ebc4 b93c ef79 ac3d
00000330: 2669 88bc 343d 55bc 1f9b 9a3d fccf d7bd
00000340: 76d5 a6bd 7615 ff3c 4c18 7b3d b97d 02be
00000350: 16bd ea3d 58b0 bbbc 312b 8a3d bab9 463d
00000360: 7213 823d 1c8d 40bd c62f 903d 0be2 3a3d
00000370: 409f a5bd c03f f43c db60 8437 2e86 923c
00000380: a962 b0bc 0d36 babd 6c47 b13d 9540 b63c
00000390: a976 ffbd 6697 ba3d 01b1 eb3d 7258 333d
000003a0: caf4 6d3d 95dd 2f3d 5a16 be3d fdb8 593d
000003b0: 85a1 523d c945 76bd fde4 273e 9c67 b53d
000003c0: 3f01 8ebd 57f2 ad3a b595 f2bc cffc f5bc
000003d0: e3a5 29bd 42b7 c53c 961a 10be 7817 ea3c
000003e0: 01bd a8bd 6999 a83d 7b15 ea3b 7912 87bd
000003f0: 0e7a 5bbd 4a5d 093d 773c 3c3d 3284 8c3d

a2c_network.mu0.bias f4 [12]
-0.015501332 -0.050556738 -0.033842992 -0.026794745 -0.039563775 0.06263653 0.0352033 -0.051425677
-0.06324204 -0.024157906 -0.04361782 -0.028358638
00000000: 4cf9 7dbc 9514 4fbd f39e 0abd a780 dbbc
00000010: a00d 22bd 9547 803d 5631 103d bba3 52bd
00000020: 0b85 81bd cde6 c5bc 99a8 32bd 6050 e8bc

a2c_network.adapt_weight0.weight f4 [1, 12]
-0.26422232 0.17432591 -0.021807296 -0.081189536 0.123080395 -0.12233453 -0.0035636819 0.277772
0.1234111 -0.23972157 0.015614651 -0.03060939
00000000: 2648 87be 7e82 323e 37a5 b2bc b346 a6bd
00000010: 9311 fc3d 878a fabd a98c 69bb 2238 8e3e
00000020: f5be fc3d 9279 75be 98d4 7f3c 8bc0 fabc

exp_avg f4 [12]
0.018866496 0.028751625 0.0065358686 -0.016343823 0.002276879 0.00025319055 -0.0034643044 0.009053035
0.03492063 0.0025607364 0.020318864 -0.026103145
00000000: e98d 9a3c 8788 eb3c d72a d63b 7be3 85bc
00000010: b137 153b a9be 8439 6209 63bb 2e53 143c
00000020: ef08 0f3d 07d2 273b bf73 a63c 43d6 d5bc

exp_avg_sq f4 [12]
0.010073647 0.011767133 0.012110326 0.010666276 0.010397873 0.00830247 0.010431057 0.012397248
0.01037956 0.0098102875 0.0092791775 0.009457112
00000000: f00b 253c efca 403c 646a 463c 9bc1 2e3c
00000010: d75b 2a3c 1507 083c 06e7 2a3c d41d 4b3c
00000020: 080f 2a3c 54bb 203c b107 183c 01f2 1a3c

exp_avg f4 [256, 41]
0.004766354 0.0034378294 0.0037998797 0.0052497406 -0.0038801706 0.0020339508 0.0030220603 -0.00085159607
0.0021256788 0.0021246814 -0.001671425 -0.0013158278 0.0012934956 0.0027995557 -0.003118798 -4.7468247e-06
0.0 0.0 0.0 -7.655148e-06 0.006035516 0.004721987 0.007938576 0.0014397079
-0.000961703 0.0020833903 -0.000299647 0.0 0.0 0.0 0.0 0.0
0.0 0.0 0.0 0.0 0.0 0.0 0.0 0.0
0.0 0.0016459643 0.0073632863 0.0027586736 0.0053966823 -0.0027575972 -0.00071263424 0.004489318
-0.0011972996 -0.0046312506 -0.0027309293 -0.0037581762 0.0028605205 0.0028202038 6.6129825e-05 -0.00044808828
-7.655136e-06 0.0 0.0 0.0 -1.2354593e-05 -0.0008175559 0.0064979717 -0.002276241
0.0008380597 -0.00041712905 0.0031140891 -0.00049187284 0.0 0.0 0.0 0.0
0.0 0.0 0.0 0.0 0.0 0.0 0.0 0.0
0.0 0.0 0.009171123 -0.0015649498 0.0036155782 -0.0011920776 -0.0035773318 0.003959145
0.0017194794 0.0026211452 0.0018725 0.0048371227 -0.0019948187 -0.004174487 -0.000105718886 0.0051891985
-0.0029403013 -2.9959776e-06 0.0 0.0 0.0 -4.837318e-06 0.012311696 -0.00050935516
0.010083483 0.000463382 -0.00016673394 -0.0024775092 -0.00026232944 0.0 0.0 0.0
0.0 0.0 0.0 0.0 0.0 0.0 0.0 0.0
0.0 0.0 0.0 -0.029269012 -0.019228281 -0.005387689 -0.028971931 0.016265506
-0.0014983704 -0.018301668 0.00942289 0.010137602 0.0073469924 0.011392975 0.012750958 0.0009054108
-0.022843013 0.00094876497 4.3788034e-05 0.0 0.0 0.0 7.065784e-05 -0.024824867
-0.013867633 0.013718146 -0.0010652685 0.004929881 -0.008837033 0.003062412 0.0 0.0
0.0 0.0 0.0 0.0 0.0 0.0 0.0 0.0
0.0 0.0 0.0 0.0 -0.010567314 -0.0013647343 -0.001980747 -0.012866243
0.009426315 0.0018082669 -0.006477323 0.010150208 0.0029508907 0.0064979144 0.006503614 0.0055691036
0.0008794741 -0.010622339 -0.0027135634 2.808513e-05 0.0 0.0 0.0 4.5302997e-05
-0.00835087 0.0027019477 0.0070660883 0.0008396443 0.00113891 -0.0055240034 0.0017885915 0.0
0.0 0.0 0.0 0.0 0.0 0.0 0.0 0.0
0.0 0.0 0.0 0.0 0.0 -0.03144776 0.006622221 -0.011036026
-0.015034731 0.018235391 -0.005876209 -0.007133492 0.0065294113 0.002110246 0.0008039497 0.005260729
0.011447002 0.003909424 -0.017128106 0.0047975467 5.4506785e-05 0.0 0.0 0.0
8.7932385e-05 -0.032171294 0.01386125 -0.008220728 -0.0002612256 0.0022156849 -0.002616385 0.003615914
0.0 0.0 0.0 0.0 0.0 0.0 0.0 0.0
0.0 0.0 0.0 0.0 0.0 0.0 0.010789517 0.00014276385
-0.0029400755 0.010052529 -0.009609505 -0.0013848935 0.0082617365 -0.010944634 -0.0038904913 -0.0073003327
00000000: 132f 9c3b 354d 613b 6707 793b 0406 ac3b
00000010: 764a 7ebb 084c 053b c20d 463b a53d 5fba
00000020: f94e 0b3b 3d3e 0b3b b713 dbba db77 acba
00000030: 838a a93a c078 373b bf64 4cbb ea46 9fb6
00000040: 0000 0000 0000 0000 0000 0000 9c6e 00b7
00000050: 94c5 c53b e6ba 9a3b cd10 023c 95b4 bc3a
00000060: cc1a 7cba 7d89 083b f119 9db9 0000 0000
00000070: 0000 0000 0000 0000 0000 0000 0000 0000
00000080: 0000 0000 0000 0000 0000 0000 0000 0000
00000090: 0000 0000 0000 0000 0000 0000 0000 0000
000000a0: 0000 0000 66bd d73a b947 f13b ddca 343b
000000b0: a7d6 b03b ceb8 34bb 13d0 3aba 211b 933b
000000c0: b5ee 9cba bfc1 97bb 64f9 32bb bc4b 76bb
000000d0: 9277 3b3b 2bd3 383b 2eaf 8a38 64ed eab9
000000e0: 8f6e 00b7 0000 0000 0000 0000 0000 0000
000000f0: 9346 4fb7 3f51 56ba f0ec d43b fd2c 15bb
00000100: 3cb1 5b3a 1db2 dab9 bf15 4c3b 07f1 00ba
00000110: 0000 0000 0000 0000 0000 0000 0000 0000
00000120: 0000 0000 0000 0000 0000 0000 0000 0000
00000130: 0000 0000 0000 0000 0000 0000 0000 0000
00000140: 0000 0000 0000 0000 7a42 163c 001f cdba
00000150: 56f3 6c3b 7d3f 9cba ab71 6abb b7bb 813b
00000160: 2860 e13a 85c7 2b3b ad6e f53a ba80 9e3b
00000170: 81bb 02bb 23ca 88bb 65b5 ddb8 270a aa3b
00000180: 12b2 40bb 810e 49b6 0000 0000 0000 0000
00000190: 0000 0000 3f50 a2b6 ffb6 493c 3f86 05ba
000001a0: 3135 253c 14f2 f239 4dd5 2eb9 b55d 22bb
000001b0: 4389 89b9 0000 0000 0000 0000 0000 0000
000001c0: 0000 0000 0000 0000 0000 0000 0000 0000
000001d0: 0000 0000 0000 0000 0000 0000 0000 0000
000001e0: 0000 0000 0000 0000 0000 0000 91c5 efbc
000001f0: a184 9dbc 368b b0bb 8b56 edbc 3d3f 853c
00000200: f864 c4ba 61ed 95bc 7762 1a3c 2f18 263c
00000210: 0abf f03b 9aa9 3a3c 65e9 503c 1759 6d3a
00000220: 4521 bbbc 8ab6 783a 0ba9 3738 0000 0000
00000230: 0000 0000 0000 0000 242e 9438 855d cbbc
00000240: 1235 63bc 13c2 603c 7ba0 8bba d78a a13b
00000250: 34c9 10bc bfb2 483b 0000 0000 0000 0000
00000260: 0000 0000 0000 0000 0000 0000 0000 0000
00000270: 0000 0000 0000 0000 0000 0000 0000 0000
00000280: 0000 0000 0000 0000 0000 0000 0000 0000
00000290: 8722 2dbc e2e0 b2ba 6ccf 01bb efcc 52bc
000002a0: d570 1a3c 5e03 ed3a b93f d4bb 0f4d 263c
000002b0: bb63 413b 75ec d43b 451c d53b 077d b63b
000002c0: 828c 663a 5209 2ebc 0ad6 31bb 5c98 eb37
000002d0: 0000 0000 0000 0000 0000 0000 b903 3e38
000002e0: 16d2 08bc 2913 313b a58a e73b 931b 5c3a
000002f0: 7a47 953a b302 b5bb 2c6f ea3a 0000 0000
00000300: 0000 0000 0000 0000 0000 0000 0000 0000
00000310: 0000 0000 0000 0000 0000 0000 0000 0000
00000320: 0000 0000 0000 0000 0000 0000 0000 0000
00000330: 0000 0000 5ecf 00bd 37ff d83b 73d0 34bc
00000340: 3b54 76bc 6362 953c 378d c0bb 11c0 e9bb
00000350: acf4 d53b 0e4c 0a3b 27c0 523a 3262 ac3b
00000360: 358c 3b3c a01a 803b 3e50 8cbc bd34 9d3b
00000370: 379e 6438 0000 0000 0000 0000 0000 0000
00000380: 5768 b838 0cc6 03bd 4c1a 633c 3bb0 06bc
00000390: 1bf5 88b9 0635 113b a877 2bbb f8f8 6c3b
000003a0: 0000 0000 0000 0000 0000 0000 0000 0000
000003b0: 0000 0000 0000 0000 0000 0000 0000 0000
000003c0: 0000 0000 0000 0000 0000 0000 0000 0000
000003d0: 0000 0000 0000 0000 84c6 303c e1b2 1539
000003e0: 48ae 40bb 5db3 243c 2f71 1dbc 5185 b5ba
000003f0: 3c5c 073c 1f51 33bc 9df7 7ebb a137 efbb
